isoform_quantification/models/Kallisto_RSEM.pt (torch, 355784 bytes, 36 tensors)

lstm.weight_ih_l0 f8 [256, 2]
000000 80 a8 b9 c5 81 85 e8 bf 7b 7a 0a 71 a9 96 f6 bf
       -0.7662972318478438 -1.4117826858197577
000010 f6 24 70 c8 18 af eb bf 64 2b 31 2e df 78 f8 bf
       -0.8651241221242845 -1.5295097164514226
000020 2a 06 cb fd 77 d2 ed 3f 81 34 f0 9f bd a0 e7 3f
       0.9319419819732435 0.7383716701312012
000030 19 c1 8a ee cd 05 f1 3f 4e 39 c6 e4 33 9a cb bf
       1.063917094998095 -0.21564339323635767
000040 f9 0f ea 02 b7 f1 c9 bf dc d7 19 75 1d e8 da bf
       -0.20268905298519238 -0.4204171794475522
000050 c6 7b 8d 18 45 73 d0 3f ce e3 c7 8b d6 4a e0 bf
       0.25703551671716374 -0.5091355066389214
000060 72 93 fe 0c ef 68 ea bf f7 b2 b5 53 f2 db f7 bf
       -0.8253093007848362 -1.4911978979027347
000070 4f 87 f7 dc 67 0d fa bf f3 ca de 4a 87 9b f0 3f
       -1.62827287974547 1.0379708218212584
000080 34 9b f5 5b 0a 52 fb 3f e7 5c c2 0b 79 db f9 bf
       1.7075294105686227 -1.6160822352738309
000090 5e 80 f8 ff 6a 0b d3 3f a9 07 4c c8 53 0d f0 bf
       0.29757189747943424 -1.0032537292577024
0000a0 97 cf ff 13 b8 49 fb 3f e4 07 33 c3 cd d7 f6 bf
       1.705497816202273 -1.4276864647840677
0000b0 d0 ff b6 4c f4 14 e0 3f 92 ea 76 18 39 f5 e2 bf
       0.5025578974091278 -0.592434451849231
0000c0 d1 98 b3 af dd 9d ee 3f 42 ba 0e b1 07 3c f1 bf
       0.9567707473441037 -1.077155772810912
0000d0 c6 a8 6a a4 a1 50 f5 bf 31 f4 c4 63 78 29 f8 bf
       -1.332185404064647 -1.5101245782127644
0000e0 f0 1c a7 97 59 dd ec bf f3 1e 6f 7b b5 5b d1 bf
       -0.902020260044905 -0.2712224679384995
0000f0 f2 71 3d 82 fd 2a fb 3f 60 30 87 7a 3b aa ed 3f
       1.6979956710339335 0.9270303147436714
000100 f9 68 fd e1 78 86 ea bf 16 96 ad 7b 47 fa f4 3f
       -0.8289150632729437 1.3111033278631843
000110 ef 43 bb 67 89 46 e7 3f 79 eb da ca 1b eb 8c 3f
       0.7273604417806591 0.014120308998249108
000120 c2 ad c9 db aa 5c b9 bf a3 ab cb 6d 10 a2 fa bf
       -0.09907024255669852 -1.6645664490595002
000130 00 62 8b 83 0e de f0 3f b0 c4 37 82 bd 65 c4 3f
       1.0542130602317457 0.1593548665837594
000140 9c 77 18 76 7f 20 e3 bf 31 3d e1 cd 88 4f fa 3f
       -0.5977170282892419 1.6444175760442017
000150 3d 15 aa f8 03 08 e5 3f e6 4b 9b 4a c5 bc f6 bf
       0.657228456184988 -1.4210865892716753
000160 38 f3 f9 58 85 b5 e9 3f ad a7 90 8d d3 1d bc 3f
       0.8034083116359403 0.1098301144235438
000170 14 d7 4e d6 5c 89 f9 bf a9 51 0f 9f e1 69 e7 3f
       -1.5960358020215084 0.7316749674451347
000180 f1 d7 d2 75 d3 53 f4 3f 7d e0 62 59 8f 2d b0 bf
       1.2704653360829037 -0.06319518978387069
000190 1f 4c 17 7b 84 3b f5 bf 9a 7e 0a 10 18 ce c2 bf
       -1.3270306404344934 -0.14691448958636927
0001a0 67 3d 06 c2 c8 aa f0 bf 69 9d 40 2d 5b 47 e5 3f
       -1.041695363910401 0.6649604686580634
0001b0 ab d2 2b 10 80 c2 c3 bf 9e 64 44 5c 86 e0 d8 bf
       -0.15437317647560653 -0.3887039090200889
0001c0 b2 bb be 69 ac 30 f5 bf cf a3 b6 3f 66 68 f3 bf
       -1.3243831759134364 -1.2129881371313223
0001d0 54 27 2b 90 ef 62 fb 3f a8 dd 1a 79 fa 52 fb 3f
       1.711654246481392 1.7077584009801772
0001e0 60 63 c2 e1 0d 8f b4 3f 11 ab 67 69 0e 75 e1 3f
       0.08030783426000943 0.5455390986147411
0001f0 b2 7f 69 c9 64 51 f9 3f f1 5e 0f 0b 21 5c fa bf
       1.5823715083752004 -1.6474924499543102
000200 86 ff 8e 92 78 28 bc 3f b0 bd 0d ac 4c 38 f0 3f
       0.10999253824320307 1.0137449951979356
000210 b2 52 c7 48 0d c3 ee 3f 18 ab e2 5b 3f b6 f9 3f
       0.9613100453812733 1.6069940175318091
000220 62 9d e6 54 f8 46 f7 3f ec 33 4d 87 75 1c bd bf
       1.4548266712607405 -0.11371550133954117
000230 a9 a9 5c a7 1a 9c f2 bf bd 40 33 19 a8 e8 fa 3f
       -1.1631113565041267 1.6818009361632413
000240 86 2c fe 61 8e 89 f2 3f 8d d4 51 60 c0 41 f5 bf
       1.158583052429806 -1.328552604912406
000250 d8 19 5f ed 76 9a f7 3f 68 9d 17 67 65 ce dc bf
       1.4752110740970377 -0.45009741847612483
000260 24 35 c9 d6 a6 06 e3 bf bb 0c 7c 44 55 83 f5 bf
       -0.5945619769133015 -1.344563739316796
000270 2b e1 db 57 53 b5 e4 bf be b3 d1 67 a2 76 e6 bf
       -0.6471344676965932 -0.701981737872863
000280 2c 03 89 d8 53 fb e9 3f 9f c1 f7 f7 1a 07 c9 bf
       0.8119296292498794 -0.19552933795740743
000290 60 1b cc bb b7 64 f8 bf 72 a8 e0 30 68 f1 f7 3f
       -1.524589284499335 1.4964372548370446
0002a0 af ab a7 5d 1e 59 eb 3f 80 e7 0c 14 ef ef eb bf
       0.8546287373732094 -0.8730388061151046
0002b0 32 f4 3e 85 98 93 ee 3f 1f 2d 92 6c 09 b5 f3 bf
       0.9555170633754015 -1.2316984406523444
0002c0 2d 13 d3 7f 7c aa d9 bf 02 39 09 39 d5 ba d2 bf
       -0.4010306595121616 -0.2926533753387873
0002d0 0e 57 2e 5c cd 06 fa 3f 3a ae 3a 6e 9d 34 f2 3f
       1.6266606903859073 1.1378454500035233
0002e0 8f 47 70 54 5c 88 f6 3f 91 0e ed dc 83 b3 e4 3f
       1.4082911775953766 0.6469134631119734
0002f0 57 c7 27 91 d9 eb ec 3f 90 ef 9b a5 ca 8d cb 3f
       0.9037902674738046 0.21526463590987222
000300 47 48 a7 ed 4b 5a ba bf 9d ce 63 04 de 56 d0 3f
       -0.1029403166969881 0.2553019564504469
000310 f9 a6 39 b6 d7 9f d7 3f 20 cd 5f 31 62 03 fb bf
       0.36913101954870303 -1.6883260658913244
000320 e1 61 e8 fa 65 3b d4 bf 91 9a 4f 93 b4 39 f2 3f
       -0.31612538817128494 1.1390882257780144
000330 ad e5 4c 6b f9 b0 b7 bf 88 c7 f5 95 91 fe e0 bf
       -0.09254416341436551 -0.5310752800853473
000340 66 34 4c 5e 1f 3f fb bf 39 93 58 b0 3d 1a ec 3f
       -1.7029107745650207 0.8782032436616652
000350 b5 ed be 2e d5 1c f2 bf 4c b7 40 1f 6e 0f f7 bf
       -1.1320392442711242 -1.4412671299755457
000360 8a 6b 6d 8e 6d cf f4 bf ed 6c 72 8a 62 48 f9 3f
       -1.3006415904589823 1.580172100838179
000370 9a 62 04 4b 16 10 f4 3f 54 df 5e 19 87 9d e1 3f
       1.2539275102955458 0.5504794593352735
000380 a7 87 2e 18 e7 03 ec bf 5f 7f 9b fc 36 89 a4 3f
       -0.875476405363078 0.04010936578356338
000390 4d e8 33 d4 49 d0 f1 3f 81 ea 62 0e 52 f1 f3 3f
       1.1133516587419934 1.2464161455124272
0003a0 f4 6e de 99 29 af e6 3f ed ee 9d 27 26 6b f1 bf
       0.7088821416141102 -1.0886594340835771
0003b0 17 8d f8 40 c4 22 ed 3f 44 58 83 1d eb 0b ad bf
       0.9104939717257449 -0.056731555321377886
0003c0 6a ee f4 02 24 2a e2 bf 8f 4f 6e 24 00 81 fb bf
       -0.5676441247700954 -1.7189942763406838
0003d0 f8 97 a8 18 65 af f4 3f f3 31 68 17 70 03 d2 bf
       1.2928210223412844 -0.2814598301490882
0003e0 dd 2a 2d e1 66 16 f0 bf ce 50 dd 87 5e d2 a3 3f
       -1.0054692073778633 0.03871436508657809
0003f0 2c 6c 23 a0 79 a6 ed bf b7 02 33 2d e5 68 f2 3f
       -0.9265716674520994 1.1506091847988225
000400 2a c0 15 d0 88 f6 e9 3f 65 cc 1d a8 8e 74 d9 bf
       0.8113445343169634 -0.39773909013383096
000410 aa 45 36 89 d7 d8 f2 bf c8 fd 39 47 1b 30 f0 3f
       -1.1779399261325616 1.0117447645460391
000420 3e c2 2a 47 ab da fa bf 60 d3 71 73 d0 ac cd 3f
       -1.6783859996759385 0.23183637272782232
000430 28 f3 0e d7 14 9e d2 bf 78 34 e3 2b de 17 cf bf
       -0.29089852334782274 -0.24291588919587404
000440 07 9d 1c c1 49 c8 d3 3f 5e 00 db 17 df e2 f1 3f
       0.3090996156556262 1.1178885394911258
000450 72 10 8c b1 67 17 d4 bf 45 3e 49 2f 4e 6f fb 3f
       -0.3139285310610439 1.7146741721261531
000460 b1 0e eb 97 a2 cb f2 bf 41 96 8d 21 28 01 e7 bf
       -1.174715608053628 -0.7188912062962985
000470 9b 60 6a ed 2a 33 d6 bf 2b a7 29 0c d3 63 f7 bf
       -0.34687302765952105 -1.4618711924653762
000480 c6 dc a8 35 58 e1 e2 3f 9f 20 e1 11 4e 7d ea bf
       0.5900078819312504 -0.827796015663825
000490 29 a0 18 84 b5 51 be bf 60 a5 ef 6b 8e 46 f9 bf
       -0.11843428111080868 -1.5797256675962998
0004a0 26 9d dc 0e 95 59 dc bf 54 5f cd 19 27 f3 f7 3f
       -0.44296766711564073 1.4968634612941587
0004b0 3f 05 6f 1f 79 42 a0 bf 31 a8 6a 1e 08 5a ed 3f
       -0.03175714977943266 0.9172401994776519
0004c0 e6 13 fa 89 a5 e5 93 3f 71 69 e4 e8 fe c4 ed 3f
       0.019430719896735747 0.9302973316837734
0004d0 63 c6 cd 8f a6 be e1 bf e8 37 de 54 c4 66 d6 3f
       -0.5545227821987279 0.35002239501852594
0004e0 94 2f 6d 30 3e 23 e9 3f 79 16 c1 9b 8b dd e0 bf
       0.7855521150427074 -0.5270441095423869
0004f0 7a 4a 4e 14 43 4a f5 3f 2f b5 e8 de 5d f7 e2 3f
       1.330630378074288 0.5926961282436077
000500 25 e3 8b 3c a2 42 f8 3f c9 cc b7 08 bc 9a e2 bf
       1.5162680020423036 -0.581388489749224
000510 a5 dd e1 66 5c 5d f9 bf 49 d3 3a bd ee 93 f7 3f
       -1.5852931994284998 1.4736163512981924
000520 be 89 4d 39 34 29 f3 bf 14 d7 98 78 99 a4 f6 bf
       -1.1975595701593273 -1.4151854239293629
000530 13 b3 3d f0 d0 2e f1 3f 88 83 57 64 5b 06 ef 3f
       1.0739297279753302 0.9695260009576581
000540 0e 51 1a f7 b8 d6 eb 3f 59 dd 57 09 44 e0 ed 3f
       0.8699612451769398 0.9336261923298635
000550 d7 35 a3 cb 8c 86 fb 3f 29 b7 b3 ac 63 ba df 3f
       1.72034911676325 0.49575130334311496
000560 d8 b0 f6 7b 33 64 f2 bf e7 21 36 14 d7 36 f2 3f
       -1.149463161690667 1.1383887090215639
000570 13 c9 8d d9 40 0c f7 3f e7 a2 83 dd f5 98 e4 bf
       1.4404915331074946 -0.6436719252061182
000580 61 02 33 32 9f af f3 3f 16 78 0a be bb 10 e0 bf
       1.2303764305981064 -0.502042647527335
000590 e5 fd e3 bc c4 d9 ac bf be 33 9d 48 ff 2c e6 3f
       -0.0563489418582284 0.6929928224795885
0005a0 a1 5b 1a d6 c2 6a f0 3f 39 b5 fd 58 79 f9 f6 bf
       1.026064716663065 -1.4359067417347673
0005b0 b5 9d f9 6d 83 05 f8 bf 17 70 5d 7c 27 7b f5 bf
       -1.5013460441494832 -1.3425669534690365
0005c0 fe 1f 4d f1 ad 2f ef bf da 4e 6d aa c9 ec b6 bf
       -0.9745702469745081 -0.08955059443297433
0005d0 40 77 c7 d7 b0 b6 f3 3f 73 80 50 27 22 e7 f1 bf
       1.2321022442697114 -1.1189290557595342
0005e0 5b 0a 68 31 da 45 f1 bf 39 c7 89 90 64 2e f1 3f
       -1.079553788179189 1.0738263746283805
0005f0 6b 68 0c 3a 38 f5 f6 bf 11 2e c9 51 37 4e c2 3f
       -1.4348680751341145 0.14301196568918376
000600 2d 2c ba 40 46 0a d6 3f f2 c8 33 8e 98 5f eb 3f
       0.3443771011449737 0.8554194238079431
000610 4e f9 97 49 2c d5 f6 3f ae d6 73 63 6c fe dc 3f
       1.4270441889526242 0.4530287715163962
000620 db 38 63 c0 88 07 f0 bf c6 7f 6a 3d c4 38 e9 bf
       -1.00183940078164 -0.788179511979245
000630 3a c7 9b 56 6c 96 d9 3f 85 bd 77 36 45 62 f6 3f
       0.3998061033045023 1.398991787685959
000640 d9 72 3c 01 3e f2 d4 bf 72 29 13 92 be bf f7 3f
       -0.3272852909156377 1.484312601666343
000650 dd 43 ae cd 2d 76 f1 3f 3a 6a 40 ac ee d8 e4 3f
       1.0913522753146403 0.6514809955872984
000660 f0 20 53 d9 ba 6e f7 3f 2f 22 cf de 8e 93 e7 3f
       1.4645336617705276 0.7367624618282828
000670 04 ac 6e 0d 4d d0 fa 3f 8f 43 41 6e 4d d4 d0 3f
       1.6758547329616258 0.2629579140385027
000680 f6 96 64 2f 7c 75 f7 bf d9 cb 6d aa e1 a7 d5 3f
       -1.466182885292651 0.3383716739983221
000690 28 02 26 bd 2e 85 ea bf e6 47 bf 5f 3e ad f4 bf
       -0.8287576383882582 -1.2922958126186983
0006a0 51 49 2c bb 8b 65 f1 bf a1 3b fa 9a 78 8a f4 3f
       -1.087291461128718 1.283806424504043
0006b0 61 ad c4 18 78 91 f1 3f 4c bf 0f 5f 57 3f d9 bf
       1.0980149238119667 -0.3944910457930646
0006c0 25 7d f9 27 90 ba f1 3f dc 4f a6 3d fe 22 f4 bf
       1.1080476342684247 -1.2585432441892328
0006d0 21 47 b4 c6 06 d5 f7 3f 30 c2 50 f6 2e 3d ed bf
       1.4895084154017655 -0.9137186823700798
0006e0 e9 ea 28 89 3a d0 f5 bf b2 66 83 0a 03 70 e8 bf
       -1.3633370740705522 -0.7636733250939953
0006f0 b5 a2 3b 1f d1 74 d3 3f b0 20 db 46 42 7c bb bf
       0.304004936695985 -0.1073647902477457
000700 75 dc a9 e3 33 7f e6 bf 25 63 d3 62 ca 33 e0 3f
       -0.7030276724389198 0.5063220911207266
000710 b5 fc d4 21 2f 11 fa bf 77 a8 5d 85 4a 4a e3 bf
       -1.6291953393518217 -0.602818737487964
000720 fb bd b6 1b ba 8f cb bf 15 ce a0 19 2a 5e fb bf
       -0.21532369950499217 -1.7104893685435674
000730 bb 15 2d 6b 6d 11 ed 3f c7 56 e4 cf 39 5e da bf
       0.9083773701938108 -0.4120010881609741
000740 ea 0d ba 13 55 13 f7 3f fe 4d da 8f 1c 98 fa 3f
       1.4422198076798574 1.662136613774123
000750 c3 e1 1c 1e 60 9a fb 3f 42 ec 9b 33 0e c5 f4 3f
       1.7251893211633706 1.2981092468242115
000760 dd e2 90 ab 7e 2c d5 3f 58 15 f6 33 f6 1d f3 bf
       0.3308407473992199 -1.1948148755776256
000770 6a d7 12 9b 15 a1 f4 bf 8b b7 e4 d2 6a e5 e2 3f
       -1.2893272454798201 0.5905050391208858
000780 9c 80 56 74 e0 a5 e7 3f 11 c9 1f 6d c8 f5 f1 bf
       0.7389986297821625 -1.1225055945074625
000790 46 b4 d7 dc 16 5d f1 bf 7d ff 15 b3 ba 60 ec bf
       -1.0852268816627357 -0.886807775284964
0007a0 85 50 61 02 35 d7 d6 bf 9a f5 ba 57 c3 84 fb bf
       -0.3568851969951157 -1.7199128558125722
0007b0 98 e3 96 b2 ff 27 f0 bf cb 2b 3e d9 1b 0b fb 3f
       -1.0097653366230812 1.6902121053742458
0007c0 55 62 fb 30 4d d0 ae 3f 7f 36 e6 ce 9b 8a db 3f
       0.06018296454357556 0.4303349991322207
0007d0 18 f6 a4 3b 71 86 e8 bf b7 db 43 5c 1e 0b ce bf
       -0.7664114155701922 -0.2347143126023334
0007e0 60 f7 67 ab 16 b2 eb 3f 78 c9 42 13 a9 1f e8 3f
       0.8654893253112554 0.7538648010434335
0007f0 0d 23 17 af 86 93 f0 3f fa 53 af e9 ff 4f f6 3f
       1.0360171164958871 1.3945311668696818

lstm.weight_hh_l0 f8 [256, 64]
000000 8a af 56 fe cc d5 cc 3f 09 f2 55 8b e0 b0 d2 bf
       0.2252746812713407 -0.29204572302822435
000010 d2 7c c2 c1 6d 75 b3 bf bd 36 6c 2c f5 9b cc 3f
       -0.07601057033979267 0.22350945157125138
000020 d8 b7 1e 87 be bc 9c 3f 88 ef 5d 08 70 7d d0 3f
       0.02806375217158305 0.25765610520442594
000030 fb 62 6e 60 0e 8f cd bf 5b 4b 46 02 b3 a8 ad 3f
       -0.23092822750620443 0.057927698161754214
000040 ad ea f8 ad 48 54 cc 3f be 76 3a 10 8e 8a 8d bf
       0.2213221406435272 -0.014424428816080744
000050 7e f4 1a eb 2d 4d ca bf 22 4e f7 46 ec 53 c8 bf
       -0.20548032741308825 -0.19006112542284465
000060 b1 ee 02 49 34 ab d0 bf 02 7d 27 05 61 5f bc 3f
       -0.2604494774820792 0.11083036781154834
000070 08 2c 94 9f 1f 3b d3 bf 35 f0 e8 8c ee 56 d3 3f
       -0.3004836138140381 0.30218089829191125
000080 2f 2e a2 24 44 38 b4 3f 68 9c f4 15 6b 25 9e 3f
       0.07898355383275012 0.02943961450105484
000090 e4 6e da 28 0a 20 c2 3f 4d 97 d6 b5 67 87 d3 3f
       0.14160277361667462 0.30513947255746104
0000a0 a9 b3 1b 21 ff 9b ce bf e4 af 0c 61 27 db c4 3f
       -0.2391356383954222 0.16293804396389
0000b0 c0 0e e4 6d f7 d8 a1 3f e7 8d 59 47 a1 78 91 3f
       0.03485844818535844 0.017061729411933426
0000c0 00 25 9f 4c d2 43 94 3f 99 1f 61 0c 80 de b9 3f
       0.01978996842061509 0.10105133344870722
0000d0 20 65 b5 51 4e 3b ba bf 66 5d e8 ed 5b f0 cd 3f
       -0.10246743674123993 0.2338976775797434
0000e0 fa 8c 14 65 6e cb ce bf 4c e2 e7 12 35 36 5c bf
       -0.2405832284503971 -0.001721908407146827
0000f0 da e7 44 b5 ce 4c b4 3f 5e a2 6e 25 b5 d8 c9 bf
       0.07929698873058957 -0.20192589118711884
000100 f2 c1 98 5d 85 5e d1 3f ea 3e dd 82 bb 34 c0 3f
       0.27139410152724885 0.12660926713805704
000110 a8 19 4c 3c 91 1b d0 bf 92 75 71 a0 87 af b0 3f
       -0.2516825760689252 0.06517837206907576
000120 db 08 a9 e3 fd ee 95 bf 4b d3 47 94 b0 44 be bf
       -0.021419493694573837 -0.11823562259799052
000130 83 a9 cb 6b 33 23 d2 bf 58 02 c2 1e 4c 25 cb bf
       -0.28339849020871827 -0.21207572461937008
000140 ad 33 35 b3 63 ff cd 3f 2b 07 32 6a 25 e2 b4 bf
       0.23435636759168457 -0.08157571642553012
000150 a8 52 b6 d6 ff 01 a6 bf b5 45 1b b9 61 ae b1 3f
       -0.04298400398252983 0.0690671040458913
000160 f6 26 27 b9 16 9d ce bf 9c 1f 71 e2 57 49 94 3f
       -0.2391689685885507 0.019811032482067156
000170 12 72 7b cc e4 58 ae 3f 59 f8 61 c5 ec f6 9f bf
       0.0592719554531166 -0.03121538119057052
000180 08 b0 50 e1 2c bc cf 3f 7a 7a d2 41 8a 3a 9b 3f
       0.2479301548167998 0.026590500133006213
000190 f0 6d b3 44 f3 9d c1 bf 6b 8a e5 6c 5a c0 c4 3f
       -0.13763275961433363 0.1621201545450107
0001a0 a8 3d b7 c9 0f 75 c8 3f 11 af 62 f4 b6 de d0 3f
       0.19107243871120017 0.26359342447061446
0001b0 9f e6 bb 18 e6 a4 cc 3f 72 0e 84 4a f0 c5 c1 3f
       0.22378231246675725 0.1388531078192617
0001c0 39 20 26 e1 1f 2e 95 3f b1 1d 8a 72 03 4f c0 bf
       0.020683763615608284 -0.1274112996363619
0001d0 a0 02 a9 e8 ac dd c2 bf 04 81 0f d5 c9 79 96 3f
       -0.14738999710427425 0.021948960904297557
0001e0 22 08 c4 e4 6f 20 d1 bf 95 11 54 04 5a 51 ad bf
       -0.2676048025169867 -0.05726128866993744
0001f0 ee f2 d9 d9 af e2 b4 3f eb 1c 28 c5 64 66 c6 3f
       0.08158396786343378 0.17499980570594373
000200 26 39 80 d0 6e a7 c5 3f 60 d8 78 63 01 39 cb bf
       0.16917214565951005 -0.21267716748269816
000210 d3 1c 0a a3 d6 99 ba bf 63 2d 00 48 b9 b8 a9 3f
       -0.1039098880811367 0.05023745540537552
000220 96 1b 15 5d 57 30 c5 3f a6 db 99 85 21 bb ca 3f
       0.16553775830308542 0.20883578322874746
000230 62 01 96 2c 5e 48 c5 bf db ad 49 01 dc 22 c0 bf
       -0.16627099206017265 -0.126063824299634
000240 d1 55 0e 54 39 b4 c6 bf 5a 5a db f0 99 58 9c bf
       -0.17737499813362814 -0.02768173725675136
000250 56 7d 17 64 22 8b d3 3f 52 aa 63 d9 16 30 a6 3f
       0.30536708616815156 0.0433356418960399
000260 0b 9b ee 0f 0c c2 b9 bf f0 f0 d9 12 f2 5d c2 3f
       -0.10061717404333252 0.14349199219203213
000270 63 ed 8b 51 47 b7 ba 3f e7 58 b0 7f 78 02 b6 3f
       0.10435910931476182 0.0859751998653767
000280 02 9a 8d e8 03 3c b8 3f 74 8d 5a e2 e1 f9 cf 3f
       0.09466576030317955 0.249813304447439
000290 d2 5e 22 6e 55 d2 c1 bf 77 10 48 f4 64 7b cc 3f
       -0.1392313754811228 0.2225156967907684
0002a0 11 d0 19 fb bc e2 d1 3f fb 88 1b 9d ba 13 ce 3f
       0.2794640018612436 0.23497708007113957
0002b0 70 8c 7c 03 39 e8 b0 3f 38 cc 8a 45 e2 70 c4 3f
       0.0660434373390204 0.1596949424325389
0002c0 03 3f c1 02 97 7a c1 bf 6a cb ab 14 3f bb c9 bf
       -0.13655364641680742 -0.20102680692033498
0002d0 bc 2c 2d 6f dd 0e 8f bf e5 f8 23 dd d6 1c ba 3f
       -0.01516507144483225 0.10200255297602075
0002e0 ba 76 d4 da 08 c2 a8 3f 73 5a 97 c5 f3 ab c6 bf
       0.0483553664327991 -0.17712256572731952
0002f0 46 09 7a ef d8 1d b7 3f f1 53 87 f5 0d 1a 67 bf
       0.09029918524359912 -0.002820040954456087
000300 91 3f e6 4f 83 77 d1 3f ac d9 19 44 be 38 c2 bf
       0.27291949083973416 -0.14235666585200357
000310 6e d0 ad 24 7a d1 cb 3f 14 e1 da db 85 5f c2 3f
       0.2173302344414227 0.14354012713534614
000320 66 17 87 03 05 6d c7 bf d4 c0 9c 62 e9 15 d3 3f
       -0.18301451370478644 0.2982123816500579
000330 ed 09 dd 44 98 ae d2 3f 8e 48 b5 ab d0 47 cd bf
       0.2919064209455929 -0.2287541235369343
000340 a7 77 11 97 c3 64 b7 3f 75 8d 0d ec be 9f b2 bf
       0.0913812869852949 -0.07275002730380271
000350 70 fd a3 6b 9b 1e bf bf a9 07 d7 d5 3c fe 10 bf
       -0.12156077745384208 -6.482359227446992e-05
000360 9e 15 5a e1 82 a9 cc 3f 6c f4 63 db 92 79 b3 bf
       0.2239230728484189 -0.076073816835519
000370 42 f7 16 14 ee 2e c0 3f 03 e0 81 78 05 ec d2 3f
       0.12643218975966347 0.2956556011990871
000380 ab fd 15 fc f7 c3 8d bf 3a 3d 1c f6 73 18 d0 bf
       -0.014533936863471228 -0.2514924910946835
000390 39 54 03 9a ab a2 cc 3f fc 05 c1 29 f9 f7 c8 bf
       0.22371430416265684 -0.1950675443531934
0003a0 dc 2c ce 53 58 17 d2 bf d8 ef 65 e6 63 57 ca 3f
       -0.28267486747854575 0.20579193830405873
0003b0 49 26 45 18 50 75 d3 bf 08 fe c3 8c 7a ed d0 3f
       -0.3040352093708845 0.2644945501960767
0003c0 88 5c 89 31 2c 5f b9 3f 2a 72 24 d8 17 99 bf 3f
       0.09910846909893867 0.12342976595795876
0003d0 ea 41 8a ff 5a 6a cb 3f 87 ea fb c6 84 fd cf 3f
       0.21418321111242672 0.24992427555101335
0003e0 5c e6 ee ab 42 8a d2 bf 8e 15 0d 80 af 28 b9 3f
       -0.2896887473139935 0.09827706218955809
0003f0 db d6 d3 a0 62 93 c3 3f dc d2 7d 07 0f 04 ca 3f
       0.15293534138589035 0.2032488619403442
000400 96 a5 1d d0 72 70 a2 3f 37 01 1d 48 d3 00 d3 3f
       0.03601416388012095 0.29692537348093445
000410 b8 3c a6 44 9f 19 b6 bf 43 79 1b 11 99 98 a6 bf
       -0.08632846284875739 -0.04413297971562937
000420 fc 39 5c 03 3b 0e af 3f dd 28 83 12 63 d5 a9 3f
       0.0606554452516441 0.050456138620192915
000430 44 a5 fc 2a f1 1d c6 bf f1 e6 af 4e dc e5 b6 3f
       -0.17278875922174042 0.08944489403793533
000440 fa 41 65 fe c5 8d a9 bf 71 7c 85 57 42 96 c1 3f
       -0.04990977030195505 0.13739804528720215
000450 be b3 4f ae 94 4d b3 bf 15 c1 13 a7 04 ce c8 3f
       -0.07540253883025991 0.1937871757322759
000460 d2 49 12 9c 46 fb cf 3f 83 fe 56 9f 07 d9 ca bf
       0.2498558294360707 -0.20974822311653804
000470 2e 7d 3f c2 f5 83 bb 3f 20 0f b4 7b cc 13 d0 3f
       0.10748229973204523 0.2512084205666145
000480 4e 5a bd 9e f9 aa d0 3f 00 39 5f ea 13 c0 be bf
       0.2604354906265244 -0.12011837455722585
000490 85 25 e4 17 bb 5d ad 3f 21 13 6f 1c e3 19 c2 bf
       0.057355734506994195 -0.14141501320241281
0004a0 82 34 86 a9 eb f4 d2 bf 85 7b 9e a4 a2 75 d3 3f
       -0.2961987643728393 0.30405489040452266
0004b0 de b5 17 f7 3b ca b2 3f b0 81 23 9a 82 1f cc 3f
       0.07339834959540023 0.21971161390594096
0004c0 a1 64 78 1d 50 90 cb bf 15 07 c1 75 49 1a cb 3f
       -0.21534158171633513 0.2117397141428731
0004d0 fb 77 5e 16 29 11 ca bf c0 1a d6 3f 40 42 ca 3f
       -0.20364869682538242 0.20514681927689615
0004e0 0a 9e ab 08 70 4e cd 3f 69 67 72 17 7b 06 d2 3f
       0.2289562265716401 0.28164555825934784
0004f0 2b d8 79 b3 03 c6 bc 3f 88 d5 e5 8d 88 e2 ae 3f
       0.11239646083581138 0.060322062798984055
000500 0e 6b 1b 17 d1 49 c6 3f 18 d9 f3 4c 07 ae ce bf
       0.1741277087047241 -0.23968592889259166
000510 bb 97 69 25 cf e7 bc bf 72 9d 18 04 3f 0d cc bf
       -0.11291212714567582 -0.2191542406082863
000520 f8 72 51 a4 c2 02 c2 3f 14 7e 5f 9c 7d e9 ce bf
       0.140709238275029 -0.2415005696811795
000530 46 52 1c a0 98 96 b6 bf 29 55 54 d3 af 76 ac 3f
       -0.08823541554404199 0.055593008563088304
000540 41 37 2e 40 31 b6 ab 3f 6d 64 6d 34 65 8c ae bf
       0.05412439259008162 -0.059664881372278745
000550 92 8b 2e ef fe d2 92 bf a7 d9 a8 e8 11 f5 c0 bf
       -0.018383010242938598 -0.13247894153910275
000560 fc e9 3b cf 5a 20 c7 bf c5 46 36 11 a4 4b a8 3f
       -0.18067488783692898 0.04745209417445787
000570 71 bc bb cf 74 5a d0 3f f0 b7 50 de 09 98 cd bf
       0.2555210140844287 -0.23120234828223785
000580 00 d8 d5 6b 60 19 a1 3f 87 d9 ad 78 00 24 d3 bf
       0.03339673343991478 -0.29907237801617054
000590 47 17 36 9a 00 b8 ca bf de dc 06 f8 f9 7d a4 3f
       -0.20874030618522907 0.04002362396880142
0005a0 fa c5 7b 7c 84 b9 aa bf 6c 7e 69 05 0b 3b a4 bf
       -0.052196636386621934 -0.039512962732939666
0005b0 4e 23 7f a4 71 5c d3 bf 5c aa 51 70 ab 28 b0 3f
       -0.30251732887386573 0.06312057010806299
0005c0 14 4a 38 09 e4 82 74 3f bd af 67 ac c3 b5 d2 bf
       0.005007639661487779 -0.29234401546886685
0005d0 80 4f 13 e7 1c e7 9b bf 89 a7 b0 7f c5 eb 80 3f
       -0.027248813251233184 0.008262198409358283
0005e0 e3 33 7f ed bc a6 9d bf 24 ba bf 37 9d 75 cb 3f
       -0.02895636748853637 0.21452679845920486
0005f0 d8 e3 e3 0f fc 4d 91 3f 05 38 da 2c 80 b5 c9 bf
       0.01689905020700508 -0.20085146131572187
000600 a7 0e ef 72 ef e2 95 bf 9b 78 32 82 ac af d0 bf
       -0.021373502149585246 -0.260722281594903
000610 36 b2 d1 06 bc 99 c5 3f c7 a6 ef fd 43 97 cd bf
       0.16875410397496332 -0.23117875956750408
000620 b3 1f 0c 2a a8 f3 b7 3f 75 7c 7e be ad 55 c3 bf
       0.09356165911242335 -0.15105220605343886
000630 09 65 6e 3a f0 89 d0 bf 3d 2e f9 d7 aa 4f ce bf
       -0.25841909128355717 -0.2368062548215323
000640 ff e3 1b e0 2a 6a ca bf 1c b2 19 8b ac aa c7 3f
       -0.2063649744302722 0.18489605705271195
000650 b4 b2 95 b5 01 74 b7 bf a2 8c 90 f0 7c 10 c2 3f
       -0.09161387141439087 0.14112817522354698
000660 2f 78 f4 51 d5 2a 8f bf 3d 92 88 86 6a 6b c8 3f
       -0.015218416751448497 0.19077807969110153
000670 49 b8 72 39 c2 fb d0 3f 19 41 d2 eb e5 4e c9 3f
       0.2653661309258309 0.19772027983390997
000680 6e a7 db 44 5d 33 d1 3f 8b a2 bf 2b bf 7f c2 bf
       0.2687600300256382 -0.14452352176819647
000690 4b b4 78 5d 13 f3 c6 bf a4 79 3a 24 76 67 cc 3f
       -0.17929307998693597 0.22190739411321403
0006a0 e3 79 68 d3 8b 7b ae 3f 97 22 68 bc a4 b4 cb bf
       0.059536332661298784 -0.21645030211972902
0006b0 0c 77 fa 45 5c 30 c0 bf 1b 08 72 b1 fe 01 c2 bf
       -0.12647584359086073 -0.14068587936714114
0006c0 63 a2 a0 73 04 2e 76 3f 83 8e 54 c7 0d c1 ca 3f
       0.005414979352317137 0.20901653511929305
0006d0 6e 90 70 88 f7 e6 c9 3f fe 12 89 12 e5 83 b5 3f
       0.20236105119795716 0.0840438051464609
0006e0 7c b5 d4 9b ef b5 94 bf 40 ae e4 e6 d9 b1 c4 bf
       -0.020225280653155306 -0.1616775872620213
0006f0 97 0d d3 9c 03 54 c9 bf dc 68 4f 51 0a 53 ba bf
       -0.1978764072174328 -0.10282959447014
000700 7c bf 93 8c 85 c8 be bf 28 b4 b7 6e cf 49 cf 3f
       -0.12024721796092125 0.24444001108295876
000710 09 e1 10 49 e7 61 d1 bf 66 c8 9d 35 c3 f2 d2 3f
       -0.271600552895976 0.29606704936953177
000720 1a 0d 9e cf 0b ca b9 bf ba b3 2c 6b db 67 a7 3f
       -0.10073922938140747 0.04571424182208923
000730 99 e3 51 e8 1b 8b b4 bf b0 0a 9e 06 31 43 d1 3f
       -0.08024763509628342 0.26972604414201395
000740 df 42 2f ac 1a e7 d2 bf a1 3c 9e d8 77 70 af 3f
       -0.2953554803362248 0.06140493888153143
000750 32 51 af ec e4 32 9a 3f d2 45 9a e6 9b 2e a0 3f
       0.025584771104903932 0.03160559835408673
000760 40 5f d4 74 43 14 c3 3f 55 c2 6a f6 1c 0b c2 bf
       0.14905589298791178 -0.1409641459663528
000770 c8 bf 32 bc 3d 86 cb bf 35 e8 19 e2 07 0a 8f 3f
       -0.21503421487204677 0.015155850970803278
000780 23 b1 ca c4 bf eb d2 3f 94 1e 6c 7f f8 a5 c8 3f
       0.295638982943972 0.1925650236300852
000790 4d 2e dc 54 8f 50 b1 3f bb fd b8 41 90 4c ad 3f
       0.06763549634723028 0.057224758169918975
0007a0 01 4f 93 04 52 98 cf bf 33 d5 87 61 47 98 b7 3f
       -0.2468359491673411 0.09216734057539071
0007b0 83 5e 26 17 00 a7 c9 bf 2e 91 f6 54 35 66 b5 bf
       -0.20040894632687775 -0.08359082531257364
0007c0 48 c5 65 2d 91 eb c3 3f 7b 86 74 b5 19 c8 d1 bf
       0.1556264373462375 -0.27783816070778017
0007d0 16 96 f4 59 c2 a4 c7 3f fa b2 1b 56 8b ed cd bf
       0.18471555130342726 -0.23381177620412769
0007e0 e7 ca e3 fd 98 aa c8 3f b3 f0 a2 ad 9c 7e bb bf
       0.1927062263199197 -0.10740069617435459
0007f0 21 99 f2 9e 92 b6 cd 3f cf b7 c4 c4 f3 a4 c8 3f
       0.2321341777907913 0.1925339422973011

lstm.bias_ih_l0 f8 [256]
000000 00 00 00 00 00 00 00 00 00 00 00 00 00 00 00 00
       0.0 0.0
000010 00 00 00 00 00 00 00 00 00 00 00 00 00 00 00 00
       0.0 0.0
000020 00 00 00 00 00 00 00 00 00 00 00 00 00 00 00 00
       0.0 0.0
000030 00 00 00 00 00 00 00 00 00 00 00 00 00 00 00 00
       0.0 0.0
000040 00 00 00 00 00 00 00 00 00 00 00 00 00 00 00 00
       0.0 0.0
000050 00 00 00 00 00 00 00 00 00 00 00 00 00 00 00 00
       0.0 0.0
000060 00 00 00 00 00 00 00 00 00 00 00 00 00 00 00 00
       0.0 0.0
000070 00 00 00 00 00 00 00 00 00 00 00 00 00 00 00 00
       0.0 0.0
000080 00 00 00 00 00 00 00 00 00 00 00 00 00 00 00 00
       0.0 0.0
000090 00 00 00 00 00 00 00 00 00 00 00 00 00 00 00 00
       0.0 0.0
0000a0 00 00 00 00 00 00 00 00 00 00 00 00 00 00 00 00
       0.0 0.0
0000b0 00 00 00 00 00 00 00 00 00 00 00 00 00 00 00 00
       0.0 0.0
0000c0 00 00 00 00 00 00 00 00 00 00 00 00 00 00 00 00
       0.0 0.0
0000d0 00 00 00 00 00 00 00 00 00 00 00 00 00 00 00 00
       0.0 0.0
0000e0 00 00 00 00 00 00 00 00 00 00 00 00 00 00 00 00
       0.0 0.0
0000f0 00 00 00 00 00 00 00 00 00 00 00 00 00 00 00 00
       0.0 0.0
000100 00 00 00 00 00 00 00 00 00 00 00 00 00 00 00 00
       0.0 0.0
000110 00 00 00 00 00 00 00 00 00 00 00 00 00 00 00 00
       0.0 0.0
000120 00 00 00 00 00 00 00 00 00 00 00 00 00 00 00 00
       0.0 0.0
000130 00 00 00 00 00 00 00 00 00 00 00 00 00 00 00 00
       0.0 0.0
000140 00 00 00 00 00 00 00 00 00 00 00 00 00 00 00 00
       0.0 0.0
000150 00 00 00 00 00 00 00 00 00 00 00 00 00 00 00 00
       0.0 0.0
000160 00 00 00 00 00 00 00 00 00 00 00 00 00 00 00 00
       0.0 0.0
000170 00 00 00 00 00 00 00 00 00 00 00 00 00 00 00 00
       0.0 0.0
000180 00 00 00 00 00 00 00 00 00 00 00 00 00 00 00 00
       0.0 0.0
000190 00 00 00 00 00 00 00 00 00 00 00 00 00 00 00 00
       0.0 0.0
0001a0 00 00 00 00 00 00 00 00 00 00 00 00 00 00 00 00
       0.0 0.0
0001b0 00 00 00 00 00 00 00 00 00 00 00 00 00 00 00 00
       0.0 0.0
0001c0 00 00 00 00 00 00 00 00 00 00 00 00 00 00 00 00
       0.0 0.0
0001d0 00 00 00 00 00 00 00 00 00 00 00 00 00 00 00 00
       0.0 0.0
0001e0 00 00 00 00 00 00 00 00 00 00 00 00 00 00 00 00
       0.0 0.0
0001f0 00 00 00 00 00 00 00 00 00 00 00 00 00 00 00 00
       0.0 0.0
000200 00 00 00 00 00 00 00 00 00 00 00 00 00 00 00 00
       0.0 0.0
000210 00 00 00 00 00 00 00 00 00 00 00 00 00 00 00 00
       0.0 0.0
000220 00 00 00 00 00 00 00 00 00 00 00 00 00 00 00 00
       0.0 0.0
000230 00 00 00 00 00 00 00 00 00 00 00 00 00 00 00 00
       0.0 0.0
000240 00 00 00 00 00 00 00 00 00 00 00 00 00 00 00 00
       0.0 0.0
000250 00 00 00 00 00 00 00 00 00 00 00 00 00 00 00 00
       0.0 0.0
000260 00 00 00 00 00 00 00 00 00 00 00 00 00 00 00 00
       0.0 0.0
000270 00 00 00 00 00 00 00 00 00 00 00 00 00 00 00 00
       0.0 0.0
000280 00 00 00 00 00 00 00 00 00 00 00 00 00 00 00 00
       0.0 0.0
000290 00 00 00 00 00 00 00 00 00 00 00 00 00 00 00 00
       0.0 0.0
0002a0 00 00 00 00 00 00 00 00 00 00 00 00 00 00 00 00
       0.0 0.0
0002b0 00 00 00 00 00 00 00 00 00 00 00 00 00 00 00 00
       0.0 0.0
0002c0 00 00 00 00 00 00 00 00 00 00 00 00 00 00 00 00
       0.0 0.0
0002d0 00 00 00 00 00 00 00 00 00 00 00 00 00 00 00 00
       0.0 0.0
0002e0 00 00 00 00 00 00 00 00 00 00 00 00 00 00 00 00
       0.0 0.0
0002f0 00 00 00 00 00 00 00 00 00 00 00 00 00 00 00 00
       0.0 0.0
000300 00 00 00 00 00 00 00 00 00 00 00 00 00 00 00 00
       0.0 0.0
000310 00 00 00 00 00 00 00 00 00 00 00 00 00 00 00 00
       0.0 0.0
000320 00 00 00 00 00 00 00 00 00 00 00 00 00 00 00 00
       0.0 0.0
000330 00 00 00 00 00 00 00 00 00 00 00 00 00 00 00 00
       0.0 0.0
000340 00 00 00 00 00 00 00 00 00 00 00 00 00 00 00 00
       0.0 0.0
000350 00 00 00 00 00 00 00 00 00 00 00 00 00 00 00 00
       0.0 0.0
000360 00 00 00 00 00 00 00 00 00 00 00 00 00 00 00 00
       0.0 0.0
000370 00 00 00 00 00 00 00 00 00 00 00 00 00 00 00 00
       0.0 0.0
000380 00 00 00 00 00 00 00 00 00 00 00 00 00 00 00 00
       0.0 0.0
000390 00 00 00 00 00 00 00 00 00 00 00 00 00 00 00 00
       0.0 0.0
0003a0 00 00 00 00 00 00 00 00 00 00 00 00 00 00 00 00
       0.0 0.0
0003b0 00 00 00 00 00 00 00 00 00 00 00 00 00 00 00 00
       0.0 0.0
0003c0 00 00 00 00 00 00 00 00 00 00 00 00 00 00 00 00
       0.0 0.0
0003d0 00 00 00 00 00 00 00 00 00 00 00 00 00 00 00 00
       0.0 0.0
0003e0 00 00 00 00 00 00 00 00 00 00 00 00 00 00 00 00
       0.0 0.0
0003f0 00 00 00 00 00 00 00 00 00 00 00 00 00 00 00 00
       0.0 0.0
000400 00 00 00 00 00 00 00 00 00 00 00 00 00 00 00 00
       0.0 0.0
000410 00 00 00 00 00 00 00 00 00 00 00 00 00 00 00 00
       0.0 0.0
000420 00 00 00 00 00 00 00 00 00 00 00 00 00 00 00 00
       0.0 0.0
000430 00 00 00 00 00 00 00 00 00 00 00 00 00 00 00 00
       0.0 0.0
000440 00 00 00 00 00 00 00 00 00 00 00 00 00 00 00 00
       0.0 0.0
000450 00 00 00 00 00 00 00 00 00 00 00 00 00 00 00 00
       0.0 0.0
000460 00 00 00 00 00 00 00 00 00 00 00 00 00 00 00 00
       0.0 0.0
000470 00 00 00 00 00 00 00 00 00 00 00 00 00 00 00 00
       0.0 0.0
000480 00 00 00 00 00 00 00 00 00 00 00 00 00 00 00 00
       0.0 0.0
000490 00 00 00 00 00 00 00 00 00 00 00 00 00 00 00 00
       0.0 0.0
0004a0 00 00 00 00 00 00 00 00 00 00 00 00 00 00 00 00
       0.0 0.0
0004b0 00 00 00 00 00 00 00 00 00 00 00 00 00 00 00 00
       0.0 0.0
0004c0 00 00 00 00 00 00 00 00 00 00 00 00 00 00 00 00
       0.0 0.0
0004d0 00 00 00 00 00 00 00 00 00 00 00 00 00 00 00 00
       0.0 0.0
0004e0 00 00 00 00 00 00 00 00 00 00 00 00 00 00 00 00
       0.0 0.0
0004f0 00 00 00 00 00 00 00 00 00 00 00 00 00 00 00 00
       0.0 0.0
000500 00 00 00 00 00 00 00 00 00 00 00 00 00 00 00 00
       0.0 0.0
000510 00 00 00 00 00 00 00 00 00 00 00 00 00 00 00 00
       0.0 0.0
000520 00 00 00 00 00 00 00 00 00 00 00 00 00 00 00 00
       0.0 0.0
000530 00 00 00 00 00 00 00 00 00 00 00 00 00 00 00 00
       0.0 0.0
000540 00 00 00 00 00 00 00 00 00 00 00 00 00 00 00 00
       0.0 0.0
000550 00 00 00 00 00 00 00 00 00 00 00 00 00 00 00 00
       0.0 0.0
000560 00 00 00 00 00 00 00 00 00 00 00 00 00 00 00 00
       0.0 0.0
000570 00 00 00 00 00 00 00 00 00 00 00 00 00 00 00 00
       0.0 0.0
000580 00 00 00 00 00 00 00 00 00 00 00 00 00 00 00 00
       0.0 0.0
000590 00 00 00 00 00 00 00 00 00 00 00 00 00 00 00 00
       0.0 0.0
0005a0 00 00 00 00 00 00 00 00 00 00 00 00 00 00 00 00
       0.0 0.0
0005b0 00 00 00 00 00 00 00 00 00 00 00 00 00 00 00 00
       0.0 0.0
0005c0 00 00 00 00 00 00 00 00 00 00 00 00 00 00 00 00
       0.0 0.0
0005d0 00 00 00 00 00 00 00 00 00 00 00 00 00 00 00 00
       0.0 0.0
0005e0 00 00 00 00 00 00 00 00 00 00 00 00 00 00 00 00
       0.0 0.0
0005f0 00 00 00 00 00 00 00 00 00 00 00 00 00 00 00 00
       0.0 0.0
000600 00 00 00 00 00 00 00 00 00 00 00 00 00 00 00 00
       0.0 0.0
000610 00 00 00 00 00 00 00 00 00 00 00 00 00 00 00 00
       0.0 0.0
000620 00 00 00 00 00 00 00 00 00 00 00 00 00 00 00 00
       0.0 0.0
000630 00 00 00 00 00 00 00 00 00 00 00 00 00 00 00 00
       0.0 0.0
000640 00 00 00 00 00 00 00 00 00 00 00 00 00 00 00 00
       0.0 0.0
000650 00 00 00 00 00 00 00 00 00 00 00 00 00 00 00 00
       0.0 0.0
000660 00 00 00 00 00 00 00 00 00 00 00 00 00 00 00 00
       0.0 0.0
000670 00 00 00 00 00 00 00 00 00 00 00 00 00 00 00 00
       0.0 0.0
000680 00 00 00 00 00 00 00 00 00 00 00 00 00 00 00 00
       0.0 0.0
000690 00 00 00 00 00 00 00 00 00 00 00 00 00 00 00 00
       0.0 0.0
0006a0 00 00 00 00 00 00 00 00 00 00 00 00 00 00 00 00
       0.0 0.0
0006b0 00 00 00 00 00 00 00 00 00 00 00 00 00 00 00 00
       0.0 0.0
0006c0 00 00 00 00 00 00 00 00 00 00 00 00 00 00 00 00
       0.0 0.0
0006d0 00 00 00 00 00 00 00 00 00 00 00 00 00 00 00 00
       0.0 0.0
0006e0 00 00 00 00 00 00 00 00 00 00 00 00 00 00 00 00
       0.0 0.0
0006f0 00 00 00 00 00 00 00 00 00 00 00 00 00 00 00 00
       0.0 0.0
000700 00 00 00 00 00 00 00 00 00 00 00 00 00 00 00 00
       0.0 0.0
000710 00 00 00 00 00 00 00 00 00 00 00 00 00 00 00 00
       0.0 0.0
000720 00 00 00 00 00 00 00 00 00 00 00 00 00 00 00 00
       0.0 0.0
000730 00 00 00 00 00 00 00 00 00 00 00 00 00 00 00 00
       0.0 0.0
000740 00 00 00 00 00 00 00 00 00 00 00 00 00 00 00 00
       0.0 0.0
000750 00 00 00 00 00 00 00 00 00 00 00 00 00 00 00 00
       0.0 0.0
000760 00 00 00 00 00 00 00 00 00 00 00 00 00 00 00 00
       0.0 0.0
000770 00 00 00 00 00 00 00 00 00 00 00 00 00 00 00 00
       0.0 0.0
000780 00 00 00 00 00 00 00 00 00 00 00 00 00 00 00 00
       0.0 0.0
000790 00 00 00 00 00 00 00 00 00 00 00 00 00 00 00 00
       0.0 0.0
0007a0 00 00 00 00 00 00 00 00 00 00 00 00 00 00 00 00
       0.0 0.0
0007b0 00 00 00 00 00 00 00 00 00 00 00 00 00 00 00 00
       0.0 0.0
0007c0 00 00 00 00 00 00 00 00 00 00 00 00 00 00 00 00
       0.0 0.0
0007d0 00 00 00 00 00 00 00 00 00 00 00 00 00 00 00 00
       0.0 0.0
0007e0 00 00 00 00 00 00 00 00 00 00 00 00 00 00 00 00
       0.0 0.0
0007f0 00 00 00 00 00 00 00 00 00 00 00 00 00 00 00 00
       0.0 0.0

lstm.bias_hh_l0 f8 [256]
000000 00 00 00 00 00 00 00 00 00 00 00 00 00 00 00 00
       0.0 0.0
000010 00 00 00 00 00 00 00 00 00 00 00 00 00 00 00 00
       0.0 0.0
000020 00 00 00 00 00 00 00 00 00 00 00 00 00 00 00 00
       0.0 0.0
000030 00 00 00 00 00 00 00 00 00 00 00 00 00 00 00 00
       0.0 0.0
000040 00 00 00 00 00 00 00 00 00 00 00 00 00 00 00 00
       0.0 0.0
000050 00 00 00 00 00 00 00 00 00 00 00 00 00 00 00 00
       0.0 0.0
000060 00 00 00 00 00 00 00 00 00 00 00 00 00 00 00 00
       0.0 0.0
000070 00 00 00 00 00 00 00 00 00 00 00 00 00 00 00 00
       0.0 0.0
000080 00 00 00 00 00 00 00 00 00 00 00 00 00 00 00 00
       0.0 0.0
000090 00 00 00 00 00 00 00 00 00 00 00 00 00 00 00 00
       0.0 0.0
0000a0 00 00 00 00 00 00 00 00 00 00 00 00 00 00 00 00
       0.0 0.0
0000b0 00 00 00 00 00 00 00 00 00 00 00 00 00 00 00 00
       0.0 0.0
0000c0 00 00 00 00 00 00 00 00 00 00 00 00 00 00 00 00
       0.0 0.0
0000d0 00 00 00 00 00 00 00 00 00 00 00 00 00 00 00 00
       0.0 0.0
0000e0 00 00 00 00 00 00 00 00 00 00 00 00 00 00 00 00
       0.0 0.0
0000f0 00 00 00 00 00 00 00 00 00 00 00 00 00 00 00 00
       0.0 0.0
000100 00 00 00 00 00 00 00 00 00 00 00 00 00 00 00 00
       0.0 0.0
000110 00 00 00 00 00 00 00 00 00 00 00 00 00 00 00 00
       0.0 0.0
000120 00 00 00 00 00 00 00 00 00 00 00 00 00 00 00 00
       0.0 0.0
000130 00 00 00 00 00 00 00 00 00 00 00 00 00 00 00 00
       0.0 0.0
000140 00 00 00 00 00 00 00 00 00 00 00 00 00 00 00 00
       0.0 0.0
000150 00 00 00 00 00 00 00 00 00 00 00 00 00 00 00 00
       0.0 0.0
000160 00 00 00 00 00 00 00 00 00 00 00 00 00 00 00 00
       0.0 0.0
000170 00 00 00 00 00 00 00 00 00 00 00 00 00 00 00 00
       0.0 0.0
000180 00 00 00 00 00 00 00 00 00 00 00 00 00 00 00 00
       0.0 0.0
000190 00 00 00 00 00 00 00 00 00 00 00 00 00 00 00 00
       0.0 0.0
0001a0 00 00 00 00 00 00 00 00 00 00 00 00 00 00 00 00
       0.0 0.0
0001b0 00 00 00 00 00 00 00 00 00 00 00 00 00 00 00 00
       0.0 0.0
0001c0 00 00 00 00 00 00 00 00 00 00 00 00 00 00 00 00
       0.0 0.0
0001d0 00 00 00 00 00 00 00 00 00 00 00 00 00 00 00 00
       0.0 0.0
0001e0 00 00 00 00 00 00 00 00 00 00 00 00 00 00 00 00
       0.0 0.0
0001f0 00 00 00 00 00 00 00 00 00 00 00 00 00 00 00 00
       0.0 0.0
000200 00 00 00 00 00 00 00 00 00 00 00 00 00 00 00 00
       0.0 0.0
000210 00 00 00 00 00 00 00 00 00 00 00 00 00 00 00 00
       0.0 0.0
000220 00 00 00 00 00 00 00 00 00 00 00 00 00 00 00 00
       0.0 0.0
000230 00 00 00 00 00 00 00 00 00 00 00 00 00 00 00 00
       0.0 0.0
000240 00 00 00 00 00 00 00 00 00 00 00 00 00 00 00 00
       0.0 0.0
000250 00 00 00 00 00 00 00 00 00 00 00 00 00 00 00 00
       0.0 0.0
000260 00 00 00 00 00 00 00 00 00 00 00 00 00 00 00 00
       0.0 0.0
000270 00 00 00 00 00 00 00 00 00 00 00 00 00 00 00 00
       0.0 0.0
000280 00 00 00 00 00 00 00 00 00 00 00 00 00 00 00 00
       0.0 0.0
000290 00 00 00 00 00 00 00 00 00 00 00 00 00 00 00 00
       0.0 0.0
0002a0 00 00 00 00 00 00 00 00 00 00 00 00 00 00 00 00
       0.0 0.0
0002b0 00 00 00 00 00 00 00 00 00 00 00 00 00 00 00 00
       0.0 0.0
0002c0 00 00 00 00 00 00 00 00 00 00 00 00 00 00 00 00
       0.0 0.0
0002d0 00 00 00 00 00 00 00 00 00 00 00 00 00 00 00 00
       0.0 0.0
0002e0 00 00 00 00 00 00 00 00 00 00 00 00 00 00 00 00
       0.0 0.0
0002f0 00 00 00 00 00 00 00 00 00 00 00 00 00 00 00 00
       0.0 0.0
000300 00 00 00 00 00 00 00 00 00 00 00 00 00 00 00 00
       0.0 0.0
000310 00 00 00 00 00 00 00 00 00 00 00 00 00 00 00 00
       0.0 0.0
000320 00 00 00 00 00 00 00 00 00 00 00 00 00 00 00 00
       0.0 0.0
000330 00 00 00 00 00 00 00 00 00 00 00 00 00 00 00 00
       0.0 0.0
000340 00 00 00 00 00 00 00 00 00 00 00 00 00 00 00 00
       0.0 0.0
000350 00 00 00 00 00 00 00 00 00 00 00 00 00 00 00 00
       0.0 0.0
000360 00 00 00 00 00 00 00 00 00 00 00 00 00 00 00 00
       0.0 0.0
000370 00 00 00 00 00 00 00 00 00 00 00 00 00 00 00 00
       0.0 0.0
000380 00 00 00 00 00 00 00 00 00 00 00 00 00 00 00 00
       0.0 0.0
000390 00 00 00 00 00 00 00 00 00 00 00 00 00 00 00 00
       0.0 0.0
0003a0 00 00 00 00 00 00 00 00 00 00 00 00 00 00 00 00
       0.0 0.0
0003b0 00 00 00 00 00 00 00 00 00 00 00 00 00 00 00 00
       0.0 0.0
0003c0 00 00 00 00 00 00 00 00 00 00 00 00 00 00 00 00
       0.0 0.0
0003d0 00 00 00 00 00 00 00 00 00 00 00 00 00 00 00 00
       0.0 0.0
0003e0 00 00 00 00 00 00 00 00 00 00 00 00 00 00 00 00
       0.0 0.0
0003f0 00 00 00 00 00 00 00 00 00 00 00 00 00 00 00 00
       0.0 0.0
000400 00 00 00 00 00 00 00 00 00 00 00 00 00 00 00 00
       0.0 0.0
000410 00 00 00 00 00 00 00 00 00 00 00 00 00 00 00 00
       0.0 0.0
000420 00 00 00 00 00 00 00 00 00 00 00 00 00 00 00 00
       0.0 0.0
000430 00 00 00 00 00 00 00 00 00 00 00 00 00 00 00 00
       0.0 0.0
000440 00 00 00 00 00 00 00 00 00 00 00 00 00 00 00 00
       0.0 0.0
000450 00 00 00 00 00 00 00 00 00 00 00 00 00 00 00 00
       0.0 0.0
000460 00 00 00 00 00 00 00 00 00 00 00 00 00 00 00 00
       0.0 0.0
000470 00 00 00 00 00 00 00 00 00 00 00 00 00 00 00 00
       0.0 0.0
000480 00 00 00 00 00 00 00 00 00 00 00 00 00 00 00 00
       0.0 0.0
000490 00 00 00 00 00 00 00 00 00 00 00 00 00 00 00 00
       0.0 0.0
0004a0 00 00 00 00 00 00 00 00 00 00 00 00 00 00 00 00
       0.0 0.0
0004b0 00 00 00 00 00 00 00 00 00 00 00 00 00 00 00 00
       0.0 0.0
0004c0 00 00 00 00 00 00 00 00 00 00 00 00 00 00 00 00
       0.0 0.0
0004d0 00 00 00 00 00 00 00 00 00 00 00 00 00 00 00 00
       0.0 0.0
0004e0 00 00 00 00 00 00 00 00 00 00 00 00 00 00 00 00
       0.0 0.0
0004f0 00 00 00 00 00 00 00 00 00 00 00 00 00 00 00 00
       0.0 0.0
000500 00 00 00 00 00 00 00 00 00 00 00 00 00 00 00 00
       0.0 0.0
000510 00 00 00 00 00 00 00 00 00 00 00 00 00 00 00 00
       0.0 0.0
000520 00 00 00 00 00 00 00 00 00 00 00 00 00 00 00 00
       0.0 0.0
000530 00 00 00 00 00 00 00 00 00 00 00 00 00 00 00 00
       0.0 0.0
000540 00 00 00 00 00 00 00 00 00 00 00 00 00 00 00 00
       0.0 0.0
000550 00 00 00 00 00 00 00 00 00 00 00 00 00 00 00 00
       0.0 0.0
000560 00 00 00 00 00 00 00 00 00 00 00 00 00 00 00 00
       0.0 0.0
000570 00 00 00 00 00 00 00 00 00 00 00 00 00 00 00 00
       0.0 0.0
000580 00 00 00 00 00 00 00 00 00 00 00 00 00 00 00 00
       0.0 0.0
000590 00 00 00 00 00 00 00 00 00 00 00 00 00 00 00 00
       0.0 0.0
0005a0 00 00 00 00 00 00 00 00 00 00 00 00 00 00 00 00
       0.0 0.0
0005b0 00 00 00 00 00 00 00 00 00 00 00 00 00 00 00 00
       0.0 0.0
0005c0 00 00 00 00 00 00 00 00 00 00 00 00 00 00 00 00
       0.0 0.0
0005d0 00 00 00 00 00 00 00 00 00 00 00 00 00 00 00 00
       0.0 0.0
0005e0 00 00 00 00 00 00 00 00 00 00 00 00 00 00 00 00
       0.0 0.0
0005f0 00 00 00 00 00 00 00 00 00 00 00 00 00 00 00 00
       0.0 0.0
000600 00 00 00 00 00 00 00 00 00 00 00 00 00 00 00 00
       0.0 0.0
000610 00 00 00 00 00 00 00 00 00 00 00 00 00 00 00 00
       0.0 0.0
000620 00 00 00 00 00 00 00 00 00 00 00 00 00 00 00 00
       0.0 0.0
000630 00 00 00 00 00 00 00 00 00 00 00 00 00 00 00 00
       0.0 0.0
000640 00 00 00 00 00 00 00 00 00 00 00 00 00 00 00 00
       0.0 0.0
000650 00 00 00 00 00 00 00 00 00 00 00 00 00 00 00 00
       0.0 0.0
000660 00 00 00 00 00 00 00 00 00 00 00 00 00 00 00 00
       0.0 0.0
000670 00 00 00 00 00 00 00 00 00 00 00 00 00 00 00 00
       0.0 0.0
000680 00 00 00 00 00 00 00 00 00 00 00 00 00 00 00 00
       0.0 0.0
000690 00 00 00 00 00 00 00 00 00 00 00 00 00 00 00 00
       0.0 0.0
0006a0 00 00 00 00 00 00 00 00 00 00 00 00 00 00 00 00
       0.0 0.0
0006b0 00 00 00 00 00 00 00 00 00 00 00 00 00 00 00 00
       0.0 0.0
0006c0 00 00 00 00 00 00 00 00 00 00 00 00 00 00 00 00
       0.0 0.0
0006d0 00 00 00 00 00 00 00 00 00 00 00 00 00 00 00 00
       0.0 0.0
0006e0 00 00 00 00 00 00 00 00 00 00 00 00 00 00 00 00
       0.0 0.0
0006f0 00 00 00 00 00 00 00 00 00 00 00 00 00 00 00 00
       0.0 0.0
000700 00 00 00 00 00 00 00 00 00 00 00 00 00 00 00 00
       0.0 0.0
000710 00 00 00 00 00 00 00 00 00 00 00 00 00 00 00 00
       0.0 0.0
000720 00 00 00 00 00 00 00 00 00 00 00 00 00 00 00 00
       0.0 0.0
000730 00 00 00 00 00 00 00 00 00 00 00 00 00 00 00 00
       0.0 0.0
000740 00 00 00 00 00 00 00 00 00 00 00 00 00 00 00 00
       0.0 0.0
000750 00 00 00 00 00 00 00 00 00 00 00 00 00 00 00 00
       0.0 0.0
000760 00 00 00 00 00 00 00 00 00 00 00 00 00 00 00 00
       0.0 0.0
000770 00 00 00 00 00 00 00 00 00 00 00 00 00 00 00 00
       0.0 0.0
000780 00 00 00 00 00 00 00 00 00 00 00 00 00 00 00 00
       0.0 0.0
000790 00 00 00 00 00 00 00 00 00 00 00 00 00 00 00 00
       0.0 0.0
0007a0 00 00 00 00 00 00 00 00 00 00 00 00 00 00 00 00
       0.0 0.0
0007b0 00 00 00 00 00 00 00 00 00 00 00 00 00 00 00 00
       0.0 0.0
0007c0 00 00 00 00 00 00 00 00 00 00 00 00 00 00 00 00
       0.0 0.0
0007d0 00 00 00 00 00 00 00 00 00 00 00 00 00 00 00 00
       0.0 0.0
0007e0 00 00 00 00 00 00 00 00 00 00 00 00 00 00 00 00
       0.0 0.0
0007f0 00 00 00 00 00 00 00 00 00 00 00 00 00 00 00 00
       0.0 0.0
