isoform_quantification/models/Kallisto_87.pt (torch, 941036 bytes, 24 tensors)

lstm.weight_ih_l0 f8 [256, 2]
0	0x3ff1ecf62dec83d7	1.1203519624616456
1	0x3fe8a82b21249f5a	0.7705283782315562
2	0xbfefeafd134c2334	-0.9974351288702565
3	0xbffb6cf8e9effc08	-1.7141045702153423
4	0x3ff0acafdda32c66	1.042159906169013
5	0xbff8d76912f2ef7c	-1.5525904407686246
6	0x3ff56de9ab09fbf6	1.3393341714106533
7	0x3feb20364f885ab5	0.847682147347618
8	0xbff85a6f4fdbec49	-1.5220788115973554
9	0xbffa0c921921c15f	-1.6280690175736579
10	0xbfc63d98b9dc4715	-0.1737547786256576
11	0xbff1d59e0c35c5c6	-1.1146526791529694
12	0xbfe21607dfdb9974	-0.5651893017027718
13	0x3ff2c44b3d0772e2	1.1729233154248324
14	0x3fa8cabc037e1545	0.0484217409385033
15	0x3ff5bc76254528de	1.3585111099114822
16	0x3fd2a0da0799b38f	0.2910676073286646
17	0xbfd4130644abf4ee	-0.3136611624357347
18	0x3feb6ec3506f1f9b	0.8572708674409911
19	0x3ff4af8098454017	1.2928472469393506
20	0x3fd31404be59505f	0.29809683407552784
21	0x3ff5f906591b4309	1.3732970696184472
22	0x3ff94aa4f9e20dca	1.5807237397246916
23	0xbfda159c62776837	-0.4075690232836026
24	0x3fe9215965be28ac	0.7853209483303281
25	0xbfd0b7d6eadc3c92	-0.2612206739003763
26	0x3fed9f86a62ad8f7	0.9257233853775507
27	0xbfe2409064c9d04e	-0.570381352283684
28	0x3fee99b6f05a8abb	0.9562639898689079
29	0x3fc2cff9bee4c486	0.1469719106767437
30	0x3ff2114feafd3d98	1.1292266062990617
31	0x3ff48dfaba233a99	1.284662940120745
32	0x3ff77b38f9a60ac1	1.4675836326502323
33	0xbff2e99b6d2bde31	-1.182032991839048
34	0xbff1fac6ac2395ba	-1.1237246250324078
35	0xbff6620cddd172fd	-1.3989380516788394
36	0x3ff9fa316ae2c2c9	1.6235822844720806
37	0xbf8c2956bb818459	-0.01375072250101732
38	0xbff28606b9772ae5	-1.1577212567087198
39	0xbfed4f7f367e8bc2	-0.9159542145101727
40	0x3fe3832eec01a532	0.6097635850430037
41	0xbfdf17fd2cab9402	-0.48583917009665367
42	0xbfdcd764d2143145	-0.45064659610286056
43	0xbfdd80195ee7230b	-0.46094354884967065
44	0xbfed9843fb0742f8	-0.9248371031663671
45	0x3ff58356364c7f9a	1.344564640145086
46	0x3fd6d48f0184c253	0.3567235483961088
47	0xbff3b245f0c41840	-1.2310237317010575
48	0x3ff173f95c1e5447	1.0908139799478407
49	0x3ff7aa1211084bf4	1.4790211358383631
50	0xbff9323893ef62a0	-1.5747609881129065
51	0x3feac6c56e13089f	0.8367640638246207
52	0x3ff4ffc692769a0c	1.3124452325079146
53	0x3fb9588c91bc9341	0.09900740201972004
54	0xbff6cb99fea575f5	-1.424707407676917
55	0x3ffaa5236c982378	1.6653169862713337
56	0x3ffac27469543a73	1.6724742998518678
57	0xbff1cbd313fa47d7	-1.1122618465783398
58	0x3fe182d02e3b74ab	0.5472184088681805
59	0x3fd33e84d16be717	0.3006908459789072
60	0x3fecadff8c259cd5	0.8962400185818306
61	0x3fe72adb94d86df3	0.7239816577088604
62	0xbfbb9a5e455e31e9	-0.10782422250321812
63	0x3ff159ed19a8c6ac	1.0844546320262607
64	0xbff5c209fe61819a	-1.3598728119614862
65	0x3ff601f312e63cde	1.3754759538895125
66	0x3fa83c66465d2f5e	0.04733581170020672
67	0xbff23d1836bf5728	-1.13991567025864
68	0xbfcf1e0abf372b1e	-0.24310430847830217
69	0x3fd9bf48171ed6c2	0.4022999025140558
70	0xbff72cc5fb9436d6	-1.4484309985449975
71	0x3f8df5ad65a09ff7	0.01462874857323014
72	0xbfb34dfb2b84a1cb	-0.0754086476559969
73	0xbfe0846688a194e2	-0.5161621731355377
74	0x3fb8cd72d1266740	0.09688489538384903
75	0xbff317020c94957c	-1.193117188589297
76	0x3feaa937dbc37451	0.8331565181976065
77	0x3fec384837b73120	0.8818703735537703
78	0xbff82fc66a25489a	-1.5116638323129679
79	0x3ff731b961a3e99a	1.449639684111935
80	0x3fbfb43b02d147d7	0.12384384936129265
81	0x3fd5042dce22b990	0.3283800614398382
82	0xbff88319964e1578	-1.5320068236627247
83	0xbfe7722ea43f8490	-0.7326882560702348
84	0x3fb36d957e1665a0	0.07589086845691506
85	0xbff420fc70209b05	-1.258053243634721
86	0xbfcac6df3abe3104	-0.20919409149463075
87	0xbffb30c5dc070f09	-1.6994074435069157
88	0x3fc922228e70b5e4	0.19635421710101675
89	0x3fef740963d2be67	0.9829146337196563
90	0x3ff5b4d11fc7b80c	1.3566447488224211
91	0xbff9123474542023	-1.5669445556723154
92	0x3fd95011931f5fb8	0.3955120026344008
93	0xbfc4da130f6cc8fe	-0.16290510419054977
94	0xbfc32ce3ce86dc6a	-0.14980743011776393
95	0xbff89126df479eb4	-1.5354374620309672
96	0x3ff7509792593e43	1.4571758000128205
97	0x3f7c8da3c811d26a	0.006971015712328036
98	0x3ff5e76286b17e9e	1.3689904462297942
99	0xbfaa50887236ceab	-0.05139566797461489
100	0xbfecdb50652da90b	-0.9017717338695389
101	0xbff67f8c919aafa2	-1.4061399161973687
102	0xbff00bd5f51dbde1	-1.0028895926333166
103	0xbfd12aa064497af2	-0.2682267169347333
104	0xbffbb5f5eba04105	-1.731923981107742
105	0x3ff1b22aa82d763f	1.105997712081617
106	0xbff3bde686b1bf30	-1.2338624249932302
107	0x3ff0129f93ed9ce6	1.004546716541705
108	0xbfc77dad7d8d474f	-0.18352287893736238
109	0xbf80cad4ab1cccda	-0.008199368926943885
110	0x3fb52ce82f777948	0.08271647604803889
111	0x3ff4bef0f44591f0	1.296616510569148
112	0xbffb8412ad6c9bca	-1.7197443746933794
113	0x3fe68e0fc5840d57	0.704841504834273
114	0x3fd167437ec04a0d	0.27192771318473846
115	0x3ff45fea076bb3fb	1.2734165468093568
116	0xbfd898bdf75d6ebc	-0.3843226352380318
117	0x3fdbaa9a424a04d1	0.43228775476025044
118	0xbffb93db05764cbb	-1.723597546898232
119	0x3ff4926826bfab82	1.2857438577291025
120	0x3ffad9317af044bd	1.6780257036482873
121	0xbfb4d8dfafc2f889	-0.0814342311959725
122	0xbff01dafed802c53	-1.0072478558893365
123	0xbff1a4931febb4a9	-1.1026793715384804
124	0xbff52c50c0f226ac	-1.3233192002248115
125	0xbff0415509700186	-1.0159502380994083
126	0x3fd229de574e41e1	0.2838054516405731
127	0xbfccc75a8737fded	-0.22483378984905703
128	0x3fe40e6b2e97637d	0.6267600927341018
129	0x3ff88daf7008800c	1.5345911384865785
130	0x3fef0774b61fc027	0.9696601445302847
131	0x3fe90a85fba3e1af	0.7825345911833689
132	0x3ff8a7cb82f0a785	1.5409655680509513
133	0x3ff33ed09cd01acb	1.2028356671814204
134	0xbff5fb880abc4f12	-1.373909036575189
135	0x3fd0e7c7f8bf513c	0.2641467980549981
136	0x3ff103546526cd87	1.063312907336554
137	0x3f9c20a7f381d08e	0.027468322980397412
138	0x3ff92a71cab8c691	1.5728624266452338
139	0xbff4f0911283e402	-1.308732101750366
140	0xbfe4a834aa3f1c6d	-0.6455329251410952
141	0xbfed1d45fbd42ae2	-0.9098234098940703
142	0xbff28fdbdf90e18d	-1.1601217968983264
143	0xbfec02707e7f2eb3	-0.8752977820053814
144	0xbff6af83a5d0090a	-1.4178501584106606
145	0x3ffae8363ff28e93	1.6816923616360426
146	0xbfe9ff7a3fce03d4	-0.8124362226664013
147	0xbfddfeb9c20fa71f	-0.4686722178581579
148	0x3ff5a9f0ee4e22f8	1.3539895352170657
149	0xbfcaa430b1660dce	-0.2081356874660813
150	0xbfe64bf222ac933d	-0.6967707326153697
151	0x3fd849c3ec1edda8	0.3795022779335917
152	0x3fef2a84723d8a2f	0.9739401084191907
153	0x3fa7a8680e3e5168	0.04620671438093177
154	0xbff26622544e1991	-1.1499350827376456
155	0x3fee1ce5acefabc1	0.9410274865780296
156	0x3fb6df5ea9ac23e0	0.0893458523024857
157	0xbff7afe9a73f08d5	-1.4804474385314752
158	0x3ff58f9a2f56f664	1.347559151573841
159	0xbff3563a1bd0f25a	-1.208551510483764
160	0x3fe9f0871b36963c	0.8106112987049481
161	0x3ff1848d1722adbd	1.0948611167649311
162	0x3ff8b0803b148c3e	1.5430910404036378
163	0xbfda4397f9588044	-0.4103755888954803
164	0x3fed6a7dee9525d1	0.9192495021645134
165	0xbfe337043a2a13cd	-0.6004658828757045
166	0x3fcc7eedd7b06e5a	0.22262356788347654
167	0x3fe1f7a981e776d7	0.5614821946325844
168	0x3ff793c59de36d4d	1.4735771338954067
169	0x3fed5c26ad05697a	0.9174989108390001
170	0xbfeee80cf6c8ebeb	-0.9658264942185019
171	0x3fe92488b3b101d2	0.7857097158048936
172	0xbfba5a90ae643695	-0.10294441468814804
173	0xbfe73d2cb7cc574c	-0.7262176122482997
174	0x3f6af7bb64968702	0.0032919559495930848
175	0xbff5bee6ed4e6d27	-1.3591069478778282
176	0xbffa70ce3878b082	-1.6525404172816995
177	0xbfebe28fc15bd4bc	-0.8714064384972953
178	0xbfe43439d5faaccb	-0.6313752345353348
179	0xbfefc56d4964f666	-0.9928499635204389
180	0xbfe11162b903caa8	-0.5333722699709442
181	0xbfe6e2ff935daea6	-0.7152097585908066
182	0xbff6e44372acad66	-1.4307283858750792
183	0x3ffb62816eed7c9d	1.7115492184746366
184	0xbff4c1a37297aa4d	-1.297275016428688
185	0x3ff32d7c12ac4cf8	1.1986046533027643
186	0x3ff9d055eb195dff	1.6133631881292556
187	0x3ff07d8139ac61c7	1.0306408169618508
188	0xbfe86a82f267aeb8	-0.763001893470082
189	0x3ff0f1df73049052	1.0590509884723542
190	0xbfa4cb5f01712816	-0.04061409847834356
191	0xbfe706af534fe92b	-0.7195660235586606
192	0x3fea859ae7cf4dbe	0.8288092162642255
193	0xbfefd0e482ff34e2	-0.9942495878728119
194	0xbff2ce8afaa89fde	-1.1754255095820478
195	0x3fd64682a97f70e1	0.3480536132099257
196	0x3ff136bccc6e1b9c	1.0758636460829853
197	0x3ff7d38387354f4e	1.489139106900399
198	0xbfed08d1aa778c20	-0.9073265389855614
199	0x3fc2b4d9c60fb8e8	0.14614412470786609
200	0x3ffaf2fbce5f41d6	1.6843221722993937
201	0xbff230dd8aaea1ae	-1.1369300286552106
202	0xbffb3d1e2d41ec89	-1.7024213569518756
203	0x3ffa8646608d3d6b	1.6577819606353283
204	0x3fe270bd2011cbff	0.5762620569570344
205	0x3fd9c4971448dca6	0.4026239107219659
206	0xbfe4af50b341d5c6	-0.646400785552651
207	0x3fd86940574066ab	0.38142403145466613
208	0x3ff1d86b1a70a581	1.1153365166486255
209	0x3ff80a0f067f960e	1.5024557355731107
210	0x3ff76acd9ad33b27	1.4635749862533858
211	0x3fe71258c8c1b805	0.7209896012334417
212	0x3ff11326c1b7cf04	1.067175633154819
213	0xbfdabe5d25c26ace	-0.4178688877815774
214	0xbfa68ea8c3f1fb43	-0.04405715362462683
215	0xbfd0531f6041da19	-0.2550733985912373
216	0x3ff3f0b80f575699	1.2462692832245124
217	0xbfed37d605a137d2	-0.9130659208255969
218	0xbff10ab34cf4cea6	-1.0651124006371133
219	0x3ff332a76430387f	1.199866668091573
220	0x3ff7166c3df352ce	1.4429743213597024
221	0x3fe0f913b8f54630	0.5304049122298178
222	0x3fddc9727f82edf0	0.4654203648785531
223	0x3ff7a9ab9171155c	1.4789233857457793
224	0x3fecec497215d60a	0.9038436153629743
225	0xbfe2741886ed6d6d	-0.5766718516637589
226	0xbfcbad6d47457098	-0.21623006801644773
227	0x3fd27aa6d58b3ca5	0.2887360654248801
228	0x3ff0714c236bd489	1.0276605018273435
229	0xbfd057462c408834	-0.2553267891072466
230	0x3ffbab56bde97ff5	1.729330770343947
231	0x3fc49b4e77599585	0.1609895785106056
232	0xbff92e6cfc94b69a	-1.5738344065133902
233	0x3fea14a45f3ff02c	0.8150197849604459
234	0xbff8a9993917913f	-1.5414058904799075
235	0x3ff9f6cc23416a69	1.6227532746476305
236	0x3ff44198137716aa	1.2660141716345756
237	0xbfed3640afeaa051	-0.9128726421231567
238	0xbfe11d594c3f7e96	-0.5348326195925945
239	0x3fd9828f4a4d4051	0.3985937333682204
240	0xbff6944fd0ad5690	-1.41120893015378
241	0x3fe5e7b97bf0aa19	0.6845366879181852
242	0xbfdddbda59d3a229	-0.46654375812662124
243	0xbffb62c439b46dd9	-1.7116129163831515
244	0x3fbe07f92b0ece8e	0.117309163105171
245	0xbfe15b3de6e4b4cb	-0.5423879155765915
246	0xbff8440b24ed1ad0	-1.5166121904782592
247	0xbfd698ae5b3e55f7	-0.3530689135598943
248	0x3ff29503238b5dd7	1.16137994656116
249	0x3ff639b28a616e76	1.3890862851611963
250	0xbfe38f3e138359be	-0.6112356549372675
251	0x3fb5befd546c3316	0.08494551955318416
252	0x3ff90ce0735a089c	1.565643740265421
253	0x3fe0f59d6887b5ac	0.5299822846988511
254	0xbfe8f45b767c8077	-0.779828769129394
255	0x3fcff3123742670c	0.2496054429837432

lstm.weight_hh_l0 f8 [256, 64]
0	0x3fb575c48bf3451d	0.0838282434154007
1	0x3f9a91aaa58b0b81	0.025946298936797788
2	0xbfccefc4e8a8087c	-0.2260671745316961
3	0x3fb383fd414ef762	0.07623274654812698
4	0x3fc67c3804828e14	0.17566585750783814
5	0x3fc6fcfdd8a1434d	0.1795956905139299
6	0xbfb25c629513dd2b	-0.07172218455877004
7	0x3f99abfb23a98d32	0.02507011799970122
8	0x3fc7d0cba4aa5ec2	0.18605943241413142
9	0x3fd124aac9a0ce72	0.26786298456429514
10	0xbfc1187281ad3ba6	-0.13355857211942385
11	0x3fc5f8c272412636	0.17165403918106542
12	0xbfce4dbb744532d3	-0.23674719979535172
13	0x3fd05f2c7e2e29b7	0.2558089477758147
14	0x3fa1d54e8af7b15e	0.034830526794254565
15	0xbfd0ce13e8179135	-0.26257798829307727
16	0xbfa2f19b13fa7c1d	-0.036999555767799765
17	0x3f8698237546de8d	0.011032368675713467
18	0xbfb2b12f9bbbe2f0	-0.07301614334199846
19	0x3fbff8e3fd19017b	0.12489151887075949
20	0xbfc4208f465f2bac	-0.15724364219781017
21	0x3fd36f7a43ee8925	0.3036790526768008
22	0xbf9982d64f987f8a	-0.02491316662610602
23	0xbfc44e6bcfe54689	-0.15864322329666816
24	0x3fce5856392b2010	0.2370708254950391
25	0xbfc8cf54c844a8bf	-0.19382724550934502
26	0xbfc32392ff578196	-0.14952313869345052
27	0x3fb45953fdac15d0	0.07948803847474228
28	0xbfd08dadc73a662c	-0.25864738899108164
29	0xbfce5cabaa71a116	-0.2372030813451224
30	0xbfb3c59a7ebddd5e	-0.07723394006994996
31	0x3fb97b5e5e27f1b5	0.0995387058137059
32	0x3fbaf8c45ff94a0d	0.10535838454351439
33	0x3fccf8c79deb7d79	0.22634215556079676
34	0x3f7f70afdcc595d5	0.007675826036892504
35	0xbfd3864419c6d5e4	-0.30506994740730264
36	0x3fc9a7203c2cd630	0.2004127782653753
37	0x3fc9e65bae96cb6f	0.202342472313457
38	0x3fb5ff8b6b05c490	0.08593055117468595
39	0xbfbc770b3e3a81f9	-0.11119146603824238
40	0x3faeaf7c347094b1	0.05993259563573739
41	0x3fc11708abf962cd	0.13351543805290192
42	0x3fb96b1b900a3692	0.09929058329199794
43	0x3fb8baef2e352878	0.09660239103428292
44	0x3fc99921fdcefdb0	0.19998574154850024
45	0x3fd0c3030caa848b	0.26190258252069815
46	0x3fc10356215bfeb6	0.13291432026743671
47	0xbfbb37ee7bb25a6b	-0.1063221981042745
48	0x3fcd4866f0c2a8d9	0.2287720370853268
49	0x3fad063ec4516f1f	0.05668827196561054
50	0x3fcd55b16d910e15	0.22917764520580933
51	0x3fb900c9c5faaa67	0.09766827662921572
52	0xbf9a9fc64b466e64	-0.02600011667673953
53	0xbfc963bbfd4554c5	-0.19835615030993928
54	0x3f9d5d41ffd908d4	0.028676062813482187
55	0x3f99808f69af7d41	0.024904480767756757
56	0x3fd1584f82d35666	0.27101505065852505
57	0xbfa9a64c6d7fcf9d	-0.05009688221608075
58	0xbfd13255e44b219a	-0.26869723600659656
59	0xbfc823fd6fb0b2b7	-0.18859832719444622
60	0xbfb02110703c925c	-0.06300451984550065
61	0x3f95a450f2b2f512	0.02113462907140213
62	0xbfc1fed7f0dfac7c	-0.14058970700657258
63	0xbfd0e6d897c19e17	-0.2640897256846712
64	0x3fa29cc2fe99f9f8	0.036352246836930335
65	0xbfac7636b50c8ce0	-0.0555893989569769
66	0xbfcd59c89754e428	-0.2293024767803058
67	0x3f9da5e76e08ee45	0.02895318612193722
68	0xbf7cea0086dcbe80	-0.007059099252543555
69	0x3fa5618a9f446f54	0.0417598075311775
70	0x3fae619d52bd249f	0.05933848986621481
71	0xbfc6f3915085ac05	-0.1793080943274107
72	0xbfbf43b10df99f6c	-0.12212664214314167
73	0x3fd0f055964875c9	0.2646688430412181
74	0xbfd00b2aa1bb1259	-0.25068155092256955
75	0xbfd2dcc3b1ceb423	-0.29472439159400404
76	0x3fc44b68df326573	0.15855132005962566
77	0xbfa97ba8819f4c35	-0.0497715624075216
78	0x3fba03aebc03aafc	0.10161869135087537
79	0x3fd192b6d96fdd21	0.27457972749785325
80	0xbfc4c647ae4d4562	-0.16230102549392728
81	0x3fd34272f48fd956	0.3009307277965453
82	0x3fa92ec703b1427e	0.04918500824044701
83	0x3fba1352dceec6af	0.10185735601296629
84	0x3fcf90a9141bb520	0.2466021869835595
85	0xbfc13fd2f8ac6b5a	-0.13476025717030887
86	0xbfd32c0f40535704	-0.2995641830615201
87	0x3fbe118da466e42f	0.11745534194678052
88	0x3fc90c50b2fceb77	0.1956883310284316
89	0xbfb2d3ad67e72e88	-0.07354244028754853
90	0xbfb74e26cd84f48d	-0.09103624837458053
91	0xbfd28e40e6becd55	-0.2899324658748886
92	0x3f85e456329531ce	0.010689423960365565
93	0xbfcf7bc315a7ef39	-0.24596441800519545
94	0x3fca3afad56a5b94	0.20492492123295547
95	0x3fa7c06271f2dd92	0.04638965264296781
96	0x3f4471520116c62e	0.0006238603984256069
97	0x3f8f7fdff20c68d7	0.015380620550378072
98	0x3fd154fd302bea10	0.2708123178887556
99	0x3fbaed65ab590177	0.10518489297192511
100	0x3fc05627745469f1	0.12762921505129968
101	0xbfc62eca4e55d4a3	-0.17330292534794464
102	0xbfd0656764494d2b	-0.256189201293824
103	0xbfbbbba538c206cc	-0.1083319915360576
104	0xbfcd28ae9b61869d	-0.22780401789627983
105	0x3fc1319721da2a8b	0.13432587769451163
106	0xbfcc43a711c4e1d9	-0.22081459396009853
107	0x3fbaeff9f847b09d	0.10522424994968778
108	0xbfc36cb09cc7f550	-0.1517544522793437
109	0xbfc3c3ae98bddf64	-0.1544092412766488
110	0xbfcd3ed07b005c33	-0.22847944265297002
111	0x3fd18dff5752cf55	0.2742918350952455
112	0xbfc4ed4e0fea3f7c	-0.16349197175122387
113	0xbfb8a796593c98df	-0.09630717924719388
114	0x3fd35a9ca64b917d	0.30240551223530315
115	0x3fbcb73eba35dbc5	0.11217109724189729
116	0x3f88aac7369b3a4b	0.012044483522371105
117	0x3f6d189cbe7ee74a	0.0035517751129789154
118	0x3fc3f991e75d6e40	0.15605377003781662
119	0xbfd2d5ba4bf3ed9c	-0.29429490487356147
120	0x3fb02cef3f2273e9	0.06318564692851648
121	0xbfa82bc7c63a4696	-0.047209017703733355
122	0x3fd1017715a21d87	0.26571442711470933
123	0x3fcb9f8dbc4de88d	0.21580669111773823
124	0xbfcf1cbbb0f0d919	-0.2430643667191326
125	0x3fbcccbb6447916f	0.11249896238547817
126	0xbfba01d149add564	-0.10159023331455824
127	0x3fc71afc2e006970	0.1805110191933852
128	0xbfbee49af599e289	-0.12067574020501061
129	0x3fc79013afef308a	0.1840843781523101
130	0xbfc94b38f40dfe8d	-0.1976081077263995
131	0xbfc89c7dad302533	-0.19227572399567236
132	0xbfc497389169c230	-0.16086489773035018
133	0x3f96f28a7dacb5b2	0.022409595413753265
134	0x3fc26c2e4293d6b3	0.14392641306738127
135	0xbf90056eb4971462	-0.01564572312578994
136	0xbfb79e0be398bb81	-0.09225534731443298
137	0xbfd1fe63a15392a6	-0.2811516833738018
138	0x3fc80b7950dd28e1	0.18785015533860075
139	0xbfc5d422d87ea738	-0.1705363804915636
140	0xbfa400593a8b25d3	-0.03906515922205824
141	0x3fa186901c967065	0.034229758729652095
142	0x3fd1f7f89ac095d4	0.2807599555256648
143	0x3fcd2940b1af563a	0.22782143283863993
144	0x3fc46e88fc7bad82	0.15962326362874185
145	0x3fd1d01621d89673	0.27832558923032663
146	0xbfcf9db8789166c6	-0.24700075041874053
147	0xbf95b7bb23ecb1c3	-0.021208690707838828
148	0xbf99b83c62c69588	-0.0251168666160502
149	0xbfc135357a075a4a	-0.1344363065570227
150	0x3fbf6aa0123ea6fb	0.12272072263172255
151	0xbfbd18b72365704a	-0.11365837682882432
152	0xbf9bb6d7daa4736f	-0.027064678878662315
153	0x3f82c4e7b1aec1a6	0.009164629087394637
154	0x3f6cb25f023170a2	0.003503022731406417
155	0xbfcb18a892a286ec	-0.21169001731782744
156	0xbfd37571a16fe4b1	-0.30404320493068854
157	0xbfd21bb0d6d5dfd8	-0.28294011096977334
158	0xbfd24443c06ca131	-0.2854165438789265
159	0xbfcc7d33fba481ef	-0.2225708941196127
160	0x3f8b2988385506e9	0.01326280996238745
161	0xbfc49c95778e9886	-0.1610285600447165
162	0x3fce20278a3b2a58	0.23535627603117137
163	0x3fc7850b9e8031d6	0.1837477230004782
164	0xbfd02775e5808af8	-0.2524084798080106
165	0xbfcf916394484191	-0.24662441959709416
166	0xbfd065de9d0c941f	-0.25621762596921543
167	0xbf908c52740a322c	-0.01616028626681236
168	0x3fd35591bffbf1e8	0.30209773777440185
169	0xbf9abefc26720678	-0.02611917481090706
170	0xbfd30b5a39f7186c	-0.2975678983751837
171	0x3fc870b43ede4a3f	0.19093945569746215
172	0x3fa9d5d112c9e620	0.05045941690782407
173	0xbfcc2fa410998c32	-0.22020388422524345
174	0x3fc88d0b093f9646	0.19180429412442573
175	0xbfcefadd038a9f05	-0.24203074143337502
176	0xbfcd8d8c9a010089	-0.23088223952982315
177	0x3fcb4c79c6ac8ad3	0.21327135277632311
178	0x3fcdadc5cd717f33	0.23186562091268
179	0xbfb53789bfbd95de	-0.0828786938778516
180	0xbfc7be0d6a1b0535	-0.18548743897376033
181	0x3f682f9f8d17c65d	0.0029523960336000203
182	0x3fc898f585daa24a	0.19216794048158398
183	0x3fbf13d06c15ca11	0.12139608992382757
184	0xbfd138904a741cfe	-0.2690773703656787
185	0xbfc392e5052a888f	-0.15292036773923143
186	0xbfcb3dc38faf8885	-0.21282238498594466
187	0xbfc1fd76182d17d5	-0.14054752521968675
188	0xbfb4ab238e1d00e3	-0.08073637218058453
189	0xbfcce980c5ee7916	-0.22587594666124095
190	0xbfd1fbf505a1a0db	-0.28100324201524324
191	0xbfc3a88490ce1780	-0.15358025618132487
192	0xbfd2e1c1ef54ad93	-0.2950291478361688
193	0xbfd1fa75beb2a6d9	-0.28091186163747534
194	0xbfc9d82fcc5451d3	-0.201909994859888
195	0x3fa84cd0c9e0a7f6	0.04746105636907309
196	0xbfcadbe73e927d10	-0.20983591609272212
197	0x3fc25446200a94eb	0.14319683613317777
198	0x3fa418e288557071	0.03925235666494665
199	0x3fccb45cf68dbdc5	0.22425424612764125
200	0xbfcd9091f245e2ce	-0.2309744294141382
201	0x3fd346def9ff1d95	0.3012006226894866
202	0x3fbf8fe17e1e77d4	0.12328919724538362
203	0xbfcf192e475431f4	-0.24295595629554578
204	0x3fcc332fda73ee2f	0.2203121010460207
205	0x3fa0559329e3be6e	0.031902884353141356
206	0xbfa778af26c143b9	-0.045842622261836614
207	0x3fceac5606c25fed	0.23963427858393463
208	0xbf7eac6ffb29aec8	-0.007488667894545116
209	0xbfc46c2fdd234156	-0.15955160424938225
210	0xbfb0b28489cb9b35	-0.06522396434921236
211	0xbfb9933b169cf1b7	-0.09990281393124333
212	0x3fb9ae6d1a219098	0.10031778228727928
213	0x3fb370a6b4dd618e	0.07593767085689349
214	0x3fc0f96f877812ad	0.13261217226695035
215	0x3fc08bca1814b177	0.1292660348493759
216	0xbfd327be5c1e27a9	-0.29930075641515913
217	0xbfa8d5a45c0792eb	-0.04850495932968165
218	0x3fbc1e4d045280a3	0.10983735423588085
219	0xbfb73bd9ccdfe137	-0.09075700046367251
220	0x3fb08a0e502649b2	0.06460656601692596
221	0xbfd062c8ab118698	-0.2560292883482389
222	0x3fa13f34dc9ffcb4	0.03368535226035743
223	0xbfc4ad947299e8c5	-0.16154723735582457
224	0x3fce083b744b2fef	0.23462622812655762
225	0x3fb1f0d9804ff813	0.07008132345797007
226	0x3fae616e881e17ed	0.059337095371162586
227	0xbfb66353404a0145	-0.08745308227117217
228	0x3fa34d55f1d7d299	0.03769939973054654
229	0xbf97b8ad99b54b62	-0.023165428644755244
230	0xbfd03ba3b87f41f6	-0.25364010827345795
231	0x3fce707ff59d9d13	0.23780822270348576
232	0x3f7afa61ea590e13	0.006586439592470866
233	0x3f980a7d4b5c31dc	0.02347751400434271
234	0xbfac34bb0d206802	-0.05508980307804735
235	0x3f8643ee8bc5dc3c	0.01087175716450705
236	0xbfc2a9afb6b5d169	-0.1458034174098757
237	0x3fac568cdc1c0240	0.0553478258789295
238	0xbfb5eb6d3c275d3f	-0.0856235763416082
239	0x3fbfd212b879d8df	0.12429921153838873
240	0xbf886a06cca3a667	-0.011920979614347972
241	0xbfc1f903da5acbab	-0.14041183626031048
242	0x3fd061362fb6b2ec	0.25593332919633727
243	0x3fc9e917d8aae562	0.2024259384104808
244	0xbfcc06bd5579fdc4	-0.21895567582758535
245	0x3fc2187e1e24a730	0.14137245628199357
246	0x3fd373e79a167e47	0.303949261166029
247	0xbfc2d85ca81a038e	-0.14722784240805392
248	0x3fbab937d8d47560	0.10438870471667405
249	0x3fd1b2e19f924b22	0.2765430506052998
250	0x3fc646383da79ec4	0.1740179348992027
251	0xbfb929c3944db6aa	-0.09829351778690901
252	0x3fcc6d707b02ece8	0.22208982473771433
253	0xbfa55613583b4852	-0.04167232944531975
254	0xbfb35888744d03b9	-0.07556965674758843
255	0xbf825f230e3095e0	-0.008970521803415232

lstm.bias_ih_l0 f8 [256]
0	0x0000000000000000	0.0
1	0x0000000000000000	0.0
2	0x0000000000000000	0.0
3	0x0000000000000000	0.0
4	0x0000000000000000	0.0
5	0x0000000000000000	0.0
6	0x0000000000000000	0.0
7	0x0000000000000000	0.0
8	0x0000000000000000	0.0
9	0x0000000000000000	0.0
10	0x0000000000000000	0.0
11	0x0000000000000000	0.0
12	0x0000000000000000	0.0
13	0x0000000000000000	0.0
14	0x0000000000000000	0.0
15	0x0000000000000000	0.0
16	0x0000000000000000	0.0
17	0x0000000000000000	0.0
18	0x0000000000000000	0.0
19	0x0000000000000000	0.0
20	0x0000000000000000	0.0
21	0x0000000000000000	0.0
22	0x0000000000000000	0.0
23	0x0000000000000000	0.0
24	0x0000000000000000	0.0
25	0x0000000000000000	0.0
26	0x0000000000000000	0.0
27	0x0000000000000000	0.0
28	0x0000000000000000	0.0
29	0x0000000000000000	0.0
30	0x0000000000000000	0.0
31	0x0000000000000000	0.0
32	0x0000000000000000	0.0
33	0x0000000000000000	0.0
34	0x0000000000000000	0.0
35	0x0000000000000000	0.0
36	0x0000000000000000	0.0
37	0x0000000000000000	0.0
38	0x0000000000000000	0.0
39	0x0000000000000000	0.0
40	0x0000000000000000	0.0
41	0x0000000000000000	0.0
42	0x0000000000000000	0.0
43	0x0000000000000000	0.0
44	0x0000000000000000	0.0
45	0x0000000000000000	0.0
46	0x0000000000000000	0.0
47	0x0000000000000000	0.0
48	0x0000000000000000	0.0
49	0x0000000000000000	0.0
50	0x0000000000000000	0.0
51	0x0000000000000000	0.0
52	0x0000000000000000	0.0
53	0x0000000000000000	0.0
54	0x0000000000000000	0.0
55	0x0000000000000000	0.0
56	0x0000000000000000	0.0
57	0x0000000000000000	0.0
58	0x0000000000000000	0.0
59	0x0000000000000000	0.0
60	0x0000000000000000	0.0
61	0x0000000000000000	0.0
62	0x0000000000000000	0.0
63	0x0000000000000000	0.0
64	0x0000000000000000	0.0
65	0x0000000000000000	0.0
66	0x0000000000000000	0.0
67	0x0000000000000000	0.0
68	0x0000000000000000	0.0
69	0x0000000000000000	0.0
70	0x0000000000000000	0.0
71	0x0000000000000000	0.0
72	0x0000000000000000	0.0
73	0x0000000000000000	0.0
74	0x0000000000000000	0.0
75	0x0000000000000000	0.0
76	0x0000000000000000	0.0
77	0x0000000000000000	0.0
78	0x0000000000000000	0.0
79	0x0000000000000000	0.0
80	0x0000000000000000	0.0
81	0x0000000000000000	0.0
82	0x0000000000000000	0.0
83	0x0000000000000000	0.0
84	0x0000000000000000	0.0
85	0x0000000000000000	0.0
86	0x0000000000000000	0.0
87	0x0000000000000000	0.0
88	0x0000000000000000	0.0
89	0x0000000000000000	0.0
90	0x0000000000000000	0.0
91	0x0000000000000000	0.0
92	0x0000000000000000	0.0
93	0x0000000000000000	0.0
94	0x0000000000000000	0.0
95	0x0000000000000000	0.0
96	0x0000000000000000	0.0
97	0x0000000000000000	0.0
98	0x0000000000000000	0.0
99	0x0000000000000000	0.0
100	0x0000000000000000	0.0
101	0x0000000000000000	0.0
102	0x0000000000000000	0.0
103	0x0000000000000000	0.0
104	0x0000000000000000	0.0
105	0x0000000000000000	0.0
106	0x0000000000000000	0.0
107	0x0000000000000000	0.0
108	0x0000000000000000	0.0
109	0x0000000000000000	0.0
110	0x0000000000000000	0.0
111	0x0000000000000000	0.0
112	0x0000000000000000	0.0
113	0x0000000000000000	0.0
114	0x0000000000000000	0.0
115	0x0000000000000000	0.0
116	0x0000000000000000	0.0
117	0x0000000000000000	0.0
118	0x0000000000000000	0.0
119	0x0000000000000000	0.0
120	0x0000000000000000	0.0
121	0x0000000000000000	0.0
122	0x0000000000000000	0.0
123	0x0000000000000000	0.0
124	0x0000000000000000	0.0
125	0x0000000000000000	0.0
126	0x0000000000000000	0.0
127	0x0000000000000000	0.0
128	0x0000000000000000	0.0
129	0x0000000000000000	0.0
130	0x0000000000000000	0.0
131	0x0000000000000000	0.0
132	0x0000000000000000	0.0
133	0x0000000000000000	0.0
134	0x0000000000000000	0.0
135	0x0000000000000000	0.0
136	0x0000000000000000	0.0
137	0x0000000000000000	0.0
138	0x0000000000000000	0.0
139	0x0000000000000000	0.0
140	0x0000000000000000	0.0
141	0x0000000000000000	0.0
142	0x0000000000000000	0.0
143	0x0000000000000000	0.0
144	0x0000000000000000	0.0
145	0x0000000000000000	0.0
146	0x0000000000000000	0.0
147	0x0000000000000000	0.0
148	0x0000000000000000	0.0
149	0x0000000000000000	0.0
150	0x0000000000000000	0.0
151	0x0000000000000000	0.0
152	0x0000000000000000	0.0
153	0x0000000000000000	0.0
154	0x0000000000000000	0.0
155	0x0000000000000000	0.0
156	0x0000000000000000	0.0
157	0x0000000000000000	0.0
158	0x0000000000000000	0.0
159	0x0000000000000000	0.0
160	0x0000000000000000	0.0
161	0x0000000000000000	0.0
162	0x0000000000000000	0.0
163	0x0000000000000000	0.0
164	0x0000000000000000	0.0
165	0x0000000000000000	0.0
166	0x0000000000000000	0.0
167	0x0000000000000000	0.0
168	0x0000000000000000	0.0
169	0x0000000000000000	0.0
170	0x0000000000000000	0.0
171	0x0000000000000000	0.0
172	0x0000000000000000	0.0
173	0x0000000000000000	0.0
174	0x0000000000000000	0.0
175	0x0000000000000000	0.0
176	0x0000000000000000	0.0
177	0x0000000000000000	0.0
178	0x0000000000000000	0.0
179	0x0000000000000000	0.0
180	0x0000000000000000	0.0
181	0x0000000000000000	0.0
182	0x0000000000000000	0.0
183	0x0000000000000000	0.0
184	0x0000000000000000	0.0
185	0x0000000000000000	0.0
186	0x0000000000000000	0.0
187	0x0000000000000000	0.0
188	0x0000000000000000	0.0
189	0x0000000000000000	0.0
190	0x0000000000000000	0.0
191	0x0000000000000000	0.0
192	0x0000000000000000	0.0
193	0x0000000000000000	0.0
194	0x0000000000000000	0.0
195	0x0000000000000000	0.0
196	0x0000000000000000	0.0
197	0x0000000000000000	0.0
198	0x0000000000000000	0.0
199	0x0000000000000000	0.0
200	0x0000000000000000	0.0
201	0x0000000000000000	0.0
202	0x0000000000000000	0.0
203	0x0000000000000000	0.0
204	0x0000000000000000	0.0
205	0x0000000000000000	0.0
206	0x0000000000000000	0.0
207	0x0000000000000000	0.0
208	0x0000000000000000	0.0
209	0x0000000000000000	0.0
210	0x0000000000000000	0.0
211	0x0000000000000000	0.0
212	0x0000000000000000	0.0
213	0x0000000000000000	0.0
214	0x0000000000000000	0.0
215	0x0000000000000000	0.0
216	0x0000000000000000	0.0
217	0x0000000000000000	0.0
218	0x0000000000000000	0.0
219	0x0000000000000000	0.0
220	0x0000000000000000	0.0
221	0x0000000000000000	0.0
222	0x0000000000000000	0.0
223	0x0000000000000000	0.0
224	0x0000000000000000	0.0
225	0x0000000000000000	0.0
226	0x0000000000000000	0.0
227	0x0000000000000000	0.0
228	0x0000000000000000	0.0
229	0x0000000000000000	0.0
230	0x0000000000000000	0.0
231	0x0000000000000000	0.0
232	0x0000000000000000	0.0
233	0x0000000000000000	0.0
234	0x0000000000000000	0.0
235	0x0000000000000000	0.0
236	0x0000000000000000	0.0
237	0x0000000000000000	0.0
238	0x0000000000000000	0.0
239	0x0000000000000000	0.0
240	0x0000000000000000	0.0
241	0x0000000000000000	0.0
242	0x0000000000000000	0.0
243	0x0000000000000000	0.0
244	0x0000000000000000	0.0
245	0x0000000000000000	0.0
246	0x0000000000000000	0.0
247	0x0000000000000000	0.0
248	0x0000000000000000	0.0
249	0x0000000000000000	0.0
250	0x0000000000000000	0.0
251	0x0000000000000000	0.0
252	0x0000000000000000	0.0
253	0x0000000000000000	0.0
254	0x0000000000000000	0.0
255	0x0000000000000000	0.0

lstm.bias_hh_l0 f8 [256]
0	0x0000000000000000	0.0
1	0x0000000000000000	0.0
2	0x0000000000000000	0.0
3	0x0000000000000000	0.0
4	0x0000000000000000	0.0
5	0x0000000000000000	0.0
6	0x0000000000000000	0.0
7	0x0000000000000000	0.0
8	0x0000000000000000	0.0
9	0x0000000000000000	0.0
10	0x0000000000000000	0.0
11	0x0000000000000000	0.0
12	0x0000000000000000	0.0
13	0x0000000000000000	0.0
14	0x0000000000000000	0.0
15	0x0000000000000000	0.0
16	0x0000000000000000	0.0
17	0x0000000000000000	0.0
18	0x0000000000000000	0.0
19	0x0000000000000000	0.0
20	0x0000000000000000	0.0
21	0x0000000000000000	0.0
22	0x0000000000000000	0.0
23	0x0000000000000000	0.0
24	0x0000000000000000	0.0
25	0x0000000000000000	0.0
26	0x0000000000000000	0.0
27	0x0000000000000000	0.0
28	0x0000000000000000	0.0
29	0x0000000000000000	0.0
30	0x0000000000000000	0.0
31	0x0000000000000000	0.0
32	0x0000000000000000	0.0
33	0x0000000000000000	0.0
34	0x0000000000000000	0.0
35	0x0000000000000000	0.0
36	0x0000000000000000	0.0
37	0x0000000000000000	0.0
38	0x0000000000000000	0.0
39	0x0000000000000000	0.0
40	0x0000000000000000	0.0
41	0x0000000000000000	0.0
42	0x0000000000000000	0.0
43	0x0000000000000000	0.0
44	0x0000000000000000	0.0
45	0x0000000000000000	0.0
46	0x0000000000000000	0.0
47	0x0000000000000000	0.0
48	0x0000000000000000	0.0
49	0x0000000000000000	0.0
50	0x0000000000000000	0.0
51	0x0000000000000000	0.0
52	0x0000000000000000	0.0
53	0x0000000000000000	0.0
54	0x0000000000000000	0.0
55	0x0000000000000000	0.0
56	0x0000000000000000	0.0
57	0x0000000000000000	0.0
58	0x0000000000000000	0.0
59	0x0000000000000000	0.0
60	0x0000000000000000	0.0
61	0x0000000000000000	0.0
62	0x0000000000000000	0.0
63	0x0000000000000000	0.0
64	0x0000000000000000	0.0
65	0x0000000000000000	0.0
66	0x0000000000000000	0.0
67	0x0000000000000000	0.0
68	0x0000000000000000	0.0
69	0x0000000000000000	0.0
70	0x0000000000000000	0.0
71	0x0000000000000000	0.0
72	0x0000000000000000	0.0
73	0x0000000000000000	0.0
74	0x0000000000000000	0.0
75	0x0000000000000000	0.0
76	0x0000000000000000	0.0
77	0x0000000000000000	0.0
78	0x0000000000000000	0.0
79	0x0000000000000000	0.0
80	0x0000000000000000	0.0
81	0x0000000000000000	0.0
82	0x0000000000000000	0.0
83	0x0000000000000000	0.0
84	0x0000000000000000	0.0
85	0x0000000000000000	0.0
86	0x0000000000000000	0.0
87	0x0000000000000000	0.0
88	0x0000000000000000	0.0
89	0x0000000000000000	0.0
90	0x0000000000000000	0.0
91	0x0000000000000000	0.0
92	0x0000000000000000	0.0
93	0x0000000000000000	0.0
94	0x0000000000000000	0.0
95	0x0000000000000000	0.0
96	0x0000000000000000	0.0
97	0x0000000000000000	0.0
98	0x0000000000000000	0.0
99	0x0000000000000000	0.0
100	0x0000000000000000	0.0
101	0x0000000000000000	0.0
102	0x0000000000000000	0.0
103	0x0000000000000000	0.0
104	0x0000000000000000	0.0
105	0x0000000000000000	0.0
106	0x0000000000000000	0.0
107	0x0000000000000000	0.0
108	0x0000000000000000	0.0
109	0x0000000000000000	0.0
110	0x0000000000000000	0.0
111	0x0000000000000000	0.0
112	0x0000000000000000	0.0
113	0x0000000000000000	0.0
114	0x0000000000000000	0.0
115	0x0000000000000000	0.0
116	0x0000000000000000	0.0
117	0x0000000000000000	0.0
118	0x0000000000000000	0.0
119	0x0000000000000000	0.0
120	0x0000000000000000	0.0
121	0x0000000000000000	0.0
122	0x0000000000000000	0.0
123	0x0000000000000000	0.0
124	0x0000000000000000	0.0
125	0x0000000000000000	0.0
126	0x0000000000000000	0.0
127	0x0000000000000000	0.0
128	0x0000000000000000	0.0
129	0x0000000000000000	0.0
130	0x0000000000000000	0.0
131	0x0000000000000000	0.0
132	0x0000000000000000	0.0
133	0x0000000000000000	0.0
134	0x0000000000000000	0.0
135	0x0000000000000000	0.0
136	0x0000000000000000	0.0
137	0x0000000000000000	0.0
138	0x0000000000000000	0.0
139	0x0000000000000000	0.0
140	0x0000000000000000	0.0
141	0x0000000000000000	0.0
142	0x0000000000000000	0.0
143	0x0000000000000000	0.0
144	0x0000000000000000	0.0
145	0x0000000000000000	0.0
146	0x0000000000000000	0.0
147	0x0000000000000000	0.0
148	0x0000000000000000	0.0
149	0x0000000000000000	0.0
150	0x0000000000000000	0.0
151	0x0000000000000000	0.0
152	0x0000000000000000	0.0
153	0x0000000000000000	0.0
154	0x0000000000000000	0.0
155	0x0000000000000000	0.0
156	0x0000000000000000	0.0
157	0x0000000000000000	0.0
158	0x0000000000000000	0.0
159	0x0000000000000000	0.0
160	0x0000000000000000	0.0
161	0x0000000000000000	0.0
162	0x0000000000000000	0.0
163	0x0000000000000000	0.0
164	0x0000000000000000	0.0
165	0x0000000000000000	0.0
166	0x0000000000000000	0.0
167	0x0000000000000000	0.0
168	0x0000000000000000	0.0
169	0x0000000000000000	0.0
170	0x0000000000000000	0.0
171	0x0000000000000000	0.0
172	0x0000000000000000	0.0
173	0x0000000000000000	0.0
174	0x0000000000000000	0.0
175	0x0000000000000000	0.0
176	0x0000000000000000	0.0
177	0x0000000000000000	0.0
178	0x0000000000000000	0.0
179	0x0000000000000000	0.0
180	0x0000000000000000	0.0
181	0x0000000000000000	0.0
182	0x0000000000000000	0.0
183	0x0000000000000000	0.0
184	0x0000000000000000	0.0
185	0x0000000000000000	0.0
186	0x0000000000000000	0.0
187	0x0000000000000000	0.0
188	0x0000000000000000	0.0
189	0x0000000000000000	0.0
190	0x0000000000000000	0.0
191	0x0000000000000000	0.0
192	0x0000000000000000	0.0
193	0x0000000000000000	0.0
194	0x0000000000000000	0.0
195	0x0000000000000000	0.0
196	0x0000000000000000	0.0
197	0x0000000000000000	0.0
198	0x0000000000000000	0.0
199	0x0000000000000000	0.0
200	0x0000000000000000	0.0
201	0x0000000000000000	0.0
202	0x0000000000000000	0.0
203	0x0000000000000000	0.0
204	0x0000000000000000	0.0
205	0x0000000000000000	0.0
206	0x0000000000000000	0.0
207	0x0000000000000000	0.0
208	0x0000000000000000	0.0
209	0x0000000000000000	0.0
210	0x0000000000000000	0.0
211	0x0000000000000000	0.0
212	0x0000000000000000	0.0
213	0x0000000000000000	0.0
214	0x0000000000000000	0.0
215	0x0000000000000000	0.0
216	0x0000000000000000	0.0
217	0x0000000000000000	0.0
218	0x0000000000000000	0.0
219	0x0000000000000000	0.0
220	0x0000000000000000	0.0
221	0x0000000000000000	0.0
222	0x0000000000000000	0.0
223	0x0000000000000000	0.0
224	0x0000000000000000	0.0
225	0x0000000000000000	0.0
226	0x0000000000000000	0.0
227	0x0000000000000000	0.0
228	0x0000000000000000	0.0
229	0x0000000000000000	0.0
230	0x0000000000000000	0.0
231	0x0000000000000000	0.0
232	0x0000000000000000	0.0
233	0x0000000000000000	0.0
234	0x0000000000000000	0.0
235	0x0000000000000000	0.0
236	0x0000000000000000	0.0
237	0x0000000000000000	0.0
238	0x0000000000000000	0.0
239	0x0000000000000000	0.0
240	0x0000000000000000	0.0
241	0x0000000000000000	0.0
242	0x0000000000000000	0.0
243	0x0000000000000000	0.0
244	0x0000000000000000	0.0
245	0x0000000000000000	0.0
246	0x0000000000000000	0.0
247	0x0000000000000000	0.0
248	0x0000000000000000	0.0
249	0x0000000000000000	0.0
250	0x0000000000000000	0.0
251	0x0000000000000000	0.0
252	0x0000000000000000	0.0
253	0x0000000000000000	0.0
254	0x0000000000000000	0.0
255	0x0000000000000000	0.0

lstm.weight_ih_l0_reverse f8 [256, 2]
0	0xbfd18c889b31874c	-0.2742024913369405
1	0x3fc1d3d4a3e23968	0.1392770576680491
2	0x3fec833dcfee20ff	0.891020685304312
3	0x3fe269b4d4552aa7	0.5754036090014168
4	0x3feef762ddb15a8d	0.967698510164
5	0x3ff0e642f2e18497	1.0562161910568528
6	0x3ffba73af4315754	1.7283277071741923
7	0xbff5cdbdb60ab66f	-1.3627297507295244
8	0xbffaaffeab4d536c	-1.6679674808012477
9	0x3fdde9ab6a9a2a5b	0.4673870602643199
10	0xbfedbeb10c0222b8	-0.9295277819192824
11	0xbfe9a642f9058e47	-0.8015456069665071
12	0x3ff8a2ea37ac050d	1.539774148434222
13	0xbff4020ca2558017	-1.250500330083019
14	0xbffaac51e5dbecce	-1.6670702914114375
15	0xbfbc953fc3e5918c	-0.11165236027370024
16	0xbfedbd8d471d059a	-0.9293886555607742
17	0x3fe979aa8c26f0ff	0.7961018311830513
18	0xbfce9fd6f227285c	-0.23925291847109775
19	0x3fd4a14c9c4ebd86	0.322344925541039
20	0xbff774f0b2913bd7	-1.4660498595510398
21	0x3ff942b1748c110a	1.5787825157759152
22	0xbff70a39c8bc0970	-1.4399965134803914
23	0x3ffb5fe46667c901	1.710911178609024
24	0xbff2cbfbf61fd8ee	-1.1748008360132718
25	0xbff4f9365b9750b1	-1.310842855241429
26	0x3ff49e4bf9a5530f	1.2886466743268021
27	0x3ff9af89a8a6466e	1.6053558910247392
28	0x3fc0462b2f56a76b	0.12714137851190385
29	0x3fe1418e1a2316a3	0.5392523298730406
30	0xbffa6c493629d3bd	-1.6514370074994382
31	0xbff4abecab1f7e27	-1.2919737514965932
32	0xbfe2b409f04b4bf9	-0.5844773953671157
33	0x3fe7884a6e9c2c21	0.735387054476977
34	0x3fb40e5c08c39b97	0.07834410871474372
35	0x3fee3ef8f3e1ebf7	0.9451870692568026
36	0xbfda7c9c16e551af	-0.4138555739966944
37	0xbff3694af9a0f5e5	-1.2132062674639823
38	0x3f5a0635405e2332	0.0015883941682394817
39	0xbfeee1798e8622ce	-0.9650237830802213
40	0xbff2fa5d240541ab	-1.186123982148369
41	0xbff36f25c201f62e	-1.2146356180595705
42	0xbff5e5a22456c5f1	-1.368562833737425
43	0xbfd38b08a08bc591	-0.3053609435874814
44	0x3ff9099c09b2d134	1.5648460749481048
45	0x3ff1ebbfaad9d5f4	1.1200558351387118
46	0xbf7207a73c0db988	-0.004401829967589761
47	0xbff6739b5cac22ba	-1.4032243366256538
48	0xbfd831297372e9e8	-0.37800060533814284
49	0xbfd34dc190082778	-0.30162085595713206
50	0x3ffa6f42946a5acd	1.6521631047705114
51	0x3fd7f6cf05a79112	0.37443900634959093
52	0xbff22cddd35eb318	-1.135953736938239
53	0xbff359f3886c76c8	-1.209460766701726
54	0x3ff9150c09057374	1.5676384308237319
55	0xbfef53e2d0fe256b	-0.9789899904146017
56	0x3ff5e3ee500beabd	1.368147194558943
57	0xbfd14fb1f884bf7c	-0.27048920888318384
58	0xbfd9172fddb1b56a	-0.39204022073575706
59	0xbff7647706699cff	-1.4620275736322694
60	0x3fc10b52aa597f46	0.1331580478463314
61	0xbff7e175afcdd279	-1.4925438754409284
62	0x3fe752d85096c9fb	0.7288629125599181
63	0x3fe69bfeecc1dba9	0.7065424560704417
64	0x3fdba650e0af84b2	0.43202611867861684
65	0x3fd0c44096e713c6	0.2619782899531028
66	0xbfcdc4b0ea69e282	-0.2325650353048055
67	0xbff5a8f8c4f1d55c	-1.353752869906507
68	0x3feaf177df42a90d	0.8419761047892124
69	0x3ff22d9a7eb81e38	1.1361336660355743
70	0x3ff9fd3d87c891e6	1.6243262580911675
71	0x3fa71a82eabec3bd	0.045124140887657906
72	0x3fe3324b530574a9	0.5998894330511081
73	0x3ff4318d6b35871e	1.2620977580886072
74	0x3fe81d5d52a1c584	0.753584538832158
75	0xbfe2487c6b8089b9	-0.571348390545885
76	0xbffa6d55898ef4d9	-1.6516929028869554
77	0xbfed1f75bb51f775	-0.9100903185460384
78	0xbfbe3f1f99d64629	-0.11815068727289514
79	0x3fb9313f72f34157	0.09840771252061607
80	0xbfcf0816c1cde944	-0.24243435347654885
81	0x3ff441a1aed4a162	1.266023333484633
82	0x3ff32daf3e72b9fa	1.1986534537678595
83	0x3fe52c5e3f280041	0.661666034080561
84	0x3fe3d95f7ebadc26	0.6202847933954032
85	0xbff86f54e78e432d	-1.5271805806298275
86	0x3ff93622456c6b32	1.5757162772994886
87	0xbfdfb0716cd6b9f8	-0.4951442301634468
88	0xbfdf403a3fbbe2d9	-0.4882951376344358
89	0x3fd99ab83d021aa0	0.40006833989938606
90	0x3ff2faba04873639	1.1862125565416035
91	0x3ff666bd4b798dc2	1.400082869361413
92	0xbff9a557dd7e2830	-1.602866997915509
93	0x3fb51f83c0b13d6d	0.08251212553408545
94	0xbfead31a7ca8d93c	-0.8382694659001468
95	0x3fd74fc55eea44eb	0.36424383420042145
96	0xbfec23fd4c62b7ed	-0.8793932430178281
97	0x3f9951d5aa770378	0.024726236848212818
98	0xbff3af21810c2bb5	-1.2302565613669973
99	0xbff54e4dacb78260	-1.331617045092706
100	0x3ff902be1b4e9c70	1.563169581096897
101	0x3fe87314850f1641	0.7640478705222408
102	0x3fdcb481a0322986	0.44851723331580506
103	0x3f80ddc22e3d592c	0.008235470806238064
104	0xbfec7b6fe87385ef	-0.8900680103362769
105	0xbfd91244267c2b95	-0.39173988111786545
106	0x3ff833a5c33ff96b	1.5126092554997637
107	0x3fecfcf70f62b959	0.9058795261860652
108	0xbfe43894f0ea0be1	-0.6319069581371616
109	0x3fd274191419aae0	0.2883360573093068
110	0xbfe4a8823d17cc1d	-0.6455699151250688
111	0x3fe12e1808cd7340	0.536876694862805
112	0xbfc4ea9e3f05ea8a	-0.16340997769642157
113	0x3fe0444483fd40ec	0.5083334520259348
114	0x3fec0d8475ed9020	0.8766500762253635
115	0x3fe2f3475d7ced3f	0.592197115510693
116	0xbfea58b2ae4c4b70	-0.823327389169533
117	0x3ff264d12d14453e	1.1496135483651666
118	0x3ffb8d48a94c80b2	1.7219931233631027
119	0x3fed6b60928d089b	0.9193575727770339
120	0x3fb0475588d1e5bf	0.06358847227411156
121	0xbfe1f8f29e01050d	-0.5616391263976382
122	0xbff1beb555a7a6ff	-1.1090596528906074
123	0x3fe86be828fae247	0.7631722259894297
124	0x3ff32a3c9217910c	1.197811670944307
125	0xbffa358587f918b2	-1.638066798348103
126	0x3fd0bc6a4e3b2b42	0.26149995460280107
127	0xbfe62cd133ef5139	-0.6929708494522294
128	0xbff129d4520f18f7	-1.0727122502735804
129	0x3fe312c0842bb11c	0.5960390645464346
130	0x3fc6b589129a9482	0.1774150219763762
131	0x3fe83d5fe85fdf31	0.7574920214237634
132	0x3ff777ca554d8f61	1.466745694365237
133	0x3ff04fbde7673e9b	1.0194682158652657
134	0x3fe838acd7d0528a	0.7569183554756631
135	0x3ffaa81538f7d90e	1.6660358643835624
136	0xbff4f7a6b1627a57	-1.3104617051209482
137	0x3ff0359ab414f970	1.0130869898271975
138	0x3fe5d3fdab9de015	0.68212779539954
139	0xbff8db912f439b49	-1.5536052557233282
140	0x3ff268b828158fcd	1.150566250399595
141	0x3fe4e45061221c20	0.6528703591474176
142	0x3fa3a62c6f19661b	0.03837717872802334
143	0x3fc3fde9f03b13c6	0.15618633489626016
144	0x3ff5c53e0710a547	1.3606548572518748
145	0x3ffb8486c854c8fb	1.7198551011502434
146	0x3ff99b82e8e9b877	1.600466642204564
147	0x3fee75799954e02d	0.9518402094609023
148	0xbff4fe3ec03fd534	-1.3120715627422443
149	0xbfea243ea1327878	-0.8169243954068994
150	0xbff5caa267b4bd05	-1.3619712878242478
151	0x3fc2b300b90a9e2f	0.146087732651027
152	0xbfd49756d473c770	-0.3217370104531403
153	0xbfd61cebbdbff0a8	-0.34551518945932935
154	0xbfe70af95ca318ff	-0.7200896081274378
155	0xbff6d77b565ddeb8	-1.4276078580568718
156	0xbff04b6c84e7e12b	-1.018414038813783
157	0x3f8e05308cef5b71	0.014658335972780741
158	0xbfe4ab4f0c60710f	-0.6459117166264451
159	0x3ffa538c95c0a890	1.6453977441511007
160	0xbff8bb6664ae3907	-1.5457519467195782
161	0x3fb0a2cd0ff04e59	0.06498414649132069
162	0x3fe4d356a6b50081	0.6507981544491629
163	0x3fe1d597d3af6257	0.5573233732676027
164	0xbfae45ebb076ab4a	-0.05912720231147846
165	0x3ff2bc99f6df94e0	1.1710452693453632
166	0x3fe538d23f705400	0.6631861914671617
167	0x3fe5b139ef270d8c	0.6778840704868556
168	0x3ff762f13013ac4b	1.4616557958604683
169	0x3fe51429ae68ff2c	0.6587112814376943
170	0x3feaced28a1efde9	0.8377468774487485
171	0x3fe42e57cf14ab68	0.6306571049257004
172	0x3ff7334b4c60def4	1.4500229819804504
173	0xbff0b3f5bc7d8cea	-1.043935524264095
174	0x3ff2a8631279e5ba	1.1661101075863898
175	0x3fe1178895227af6	0.5341227448260202
176	0x3fb9f4705579f01e	0.10138609015297148
177	0xbffa4e780493050a	-1.644157426708548
178	0xbfec7bd38f0d6762	-0.890115527533663
179	0xbfc904443e762db8	-0.19544270563015487
180	0xbfd9c299327ece34	-0.4025023453825469
181	0x3fee26b8947294f1	0.9422266864172838
182	0x3fefd16c9e9a8e30	0.9943144891480582
183	0x3fe89c0e433f8d97	0.7690497697298494
184	0x3fe22a4de20c43ed	0.5676640906332274
185	0x3fece0738ae770fc	0.9023988450021814
186	0xbfed77ce295a9fa1	-0.9208746726699141
187	0x3ffb19d697ceb1c1	1.6938081674553447
188	0xbff48cf50b2a0c15	-1.28441337929758
189	0xbfc0f6f9c772aeb5	-0.13253710020705048
190	0xbfe05507ec1616b0	-0.5103797541675785
191	0x3fb320d0bbc622f9	0.07471947273564784
192	0x3fd5c8fafcc8eb1d	0.3403918713190011
193	0x3fb5c56e5c3109d1	0.08504380942125712
194	0x3fdd5f25f776fa0d	0.4589323918006876
195	0xbff2ef4f5cb860b1	-1.1834252950557522
196	0x3fea04c9d77e5629	0.8130845269067254
197	0x3fe9a627bdff9512	0.8015326224237092
198	0x3fd23b61aae21795	0.28487435996827887
199	0xbfbd75371f96522a	-0.11506981393024121
200	0x3fb20bca88a147d1	0.07049241862958346
201	0x3feae357b8602b2b	0.84025178919669
202	0xbfb0eb1b6bb4ccba	-0.06608744983241169
203	0x3fe9dec3a9f66fed	0.8084429092009465
204	0xbff022971eb9310a	-1.0084449005253782
205	0x3fed00e414c58e33	0.9063587575623785
206	0xbfbe1ae6d21ed415	-0.11759798650639681
207	0x3fe9e46690c0c70f	0.8091309382636797
208	0x3fe9261dbe619a39	0.7859028547653174
209	0x3ffac4e7c9985383	1.673072612267078
210	0xbfe131f9c8ff9879	-0.5373505521536251
211	0xbfe2440bf85c76d0	-0.5708064890675022
212	0x3fefe00f861b97c3	0.9961011523525872
213	0xbfe4ecd20819ac76	-0.6539087446411844
214	0x3fea0cb93a122b54	0.8140531667898849
215	0x3fe359e660980ede	0.6047241102791892
216	0x3fd62781312c3ac8	0.34616117288616666
217	0x3fef9418dc1e5a58	0.9868282603445762
218	0xbff0dc1be4aa9fe4	-1.0537375385556453
219	0x3ff2cf8aa7853406	1.1756693404925058
220	0xbfecbeea3239dd40	-0.8983050328232949
221	0xbfcb5db8e699cd66	-0.21379767665676325
222	0xbfd721d99b69dfa9	-0.3614410417280803
223	0xbfdeaab7c9521325	-0.4791697946568994
224	0xbff4e80b9c0454fd	-1.3066516966258057
225	0xbff8047f6cf21454	-1.5010980849922548
226	0xbf874c1311ad3603	-0.011375569321582018
227	0xbf88598433a0b7b2	-0.011889489007525931
228	0xbfeec40c614fbf02	-0.9614316845527073
229	0xbff0cf84d2d56867	-1.0506637798012208
230	0xbfea8aabb70692df	-0.8294275831909451
231	0xbff6c76753f5c9e6	-1.4236825256053804
232	0xbfe9c6875fd6532f	-0.8054844734020657
233	0x3fd976b5733bd95e	0.3978704095201432
234	0xbff0fba2b5846c94	-1.0614344683188266
235	0x3fd272943beda8a8	0.28824334957483666
236	0xbff9bb0fec93b27c	-1.6081694833075337
237	0x3ff94c827d7660d1	1.5811791325450495
238	0x3ff822feb4e083f2	1.5085436883457501
239	0xbffb9813efc8c03d	-1.7246283880777036
240	0x3ff1918c41190f2c	1.0980341475378266
241	0xbff8645c5fda937e	-1.5245021576203892
242	0x3ff1d4331e95c783	1.114306563828422
243	0x3fe2a1bf2b088e66	0.5822444763657131
244	0x3ff104d1d7ff50c9	1.0636766850848736
245	0xbfd4013199e24b35	-0.31257286098223186
246	0xbff00519686c7905	-1.0012449339915872
247	0x3fc431056e221edb	0.15774600865937924
248	0x3ff751ff44cca2b9	1.4575188338732643
249	0x3fece7234900d7a0	0.9032150674672614
250	0xbfe0be2eda79c994	-0.5232157008270399
251	0xbfa947eec01992d1	-0.049376927327818294
252	0x3ff90c1c42e6867f	1.5654566396046048
253	0xbff2a0568d4a6d30	-1.1641450423401913
254	0x3fc73985c39114f8	0.18144294785648873
255	0x3fc0f950a1e023d9	0.13260848907546466
