isoform_quantification/models/Mili_RSEM.pt (torch, 351176 bytes, 36 tensors)

lstm.weight_ih_l0 f8 [256, 2]
000000 d5 fb e8 bc ba 81 f8 3f c3 06 76 91 6c 08 bc 3f
       1.531672227792787 0.10950354148192347
000010 48 12 28 bd f5 ac ca bf da 9f c4 f1 c5 7f f1 bf
       -0.20840331779631271 -1.0936946338715559
000020 3e a7 a5 08 12 84 df bf 74 02 fd d9 00 b7 b1 bf
       -0.4924359402126476 -0.06919865915279805
000030 56 e8 3d 4d eb e6 df 3f 1c 38 bc 7b 16 e0 f6 3f
       0.4984691862406455 1.4297089417846172
000040 86 42 46 b7 1a 8e ec bf e1 ba ba 0d b5 07 e7 bf
       -0.8923467235163833 -0.7196908252861612
000050 bb de a5 c6 9f 6d e7 3f 47 94 ec 5a a3 ba cf bf
       0.7321318511812572 -0.2478832429852977
000060 40 e0 21 29 c9 44 f6 3f e6 13 1f 9a 2f 0e f9 bf
       1.3917934042674602 -1.5659633655898175
000070 a9 bf 6d 4c 8e 60 ea bf f2 c2 dc fb dd 8d c0 3f
       -0.8242866032360229 0.12932944105116168
000080 33 97 25 bf 1e 1d e0 3f 28 39 89 dc b7 7f f2 3f
       0.5035547002159774 1.1561812033356293
000090 5e bc 21 f6 12 0e f0 3f 08 fd f3 2a 55 19 f3 3f
       1.0034360518000294 1.1936847379545856
0000a0 74 fe 45 c6 f2 4f fa bf b3 e9 bd d1 00 ec f4 bf
       -1.6445186371855955 -1.3076179688492686
0000b0 bd 52 9a cc d8 ae eb bf 04 e2 98 37 48 62 e1 3f
       -0.8650936123036314 0.5432473264582431
0000c0 be cb db 66 e6 32 f4 3f 39 ae c6 82 c4 af f3 bf
       1.2624267595208347 -1.230412016719937
0000d0 d7 42 4a 9f 51 45 e8 3f a9 3e f1 67 46 6c e2 bf
       0.7584617720732137 -0.5757171659588113
0000e0 f4 b2 a7 d2 89 29 fb 3f 46 ab 2c 72 54 df f1 3f
       1.6976412037576525 1.1170238933506922
0000f0 60 c9 73 d0 01 5d f6 bf e9 5f 89 e0 28 ae e1 3f
       -1.3977068083446156 0.5525097260933737
000100 8d f0 f2 00 07 35 e3 3f 3a 77 6a 9d b3 8e bc bf
       0.600223066190226 -0.11155245392953086
000110 d8 3f c6 0f 97 c9 e6 bf 0d 38 13 f6 fb 17 df bf
       -0.7121081646055201 -0.485838880832376
000120 ea e8 dc f3 21 ba ce 3f 4a 57 1c c9 9a a0 cd bf
       0.24005531699533061 -0.2314637643800615
000130 28 5e 9f c6 61 ca d0 3f fa 34 44 21 35 3a f8 3f
       0.2623524131463193 1.514210824915891
000140 87 da 7f 8a a1 11 f8 bf 74 4d be fb 89 15 fb bf
       -1.5043044481405177 -1.6927585443234792
000150 7f af cb cf 89 fd d3 3f 7b 59 fb 97 0e e6 ef 3f
       0.3123497514013635 0.9968331306834409
000160 c7 fb 92 35 a2 fd d9 3f c3 bb a0 91 5f cc ea 3f
       0.4061055682358838 0.8374479145330657
000170 63 ea ef 57 bc 3c a2 3f fa be 40 2a 39 91 f1 3f
       0.03561962674571786 1.097954907465406
000180 07 0e 7a 4f 15 2f d8 bf c0 ad f5 6f 44 e5 e9 bf
       -0.3778737331524273 -0.8092367350304173
000190 36 fe ea 48 9c 17 b6 3f 1e 57 38 04 00 b1 fa bf
       0.0862977674505537 -1.6682129063460205
0001a0 81 d2 45 a5 2a 63 c7 3f a1 e6 fc 65 f6 ae eb bf
       0.18271382398565453 -0.8651077262831742
0001b0 30 6f ee 9e 7a fd b3 bf b7 e8 ec c0 54 48 d6 3f
       -0.07808653240357155 0.34816473808644893
0001c0 44 56 3a ca d2 bf f0 3f 91 27 7b 19 0f e7 dd 3f
       1.0468318843390003 0.46722772110353455
0001d0 bd 8f 42 8c 67 9d f8 bf 71 a8 a2 18 56 2f f0 3f
       -1.5384288290888286 1.0115567171401632
0001e0 89 dd 56 8e 1d cc bd 3f e3 80 ac 95 08 a8 d1 3f
       0.11639580464440348 0.2758809529932604
0001f0 ca ca e6 f3 0b 85 c1 bf 65 74 34 e6 94 56 e6 bf
       -0.13687276276831134 -0.6980690475644563
000200 e3 b1 6d 31 f3 d8 f0 bf c8 2b 22 8a c2 e8 f9 bf
       -1.0529663019943818 -1.6193261524046978
000210 bf 32 9d c4 69 43 e7 3f fc 79 cc 1b 7a 2e f6 bf
       0.7269791450613282 -1.3863469205749643
000220 0c 1e 7f 4d 92 2c e7 bf 11 54 04 5a a3 94 ea 3f
       -0.7241908563236747 0.8306442983763437
000230 6a 56 7d 7a 25 67 f9 bf 82 ec 77 79 02 f5 c0 3f
       -1.587682226634025 0.1324771016223601
000240 3d 1a c0 3d e2 b7 de 3f 00 ea 2d ff b6 d7 da bf
       0.4799733737021688 -0.4194161884294374
000250 8f 2e 5d d8 7e a7 db 3f 58 77 58 0d b7 34 e2 bf
       0.4320981133393866 -0.5689349423080143
000260 53 ac c7 f3 48 1f f4 3f f4 1b ea 6e 31 ef b6 3f
       1.2576379320769504 0.08958729703782337
000270 53 ab 57 6a 9f 0b de 3f 22 43 1a 07 8a c8 f6 bf
       0.4694593943119589 -1.423959758514862
000280 63 32 21 84 81 ce f1 3f 7e 3c da 59 a1 5e f3 bf
       1.1129164849582132 -1.210603095041534
000290 9c 7a 29 d4 41 8e f6 bf bc 18 97 44 ba 31 f5 3f
       -1.4097307479457077 1.324640529566337
0002a0 61 67 f5 1a 19 37 f9 bf c9 08 ab ce e9 23 f4 3f
       -1.5759516766615536 1.258767897889401
0002b0 b1 c1 d7 9d 80 af f0 bf be de 2d ea 24 d3 f8 3f
       -1.0428472676977487 1.551548876535818
0002c0 be 4a c0 57 b5 91 f5 bf f3 28 a1 eb ee a8 b0 bf
       -1.3480733325747418 -0.06507771732973193
0002d0 89 1a 5b 6a be fc eb bf 63 93 d3 b4 9f 5b e1 bf
       -0.8746025159133107 -0.5424345523611972
0002e0 e9 79 4a 93 29 fb e8 3f 48 90 f0 47 02 2d e0 bf
       0.780659473111709 -0.5054942517349525
0002f0 8b b2 df 93 20 fa e9 3f c0 57 ca e5 e0 9a f8 3f
       0.8117831123505125 1.5378121353328282
000300 0b 0e f6 29 b4 61 f8 3f 0c 00 b1 f2 5e f2 d8 bf
       1.5238534583194248 -0.3897931451829215
000310 5c f0 a6 35 82 8b 9f bf f8 97 b4 c8 8f 2d fb bf
       -0.030805620693840616 -1.698623451238289
000320 c8 55 80 d4 87 08 fb 3f 36 19 5c 8a d8 e9 f1 3f
       1.6895826626617794 1.1195912747076142
000330 9a 2c fa f9 4a 65 ec 3f 89 e2 3e 9e eb b0 ed 3f
       0.8873648531311062 0.9278467264876592
000340 c8 69 59 2b 66 3b b7 bf c5 81 de 1b 5b a7 df 3f
       -0.0907501083214931 0.4945895931396332
000350 f4 8d ff 84 49 62 9d 3f ab 2d 9a a4 b2 b8 e6 bf
       0.02869524835831601 -0.7100461211097601
000360 56 94 b2 83 b4 51 b2 bf cf 67 a9 3c 1d 2b 46 bf
       -0.07155922141335344 -0.0006765263327210782
000370 f3 b3 da cf ab 95 d1 bf f2 0e ed 11 34 a1 f6 3f
       -0.2747602014376859 1.4143562984690417
000380 b6 76 7a 8e 2b cf ea 3f 42 48 c0 03 4e db f9 bf
       0.8377893240719547 -1.6160411974456257
000390 10 15 d5 96 ff e0 b7 bf 2c 40 3e 43 44 f0 f4 3f
       -0.09327695305281147 1.3086588503538321
0003a0 e4 a1 0a 7d 61 a7 f0 3f b0 2e 8d eb 13 37 f2 3f
       1.0408644565997003 1.1384467316847058
0003b0 af 31 bd 9e 36 69 f5 bf 42 f0 51 6e 71 46 e1 bf
       -1.3381868553870893 -0.5398490099610245
0003c0 3c b6 b7 14 31 98 cd 3f f0 50 48 ff b4 3b f8 3f
       0.23120702277758365 1.514576909253318
0003d0 02 76 b7 be 7d 5f f6 3f 4e 2d 51 a5 98 bb ed 3f
       1.398313279139416 0.9291499356126367
0003e0 8d a6 f0 bd 10 62 f3 bf eb 76 45 4e c5 bd d2 3f
       -1.2114417476208559 0.2928326858872043
0003f0 cd 1f 55 8f 85 59 e4 bf b1 93 44 2f 3e a7 e1 3f
       -0.6359279441321576 0.5516653941345934
000400 7d 08 0f 09 29 21 9d bf 64 af 6e 6d 17 60 f4 3f
       -0.028446808984661665 1.2734598421766004
000410 9d bf b4 5f ac da f0 bf 5c ea 25 0c f1 4c db bf
       -1.053387044765237 -0.42657114206637003
000420 7d 68 cf 38 53 63 d7 3f 58 b4 d1 a3 7a b7 f2 3f
       0.3654373221194261 1.1697946929155218
000430 50 84 3d 39 48 be e8 3f 4e b6 07 5b 96 43 df bf
       0.7732277982687581 -0.4885002030340261
000440 01 cc 07 0b 3a 8f e5 bf 80 df c9 26 70 57 da bf
       -0.6737337317885023 -0.4115867975992771
000450 d8 df d5 27 7a d1 df bf 42 7a 87 5d 15 40 fa 3f
       -0.4971604718225513 1.6406453755841004
000460 0e 20 ca 8e f3 01 f3 3f 19 bf 03 a4 91 49 eb bf
       1.187976415416418 -0.8527305797015031
000470 15 47 ef 16 57 a7 a4 3f 86 13 73 ab f3 bf f8 3f
       0.040339204358714444 1.5468632409331078
000480 e7 2e ca 0a 2c 84 cc bf 40 d9 6e 53 41 02 e9 3f
       -0.22278357054562223 0.7815252904463605
000490 cd f9 bf 3d f2 55 f6 3f 6d 88 49 c5 b1 a8 d0 bf
       1.3959829723458939 -0.26029629007655936
0004a0 75 f9 44 95 85 15 f6 3f b9 96 73 27 bd f5 dd 3f
       1.3802543478810467 0.46812371113479007
0004b0 fa 33 be 06 15 b5 cf bf 5f 7a ed f4 60 d4 f0 bf
       -0.2477136881756506 -1.0518502776609677
0004c0 e3 97 6f 43 98 6f f7 bf 93 f4 a5 fa 11 0f f5 bf
       -1.46474481908944 -1.316179255575922
0004d0 f6 da f4 bb 2e a3 e7 bf e0 21 4a fd d2 a6 d5 bf
       -0.7386697455429772 -0.33830713973341453
0004e0 28 4e 52 5e eb 1a f6 bf 4e 6b 36 49 e8 bb e2 bf
       -1.3815721210893432 -0.5854379110272505
0004f0 d0 84 96 57 7a 91 f8 3f 95 a7 2a 31 05 57 e0 bf
       1.5355170651821943 -0.5106225929532565
000500 65 f6 41 5a 05 eb b3 3f e0 3b 78 44 ba f9 e6 3f
       0.07780488446766183 0.7179843270586126
000510 9a b1 45 0a bc 19 c7 bf e5 dc c3 9c 1b 58 b5 bf
       -0.18047285558294562 -0.08337566926262559
000520 60 58 b1 0c ae b6 cf bf d7 6d dd 99 91 2b d8 bf
       -0.24776244754565635 -0.3776592257106279
000530 f4 ff f1 b0 82 47 f0 3f ca 90 9f 93 cb 39 b6 3f
       1.0174586212087862 0.08681938509068057
000540 de 53 9c 5e 50 ae fb 3f a6 7d f1 8b a9 53 eb bf
       1.7300571151474666 -0.853962682081989
000550 cb b9 71 f1 92 76 e0 3f 41 6d cf f5 2a aa fa bf
       0.5144743648250424 -1.666544876285869
000560 f2 43 11 5d 97 82 e8 bf 99 16 34 a8 ab e5 ce bf
       -0.76594131638751 -0.24138398850498247
000570 a8 23 0e 35 0e 50 e8 bf 27 1c a3 af 40 c6 ec bf
       -0.7597723995432846 -0.8992007666028073
000580 ee 4d 45 72 67 66 d9 3f e6 cd e6 64 4a 91 e2 bf
       0.39687524947404895 -0.5802356692060442
000590 a5 b0 d2 0c f0 3d f1 3f a4 c4 b1 ce 39 73 f0 bf
       1.0776215077303644 -1.0281313013077034
0005a0 3e 28 4a 6d a3 c9 ec 3f 71 9c db 1f 1d 20 af bf
       0.899614060837173 -0.060791883601091785
0005b0 f8 60 2d d1 f5 19 fb 3f 8e d7 ed 0c d9 fa e5 3f
       1.6938379450785401 0.6868710758706003
0005c0 ff 61 45 49 c0 86 fa 3f c2 75 9f 44 57 1b f6 bf
       1.6578982221745944 -1.381675022180716
0005d0 7a b8 71 68 62 56 f6 bf c4 a7 f9 ce b2 40 f5 bf
       -1.3960899429180516 -1.328295525071085
0005e0 79 02 6c 0e 96 79 fb bf 22 a5 b7 a0 52 16 d4 bf
       -1.7171841204982725 -0.31386247344069507
0005f0 a1 2e 25 fb ec 50 d6 bf ad 33 b3 f0 9c 0e df 3f
       -0.34868931318190205 0.4852669096551903
000600 90 3f 1b df 72 c5 f5 bf e9 90 0d d4 ae 31 f3 3f
       -1.3607052531333217 1.19962961991501
000610 e2 17 c4 bb ed aa f6 3f 00 6b 92 e4 99 da e4 bf
       1.416730626545807 -0.65168470995863
000620 e1 ae 27 ea be c1 fa bf c4 c3 6e dd 22 60 f4 bf
       -1.6723012110405124 -1.2734707498277524
000630 8e 2e 98 bb c3 59 f4 bf d1 5e ef bd 4e 70 e9 bf
       -1.2719151809605225 -0.7949594220799218
000640 d2 2b fc 3f 37 45 ea 3f 13 bc e1 e8 84 7c f3 3f
       0.8209491967876323 1.2179001900619866
000650 6d c1 43 4a 55 ee f9 bf 64 c6 a7 58 dd 33 e2 3f
       -1.62068680772435 0.5688311320829595
000660 74 02 56 e7 26 45 d7 3f d2 03 a9 38 d9 e7 fa 3f
       0.36359570113567163 1.6816036427774077
000670 c5 27 b8 79 3e 70 f5 3f f7 d2 22 f2 d2 14 d3 3f
       1.3399033312475563 0.29814599653336366
000680 76 64 d5 ad e9 5c e8 3f 66 cf a1 85 3d 29 eb bf
       0.7613418955981064 -0.848784218788279
000690 9e ab 04 9d ab 41 d0 3f f9 f3 c4 75 02 49 7b 3f
       0.2540082009679113 0.006661424264447818
0006a0 a3 22 a4 51 0d 2d fb bf 0a b0 30 70 5d fc c8 bf
       -1.6984990300281104 -0.19520156839405473
0006b0 da 64 ae bd 14 a9 fa 3f c5 a8 20 d9 0b 41 f8 3f
       1.6662795457289605 1.51588043990573
0006c0 a7 f3 95 fd 17 4d f7 bf a8 14 90 96 83 1f f2 3f
       -1.4563217073148083 1.132693851600644
0006d0 69 df 3f 13 6c 3a f6 3f 45 16 aa a7 ee bf aa bf
       1.3892632247861576 -0.052245576826902375
0006e0 e4 b1 ea 3f e1 70 d7 bf 76 11 e7 6d 59 c6 f4 bf
       -0.36626464120743507 -1.2984251301832876
0006f0 c6 64 96 25 1d 13 d2 3f 97 d7 98 9c 9f 6f f2 3f
       0.2824166171136081 1.1522518269607411
000700 85 82 c4 52 9a 88 fa 3f 2a 11 f9 b9 ce 13 f9 bf
       1.6583502991781256 -1.5673358215872875
000710 af 5c f8 83 2e 19 ec 3f 19 3e 55 be 16 a1 b2 3f
       0.8780739381353636 0.07277052065659752
000720 ee 28 ef 76 e1 06 e0 bf a9 3c 87 89 0c d1 f1 3f
       -0.5008399317678405 1.1135373470495245
000730 5f ea ea 25 e7 ea d1 bf 2b 45 25 8a 11 d4 f9 3f
       -0.2799623365678254 1.6142745395957927
000740 65 d0 8d 06 64 7b c4 3f 3f 90 e4 d7 a5 e3 ce 3f
       0.16001558609025604 0.24132226030008216
000750 cf 30 e5 57 3e de f2 3f ae d0 e5 59 67 71 f6 3f
       1.1792586739930362 1.402686453974677
000760 01 f4 d4 c5 91 2b e7 bf 5d 69 ff f9 5b 31 fa bf
       -0.7240685333159719 -1.6370506063018049
000770 4b 2a 2e d3 ea a5 e2 3f e8 62 66 80 a8 59 f5 3f
       0.5827535748115421 1.334389211237232
000780 99 2f b3 20 76 0e f6 3f ad 2c 04 3d f3 18 ea bf
       1.378530624136124 -0.815545672581171
000790 5b b4 6f a4 2f 19 f3 bf f9 24 55 1d 44 c7 df 3f
       -1.1936489508909947 0.4965372358752372
0007a0 ff a0 a9 7c e3 58 f4 3f 49 c6 ef a9 e1 3d ec 3f
       1.2717013234742465 0.8825538939547154
0007b0 bf c2 62 41 ad a6 ed 3f de 84 ef 3a 4a 53 f0 3f
       0.9265962864938827 1.0203344633267117
0007c0 e4 5c 05 2f c0 68 d1 3f 34 73 bc e2 38 3c c0 3f
       0.27201847640885846 0.12683783598995435
0007d0 60 bb 55 4a e1 78 d1 3f 62 15 f0 81 d0 ce e1 bf
       0.27300293216005933 -0.5564959085319681
0007e0 f6 5f b5 7d e0 64 df bf cd ae 86 c0 f1 63 ad bf
       -0.49053203846187843 -0.05740313983127763
0007f0 0d a1 03 77 95 31 e8 bf 4c a3 b8 a0 89 ae f6 3f
       -0.7560527157302502 1.4176117208646302

lstm.weight_hh_l0 f8 [256, 64]
000000 0b 2f bc 99 66 03 c2 bf 8e 9c 01 d5 e7 c1 8a 3f
       -0.1407287836703904 0.0130651580695498
000010 cb 28 f9 cb bc 59 a6 bf 38 7a c5 ac 62 f1 cc bf
       -0.04365339269550502 -0.22611649929145172
000020 30 a5 cf 31 fd 62 d0 bf 62 21 86 2c 59 5d c1 3f
       -0.2560418116032279 0.13566126512547344
000030 2e f7 40 b9 04 c9 a7 3f 74 92 8c 75 05 00 cb 3f
       0.04645552407644825 0.2109381507845175
000040 89 97 c4 4a e4 8e cf 3f 1e 6b de de 9c 6f be 3f
       0.24654821062830148 0.11889057580121373
000050 70 36 06 f8 01 16 84 3f 5d 5b 51 ad dc 4a d3 bf
       0.009807601338958721 -0.3014442150646824
000060 eb 80 56 69 a0 89 b8 3f 84 3e 72 00 b9 45 c3 3f
       0.0958500153706187 0.1505652668170009
000070 ab 39 89 b2 de 0e b9 3f 32 76 a7 d6 0a f2 c8 3f
       0.09788314684667536 0.19488654595527205
000080 b0 46 0c 1e 16 2a d3 3f 20 75 32 a1 19 69 9d bf
       0.29944374975557775 -0.02872123762482659
000090 7b 9c 44 e9 0a e0 b9 3f 3d fb 5d 2a 74 d3 8b bf
       0.1010748691083893 -0.013586909811918008
0000a0 4d d5 5f fd c9 58 ce bf 30 29 f8 51 fe 8f d0 3f
       -0.23708462592882498 0.2587886620027744
0000b0 4a e2 08 f2 a2 38 62 3f 65 35 d7 0a fc c7 b2 bf
       0.00222427201540779 -0.07336402191795839
0000c0 48 bb ec a5 d1 d4 ca bf 60 c3 e2 f8 df 2c d1 bf
       -0.20961971856874073 -0.2683639460110978
0000d0 29 77 b6 44 18 98 bc 3f 38 ea 3f 8a f6 5f ca 3f
       0.11169578244740976 0.2060535597846227
0000e0 e3 e1 c4 c2 45 b8 c5 3f 4b ff d5 7e 6d a1 cb 3f
       0.1696860505123957 0.21586388295326694
0000f0 cc e1 42 74 6c dd 9b bf ad 4b 45 45 03 7a cf bf
       -0.027211851688407937 -0.24591103441579545
000100 63 ca 8c 9e 2d fb 70 3f f9 24 c1 08 f5 8b ab bf
       0.004145792198687023 -0.053802163427983225
000110 36 c4 dd 2e f4 b4 b1 3f f0 35 84 66 cb 74 bc 3f
       0.06916738647648021 0.11115714314310998
000120 ee ca 4b 57 f4 5d bf bf f3 b3 d3 86 c2 08 cd 3f
       -0.12252738124133675 0.22682983001087073
000130 50 c5 d6 2d 31 a3 c1 3f 2d 19 99 69 6d 94 ba 3f
       0.13779272783498664 0.10382732227399023
000140 d4 99 58 3b ca 55 ce bf 5a 9d da 00 a4 17 c4 bf
       -0.2369931020522943 -0.15697145501801907
000150 44 fd 99 53 01 45 bf bf c0 33 87 ec 31 7c af bf
       -0.12214668551495317 -0.06149440777117077
000160 e1 63 c5 85 d4 66 d0 bf d5 f2 ca ce dd 68 d3 bf
       -0.25627625526027314 -0.3032755393467544
000170 63 81 cb e1 21 eb d0 bf 03 1b 75 d0 0d 96 d3 3f
       -0.26435133981978803 0.3060335670201512
000180 de 90 56 4a 89 8c ac bf 25 36 0a a8 f6 c0 87 bf
       -0.05575970680664154 -0.011598517420931273
000190 65 1d 31 50 86 71 d3 3f f0 cf 88 b5 64 d8 cb bf
       0.30380399543033426 -0.21754130233750812
0001a0 d3 b4 aa 7f d5 46 d1 bf c8 ff cf 76 db 15 b0 bf
       -0.2699483629938417 -0.06283351565070838
0001b0 1c 0b 24 52 ea 0b c4 bf 79 c3 5e f5 26 47 d2 3f
       -0.156613626582918 0.2855927845185345
0001c0 78 a8 75 9a 2e cf b3 bf fc 3b 0a 50 38 0b c0 bf
       -0.07738009711252569 -0.12534240635110894
0001d0 c0 c4 d9 62 dd ec 83 bf 2b 16 9b d2 dc 73 d1 bf
       -0.009729127482588473 -0.27269669119809475
0001e0 c4 ec 8b b4 a3 48 c2 bf bc 72 8a 3b 7e 7c ca bf
       -0.14284178081275034 -0.20692422778383512
0001f0 5e 78 23 be 98 8a cb 3f e4 c7 c3 25 85 e4 c1 3f
       0.2151671341334262 0.13978638023360113
000200 66 de cb eb c9 bc cf bf c5 ef be 45 86 c3 a7 3f
       -0.2479488755559373 0.04641360856427882
000210 f6 2a 8d 3f 1e 96 a8 bf 42 d7 8c b2 86 5c cd 3f
       -0.048020310647720096 0.22938617437619696
000220 d0 95 c4 37 5b 38 ce bf c8 ce b4 23 28 ff b9 bf
       -0.23609485838930633 -0.10154963371024472
000230 41 59 6e 6b 56 0a ad 3f 21 c1 68 89 04 2c cc 3f
       0.05671949445165803 0.22009331426080173
000240 c0 2a d4 c2 10 39 c8 bf 66 b7 d5 5f a3 a5 cc 3f
       -0.18924150002597706 0.22380487613139194
000250 4d 27 b7 34 9f 46 86 bf 4b 93 91 c9 bb df d1 3f
       -0.010876888080833114 0.2792806118434796
000260 86 db de 84 05 07 c2 3f cc 1f 7b f5 b4 ef cd bf
       0.14083928096598813 -0.23387777315497116
000270 49 3d 64 9e 3f 49 cb 3f 14 15 28 b8 bb af b5 3f
       0.2131728671451845 0.0847127270318036
000280 5d 58 c9 22 5b 42 cd 3f a5 90 9d 1c d1 6d cc bf
       0.22858752440032762 -0.22210134408226626
000290 c0 5b ef e3 9f 09 9f bf a0 db 98 10 15 97 c9 bf
       -0.030310152327583273 -0.19992316542058308
0002a0 17 40 24 6d d5 34 c9 3f 83 2e 17 34 1a 81 bf 3f
       0.19692485646419364 0.12306369563810375
0002b0 ff ff 47 2c f2 c9 cb bf 13 5b 0a 73 31 de a5 3f
       -0.21710040247126014 0.04271082429220576
0002c0 8f 4b ac 60 e6 94 ba bf fd 0b a6 e3 07 ef c2 bf
       -0.10383453235799166 -0.1479196416440515
0002d0 e7 f5 60 ee df 0f ce 3f 51 d2 ec 25 c0 1e b8 3f
       0.23485945834720143 0.09421921659379363
0002e0 c8 9f 56 5d 3d f3 a3 bf 1a cc 66 79 c3 c3 cb bf
       -0.03896514667877643 -0.21691173007784031
0002f0 c0 8b 26 ce 5f 81 c5 3f 78 f8 2b 23 bc 2a c8 3f
       0.1680106884569721 0.18880416600581262
000300 ae c6 5e f1 dd f2 b6 bf 78 ac 22 05 43 fe c4 3f
       -0.08964335577800384 0.16400945425752744
000310 94 6c 37 58 99 81 cb bf e4 58 0d 16 d9 95 bd bf
       -0.21489254767843546 -0.11556774891264215
000320 65 4b 37 35 34 69 a3 3f d2 55 78 f8 37 f3 d0 bf
       0.0379120173417025 -0.2648448873963761
000330 48 d8 c3 e9 bd 04 c3 3f df f0 e2 d8 a8 57 b4 3f
       0.14858220972354474 0.07946257872658034
000340 77 c6 90 b9 1b 56 c5 bf 97 f9 68 ba da 79 d0 3f
       -0.16669031678025067 0.2574374027643897
000350 ae 1d a2 de ff ff d2 bf ed e1 7f eb 4e 1d d1 bf
       -0.2968749689248068 -0.26741383550645886
000360 ea 16 6d 3f 69 7d bc bf 34 bb 5c ea f2 a3 ca bf
       -0.1112886218880608 -0.2081283230158647
000370 ba 2a c3 6a 3d f8 bd bf 56 0f aa a5 d0 9d 92 bf
       -0.11706909042838279 -0.018180141555162642
000380 90 d2 1e a4 2c 69 cc 3f 79 c4 8c 50 86 06 d0 3f
       0.22195966733638217 0.25039823404501466
000390 e4 b9 92 2f 28 66 bc bf ae 96 cf 52 27 10 d0 bf
       -0.11093379174665291 -0.250985937948239
0003a0 b6 c7 13 94 e3 08 c4 bf fd 30 76 c8 55 e8 cb bf
       -0.15652127008757838 -0.2180278042618581
0003b0 12 72 20 d1 28 6e ab 3f d7 c4 e8 2a 1a a2 d2 bf
       0.053574824836889814 -0.2911439341579131
0003c0 fa 05 3d a8 04 9f c9 3f c9 e4 f0 07 72 b1 ce 3f
       0.2001653501011303 0.23979020488494587
0003d0 a1 29 7a 4e f6 3e bb 3f e0 10 d1 2c 04 66 c8 bf
       0.1064294759363862 -0.19061329067529353
0003e0 9b ff a0 46 d5 b3 87 3f 83 33 33 01 e1 9b be bf
       0.01157347318451212 -0.11956602362915984
0003f0 b2 85 90 62 e6 2c 90 bf fc 8c 85 69 34 3a 8b 3f
       -0.01579627968397341 0.013294610471979322
000400 c1 a9 05 e9 37 1e be 3f 42 cc c2 04 62 82 b9 bf
       0.11764859618202818 -0.0996457349418032
000410 8f 70 a1 b1 a5 33 c0 3f cd d9 0d b3 90 82 cc bf
       0.1265761487328558 -0.22273453467251017
000420 69 1b 46 c4 c9 93 ce bf 21 8b eb aa ce cc ba bf
       -0.23888513644871104 -0.10468761132100869
000430 0c 08 ff fd 8d 01 bb 3f 2f d4 00 4f 2a f7 cb bf
       0.10549247218207841 -0.21848038537578549
000440 0b 9f 89 65 69 48 b8 bf 18 54 76 f3 be 56 ca 3f
       -0.09485491494126223 0.20577227485469574
000450 7e e7 8a 22 57 ca 97 3f 3c da 8d 6e 7a d7 c7 3f
       0.02323280475932376 0.18626337431096995
000460 0b 77 5a a6 c4 4d d3 3f c8 4f ee fe 64 88 a9 3f
       0.3016215920014111 0.0498687325663521
000470 d8 c5 a2 a0 2c e3 b4 bf 95 44 ea 51 66 71 d0 3f
       -0.08159140512250163 0.25692136764070855
000480 3d 25 82 6b ba e0 c4 bf 9e a9 72 0c e7 fb d2 bf
       -0.1631081604903474 -0.29662491050353335
000490 c8 b4 7b d7 1f c7 c9 bf e5 43 b1 0b c3 1e a6 bf
       -0.20138929387704807 -0.04320344464998253
0004a0 f1 71 3b 4e c0 2a d3 3f d7 b5 88 5f 41 a5 d2 3f
       0.2994843257891083 0.2913363869618854
0004b0 4c e9 38 b8 c9 dc c8 bf 43 bc 7c 2d bb 1e d2 3f
       -0.19423791403989765 0.2831256813250926
0004c0 a6 ad 44 39 1c 98 b5 3f e1 1f b7 26 14 87 b4 3f
       0.08435226820136296 0.08018613763044825
0004d0 47 43 c8 94 47 0e c8 bf 33 03 1f 08 d0 a2 b1 3f
       -0.18793577923545454 0.06889057348508913
0004e0 cb ce 25 1c 0b 0f aa 3f e9 ed 8d 68 28 d4 d0 bf
       0.050896022020337016 -0.26294908724204774
0004f0 3d 30 3a b9 9b 4b c4 bf 9c 6b d8 bf 38 f5 cd 3f
       -0.15855738205243766 0.23404607169581204
000500 04 f0 fa 9e 44 0d d2 3f 22 d4 49 14 b5 d4 be bf
       0.2820598175565012 -0.12043315644571398
000510 52 c0 9f cc 1c 80 c5 bf 93 3d 3c 82 2b 2d c8 bf
       -0.16797218314559587 -0.1888784776606199
000520 30 ff cc e4 11 66 c2 3f fe 9d 64 94 98 89 c2 3f
       0.14373992607033292 0.14482409711602878
000530 23 c8 b5 88 2e 00 9e 3f 82 8a 0c 12 f8 ed d1 3f
       0.029297568410989194 0.2801494766482976
000540 0f da ec fc ac 6e be bf 4e 50 ff 22 96 b1 b4 bf
       -0.11887627768451402 -0.08083475450922714
000550 d4 34 9d 89 52 f8 c2 3f ab 08 23 e9 54 47 a0 bf
       0.14820319861829623 -0.03179421754750086
000560 9a ea aa 69 0c 41 c0 3f 70 24 cc 4d 76 f0 ae 3f
       0.12698512229492992 0.060428330418354714
000570 d9 95 5b 1c 2b bb cf bf fd 36 1c 57 45 89 b4 bf
       -0.2478994263139345 -0.08021958710397921
000580 de 00 6b 58 2f 39 d3 bf 48 77 dc 11 46 63 ca 3f
       -0.3003652919251304 0.20615459320191065
000590 4a b4 aa d6 ff 99 d0 bf 69 1a 6e 45 bf 2d c7 3f
       -0.2593993755679703 0.1810835923208345
0005a0 a3 15 e2 f7 dc 88 c9 bf 00 0a 80 76 d1 ef cd bf
       -0.19948923209828448 -0.2338811710943247
0005b0 3c bf 1b 87 07 86 d3 bf e4 50 0f f3 94 66 c7 bf
       -0.3050555056970443 -0.18281804912715593
0005c0 a7 9a ec bf 15 87 b8 3f 57 39 e1 4b 95 3f b7 3f
       0.0958112329068209 0.09081395247014733
0005d0 91 e6 3f 5f 84 d8 a7 bf 85 b4 7d 1b 48 1c c2 3f
       -0.0465737692138194 0.14148808805785876
0005e0 18 29 a7 4c c3 83 d3 3f 50 e9 db 09 0d b5 8e bf
       0.3049171684803169 -0.014993764747022326
0005f0 67 55 77 9c 00 5b a3 3f e5 53 fa dd 60 de c0 3f
       0.037803668117400595 0.13178644980203483
000600 eb 09 f8 37 1a 8c c0 3f aa a5 74 e4 2a 90 d0 3f
       0.12927558644157897 0.25879928884622905
000610 38 2a c5 5f dc 16 b2 3f 38 bf 85 64 93 5d d1 3f
       0.07066132867945718 0.27133641068120395
000620 88 2f c0 59 fe 09 8b 3f 27 a1 01 f4 e2 6f a9 3f
       0.013202654947256823 0.049681751523907906
000630 37 2a 9d 4e 00 b4 a1 bf 31 99 93 9c 08 c0 d0 3f
       -0.034576425167490425 0.2617208031719143
000640 77 de ba 63 91 48 bf bf d2 28 bd 73 44 ad c9 bf
       -0.12220104870618252 -0.20060020114244154
000650 3e 3f 1a ef f7 55 d0 3f 6e 34 97 f4 1f be 96 3f
       0.2552471003518696 0.022209643653515014
000660 83 7a 98 26 63 b8 c6 bf b7 46 21 19 5c 08 b3 bf
       -0.17750205406715133 -0.07434630979084998
000670 66 e2 ca c5 76 ad cd 3f fe 20 9e 83 d2 ce bd bf
       0.2318561998161101 -0.11643710816690953
000680 1c 7d b4 e6 eb 47 d3 3f ad b5 7a 57 97 f0 c4 bf
       0.3012647393206451 -0.16359226008846176
000690 4a c5 f4 f1 78 f0 b8 bf 1a c7 b6 74 96 57 b6 3f
       -0.09741931826717579 0.08727398251974386
0006a0 80 9a 33 3f 47 95 b5 bf 66 8e 4f 2b d7 fa d1 bf
       -0.08430905621535523 -0.2809350893933015
0006b0 97 15 19 72 a1 59 ba bf 57 19 18 27 30 64 d0 3f
       -0.10293015513987878 0.2561149961260489
0006c0 89 1b 47 2f cd 11 a8 3f 4f 8f 22 c9 60 11 b5 3f
       0.04701081468697683 0.08229641829035227
0006d0 a7 d7 1a 37 2d a8 cb 3f e9 62 4e af 77 e4 a0 bf
       0.2160698432032266 -0.03299306883781645
0006e0 f6 92 0e c4 bb 0e b4 3f 14 59 65 7f 83 b0 c8 bf
       0.07834981476350919 -0.1928867694902655
0006f0 2e 49 ad 1a b9 50 cb 3f d5 51 fd 0d c5 0b aa bf
       0.2134009723909655 -0.05087104602594975
000700 da be c9 ef 59 d2 ce bf c7 ab 7a 3f 5a dd b6 bf
       -0.24079441269304064 -0.08931507158074146
000710 c3 36 af 77 01 8b a3 3f 3e 9b bd e3 bf 2d b4 3f
       0.0381699045752675 0.07882308301996674
000720 af b9 01 4a f1 be cc bf ca 3e 3f e1 aa 8d cd 3f
       -0.22457710374460535 0.23088584898368075
000730 44 3f 56 a8 7d cb d0 3f 3f 5b 3f ec db 06 83 bf
       0.26242009581709547 -0.009290426394654381
000740 6d 6e 60 15 87 c6 c1 bf 29 3f d9 2f 03 6b ad 3f
       -0.138871083677134 0.05745706519212341
000750 82 b6 a7 d7 b4 88 d2 bf 57 bd 18 04 50 02 ce bf
       -0.2895938974387279 -0.2344455738070603
000760 5e 2a 74 79 9d 0e c9 bf e0 c8 e9 07 e6 4e d2 bf
       -0.19575851850852904 -0.28606558583045505
000770 3e 4a 09 f8 70 41 ba bf dd 32 75 82 ca 47 cc 3f
       -0.10256105475972618 0.22094088907251477
000780 cd ed c7 29 98 da ce 3f 8b 70 db 54 8e 32 a6 3f
       0.24104597129904307 0.04335446153501817
000790 68 c4 4f 75 99 08 b6 bf 36 7c b4 b6 d9 53 c7 bf
       -0.0860687171368838 -0.18224641247886247
0007a0 e3 b1 2d a0 58 44 ad 3f ad 3a 7c 9f 27 f4 d0 3f
       0.05716206507972623 0.26490202498181753
0007b0 9c d5 af 17 13 e4 cd 3f c0 89 02 7c d6 f3 b9 3f
       0.233522783819052 0.10137692000947762
0007c0 13 d6 51 32 b5 4f cc bf 2e 09 24 c0 83 14 c2 3f
       -0.2211824889852073 0.14125105745194716
0007d0 a3 be ec 20 90 64 ce bf c6 95 1f d6 b4 ce cf 3f
       -0.23744393928199256 0.2484956784748375
0007e0 62 eb 5e 72 fa 93 9a bf b9 07 76 26 8e 7f c5 3f
       -0.02595511744560087 0.16795517805081575
0007f0 d2 05 26 44 5f 17 a1 bf a7 10 6a d5 5e 30 d2 bf
       -0.033381440228378204 -0.28420229760400634

lstm.bias_ih_l0 f8 [256]
000000 00 00 00 00 00 00 00 00 00 00 00 00 00 00 00 00
       0.0 0.0
000010 00 00 00 00 00 00 00 00 00 00 00 00 00 00 00 00
       0.0 0.0
000020 00 00 00 00 00 00 00 00 00 00 00 00 00 00 00 00
       0.0 0.0
000030 00 00 00 00 00 00 00 00 00 00 00 00 00 00 00 00
       0.0 0.0
000040 00 00 00 00 00 00 00 00 00 00 00 00 00 00 00 00
       0.0 0.0
000050 00 00 00 00 00 00 00 00 00 00 00 00 00 00 00 00
       0.0 0.0
000060 00 00 00 00 00 00 00 00 00 00 00 00 00 00 00 00
       0.0 0.0
000070 00 00 00 00 00 00 00 00 00 00 00 00 00 00 00 00
       0.0 0.0
000080 00 00 00 00 00 00 00 00 00 00 00 00 00 00 00 00
       0.0 0.0
000090 00 00 00 00 00 00 00 00 00 00 00 00 00 00 00 00
       0.0 0.0
0000a0 00 00 00 00 00 00 00 00 00 00 00 00 00 00 00 00
       0.0 0.0
0000b0 00 00 00 00 00 00 00 00 00 00 00 00 00 00 00 00
       0.0 0.0
0000c0 00 00 00 00 00 00 00 00 00 00 00 00 00 00 00 00
       0.0 0.0
0000d0 00 00 00 00 00 00 00 00 00 00 00 00 00 00 00 00
       0.0 0.0
0000e0 00 00 00 00 00 00 00 00 00 00 00 00 00 00 00 00
       0.0 0.0
0000f0 00 00 00 00 00 00 00 00 00 00 00 00 00 00 00 00
       0.0 0.0
000100 00 00 00 00 00 00 00 00 00 00 00 00 00 00 00 00
       0.0 0.0
000110 00 00 00 00 00 00 00 00 00 00 00 00 00 00 00 00
       0.0 0.0
000120 00 00 00 00 00 00 00 00 00 00 00 00 00 00 00 00
       0.0 0.0
000130 00 00 00 00 00 00 00 00 00 00 00 00 00 00 00 00
       0.0 0.0
000140 00 00 00 00 00 00 00 00 00 00 00 00 00 00 00 00
       0.0 0.0
000150 00 00 00 00 00 00 00 00 00 00 00 00 00 00 00 00
       0.0 0.0
000160 00 00 00 00 00 00 00 00 00 00 00 00 00 00 00 00
       0.0 0.0
000170 00 00 00 00 00 00 00 00 00 00 00 00 00 00 00 00
       0.0 0.0
000180 00 00 00 00 00 00 00 00 00 00 00 00 00 00 00 00
       0.0 0.0
000190 00 00 00 00 00 00 00 00 00 00 00 00 00 00 00 00
       0.0 0.0
0001a0 00 00 00 00 00 00 00 00 00 00 00 00 00 00 00 00
       0.0 0.0
0001b0 00 00 00 00 00 00 00 00 00 00 00 00 00 00 00 00
       0.0 0.0
0001c0 00 00 00 00 00 00 00 00 00 00 00 00 00 00 00 00
       0.0 0.0
0001d0 00 00 00 00 00 00 00 00 00 00 00 00 00 00 00 00
       0.0 0.0
0001e0 00 00 00 00 00 00 00 00 00 00 00 00 00 00 00 00
       0.0 0.0
0001f0 00 00 00 00 00 00 00 00 00 00 00 00 00 00 00 00
       0.0 0.0
000200 00 00 00 00 00 00 00 00 00 00 00 00 00 00 00 00
       0.0 0.0
000210 00 00 00 00 00 00 00 00 00 00 00 00 00 00 00 00
       0.0 0.0
000220 00 00 00 00 00 00 00 00 00 00 00 00 00 00 00 00
       0.0 0.0
000230 00 00 00 00 00 00 00 00 00 00 00 00 00 00 00 00
       0.0 0.0
000240 00 00 00 00 00 00 00 00 00 00 00 00 00 00 00 00
       0.0 0.0
000250 00 00 00 00 00 00 00 00 00 00 00 00 00 00 00 00
       0.0 0.0
000260 00 00 00 00 00 00 00 00 00 00 00 00 00 00 00 00
       0.0 0.0
000270 00 00 00 00 00 00 00 00 00 00 00 00 00 00 00 00
       0.0 0.0
000280 00 00 00 00 00 00 00 00 00 00 00 00 00 00 00 00
       0.0 0.0
000290 00 00 00 00 00 00 00 00 00 00 00 00 00 00 00 00
       0.0 0.0
0002a0 00 00 00 00 00 00 00 00 00 00 00 00 00 00 00 00
       0.0 0.0
0002b0 00 00 00 00 00 00 00 00 00 00 00 00 00 00 00 00
       0.0 0.0
0002c0 00 00 00 00 00 00 00 00 00 00 00 00 00 00 00 00
       0.0 0.0
0002d0 00 00 00 00 00 00 00 00 00 00 00 00 00 00 00 00
       0.0 0.0
0002e0 00 00 00 00 00 00 00 00 00 00 00 00 00 00 00 00
       0.0 0.0
0002f0 00 00 00 00 00 00 00 00 00 00 00 00 00 00 00 00
       0.0 0.0
000300 00 00 00 00 00 00 00 00 00 00 00 00 00 00 00 00
       0.0 0.0
000310 00 00 00 00 00 00 00 00 00 00 00 00 00 00 00 00
       0.0 0.0
000320 00 00 00 00 00 00 00 00 00 00 00 00 00 00 00 00
       0.0 0.0
000330 00 00 00 00 00 00 00 00 00 00 00 00 00 00 00 00
       0.0 0.0
000340 00 00 00 00 00 00 00 00 00 00 00 00 00 00 00 00
       0.0 0.0
000350 00 00 00 00 00 00 00 00 00 00 00 00 00 00 00 00
       0.0 0.0
000360 00 00 00 00 00 00 00 00 00 00 00 00 00 00 00 00
       0.0 0.0
000370 00 00 00 00 00 00 00 00 00 00 00 00 00 00 00 00
       0.0 0.0
000380 00 00 00 00 00 00 00 00 00 00 00 00 00 00 00 00
       0.0 0.0
000390 00 00 00 00 00 00 00 00 00 00 00 00 00 00 00 00
       0.0 0.0
0003a0 00 00 00 00 00 00 00 00 00 00 00 00 00 00 00 00
       0.0 0.0
0003b0 00 00 00 00 00 00 00 00 00 00 00 00 00 00 00 00
       0.0 0.0
0003c0 00 00 00 00 00 00 00 00 00 00 00 00 00 00 00 00
       0.0 0.0
0003d0 00 00 00 00 00 00 00 00 00 00 00 00 00 00 00 00
       0.0 0.0
0003e0 00 00 00 00 00 00 00 00 00 00 00 00 00 00 00 00
       0.0 0.0
0003f0 00 00 00 00 00 00 00 00 00 00 00 00 00 00 00 00
       0.0 0.0
000400 00 00 00 00 00 00 00 00 00 00 00 00 00 00 00 00
       0.0 0.0
000410 00 00 00 00 00 00 00 00 00 00 00 00 00 00 00 00
       0.0 0.0
000420 00 00 00 00 00 00 00 00 00 00 00 00 00 00 00 00
       0.0 0.0
000430 00 00 00 00 00 00 00 00 00 00 00 00 00 00 00 00
       0.0 0.0
000440 00 00 00 00 00 00 00 00 00 00 00 00 00 00 00 00
       0.0 0.0
000450 00 00 00 00 00 00 00 00 00 00 00 00 00 00 00 00
       0.0 0.0
000460 00 00 00 00 00 00 00 00 00 00 00 00 00 00 00 00
       0.0 0.0
000470 00 00 00 00 00 00 00 00 00 00 00 00 00 00 00 00
       0.0 0.0
000480 00 00 00 00 00 00 00 00 00 00 00 00 00 00 00 00
       0.0 0.0
000490 00 00 00 00 00 00 00 00 00 00 00 00 00 00 00 00
       0.0 0.0
0004a0 00 00 00 00 00 00 00 00 00 00 00 00 00 00 00 00
       0.0 0.0
0004b0 00 00 00 00 00 00 00 00 00 00 00 00 00 00 00 00
       0.0 0.0
0004c0 00 00 00 00 00 00 00 00 00 00 00 00 00 00 00 00
       0.0 0.0
0004d0 00 00 00 00 00 00 00 00 00 00 00 00 00 00 00 00
       0.0 0.0
0004e0 00 00 00 00 00 00 00 00 00 00 00 00 00 00 00 00
       0.0 0.0
0004f0 00 00 00 00 00 00 00 00 00 00 00 00 00 00 00 00
       0.0 0.0
000500 00 00 00 00 00 00 00 00 00 00 00 00 00 00 00 00
       0.0 0.0
000510 00 00 00 00 00 00 00 00 00 00 00 00 00 00 00 00
       0.0 0.0
000520 00 00 00 00 00 00 00 00 00 00 00 00 00 00 00 00
       0.0 0.0
000530 00 00 00 00 00 00 00 00 00 00 00 00 00 00 00 00
       0.0 0.0
000540 00 00 00 00 00 00 00 00 00 00 00 00 00 00 00 00
       0.0 0.0
000550 00 00 00 00 00 00 00 00 00 00 00 00 00 00 00 00
       0.0 0.0
000560 00 00 00 00 00 00 00 00 00 00 00 00 00 00 00 00
       0.0 0.0
000570 00 00 00 00 00 00 00 00 00 00 00 00 00 00 00 00
       0.0 0.0
000580 00 00 00 00 00 00 00 00 00 00 00 00 00 00 00 00
       0.0 0.0
000590 00 00 00 00 00 00 00 00 00 00 00 00 00 00 00 00
       0.0 0.0
0005a0 00 00 00 00 00 00 00 00 00 00 00 00 00 00 00 00
       0.0 0.0
0005b0 00 00 00 00 00 00 00 00 00 00 00 00 00 00 00 00
       0.0 0.0
0005c0 00 00 00 00 00 00 00 00 00 00 00 00 00 00 00 00
       0.0 0.0
0005d0 00 00 00 00 00 00 00 00 00 00 00 00 00 00 00 00
       0.0 0.0
0005e0 00 00 00 00 00 00 00 00 00 00 00 00 00 00 00 00
       0.0 0.0
0005f0 00 00 00 00 00 00 00 00 00 00 00 00 00 00 00 00
       0.0 0.0
000600 00 00 00 00 00 00 00 00 00 00 00 00 00 00 00 00
       0.0 0.0
000610 00 00 00 00 00 00 00 00 00 00 00 00 00 00 00 00
       0.0 0.0
000620 00 00 00 00 00 00 00 00 00 00 00 00 00 00 00 00
       0.0 0.0
000630 00 00 00 00 00 00 00 00 00 00 00 00 00 00 00 00
       0.0 0.0
000640 00 00 00 00 00 00 00 00 00 00 00 00 00 00 00 00
       0.0 0.0
000650 00 00 00 00 00 00 00 00 00 00 00 00 00 00 00 00
       0.0 0.0
000660 00 00 00 00 00 00 00 00 00 00 00 00 00 00 00 00
       0.0 0.0
000670 00 00 00 00 00 00 00 00 00 00 00 00 00 00 00 00
       0.0 0.0
000680 00 00 00 00 00 00 00 00 00 00 00 00 00 00 00 00
       0.0 0.0
000690 00 00 00 00 00 00 00 00 00 00 00 00 00 00 00 00
       0.0 0.0
0006a0 00 00 00 00 00 00 00 00 00 00 00 00 00 00 00 00
       0.0 0.0
0006b0 00 00 00 00 00 00 00 00 00 00 00 00 00 00 00 00
       0.0 0.0
0006c0 00 00 00 00 00 00 00 00 00 00 00 00 00 00 00 00
       0.0 0.0
0006d0 00 00 00 00 00 00 00 00 00 00 00 00 00 00 00 00
       0.0 0.0
0006e0 00 00 00 00 00 00 00 00 00 00 00 00 00 00 00 00
       0.0 0.0
0006f0 00 00 00 00 00 00 00 00 00 00 00 00 00 00 00 00
       0.0 0.0
000700 00 00 00 00 00 00 00 00 00 00 00 00 00 00 00 00
       0.0 0.0
000710 00 00 00 00 00 00 00 00 00 00 00 00 00 00 00 00
       0.0 0.0
000720 00 00 00 00 00 00 00 00 00 00 00 00 00 00 00 00
       0.0 0.0
000730 00 00 00 00 00 00 00 00 00 00 00 00 00 00 00 00
       0.0 0.0
000740 00 00 00 00 00 00 00 00 00 00 00 00 00 00 00 00
       0.0 0.0
000750 00 00 00 00 00 00 00 00 00 00 00 00 00 00 00 00
       0.0 0.0
000760 00 00 00 00 00 00 00 00 00 00 00 00 00 00 00 00
       0.0 0.0
000770 00 00 00 00 00 00 00 00 00 00 00 00 00 00 00 00
       0.0 0.0
000780 00 00 00 00 00 00 00 00 00 00 00 00 00 00 00 00
       0.0 0.0
000790 00 00 00 00 00 00 00 00 00 00 00 00 00 00 00 00
       0.0 0.0
0007a0 00 00 00 00 00 00 00 00 00 00 00 00 00 00 00 00
       0.0 0.0
0007b0 00 00 00 00 00 00 00 00 00 00 00 00 00 00 00 00
       0.0 0.0
0007c0 00 00 00 00 00 00 00 00 00 00 00 00 00 00 00 00
       0.0 0.0
0007d0 00 00 00 00 00 00 00 00 00 00 00 00 00 00 00 00
       0.0 0.0
0007e0 00 00 00 00 00 00 00 00 00 00 00 00 00 00 00 00
       0.0 0.0
0007f0 00 00 00 00 00 00 00 00 00 00 00 00 00 00 00 00
       0.0 0.0

lstm.bias_hh_l0 f8 [256]
000000 00 00 00 00 00 00 00 00 00 00 00 00 00 00 00 00
       0.0 0.0
000010 00 00 00 00 00 00 00 00 00 00 00 00 00 00 00 00
       0.0 0.0
000020 00 00 00 00 00 00 00 00 00 00 00 00 00 00 00 00
       0.0 0.0
000030 00 00 00 00 00 00 00 00 00 00 00 00 00 00 00 00
       0.0 0.0
000040 00 00 00 00 00 00 00 00 00 00 00 00 00 00 00 00
       0.0 0.0
000050 00 00 00 00 00 00 00 00 00 00 00 00 00 00 00 00
       0.0 0.0
000060 00 00 00 00 00 00 00 00 00 00 00 00 00 00 00 00
       0.0 0.0
000070 00 00 00 00 00 00 00 00 00 00 00 00 00 00 00 00
       0.0 0.0
000080 00 00 00 00 00 00 00 00 00 00 00 00 00 00 00 00
       0.0 0.0
000090 00 00 00 00 00 00 00 00 00 00 00 00 00 00 00 00
       0.0 0.0
0000a0 00 00 00 00 00 00 00 00 00 00 00 00 00 00 00 00
       0.0 0.0
0000b0 00 00 00 00 00 00 00 00 00 00 00 00 00 00 00 00
       0.0 0.0
0000c0 00 00 00 00 00 00 00 00 00 00 00 00 00 00 00 00
       0.0 0.0
0000d0 00 00 00 00 00 00 00 00 00 00 00 00 00 00 00 00
       0.0 0.0
0000e0 00 00 00 00 00 00 00 00 00 00 00 00 00 00 00 00
       0.0 0.0
0000f0 00 00 00 00 00 00 00 00 00 00 00 00 00 00 00 00
       0.0 0.0
000100 00 00 00 00 00 00 00 00 00 00 00 00 00 00 00 00
       0.0 0.0
000110 00 00 00 00 00 00 00 00 00 00 00 00 00 00 00 00
       0.0 0.0
000120 00 00 00 00 00 00 00 00 00 00 00 00 00 00 00 00
       0.0 0.0
000130 00 00 00 00 00 00 00 00 00 00 00 00 00 00 00 00
       0.0 0.0
000140 00 00 00 00 00 00 00 00 00 00 00 00 00 00 00 00
       0.0 0.0
000150 00 00 00 00 00 00 00 00 00 00 00 00 00 00 00 00
       0.0 0.0
000160 00 00 00 00 00 00 00 00 00 00 00 00 00 00 00 00
       0.0 0.0
000170 00 00 00 00 00 00 00 00 00 00 00 00 00 00 00 00
       0.0 0.0
000180 00 00 00 00 00 00 00 00 00 00 00 00 00 00 00 00
       0.0 0.0
000190 00 00 00 00 00 00 00 00 00 00 00 00 00 00 00 00
       0.0 0.0
0001a0 00 00 00 00 00 00 00 00 00 00 00 00 00 00 00 00
       0.0 0.0
0001b0 00 00 00 00 00 00 00 00 00 00 00 00 00 00 00 00
       0.0 0.0
0001c0 00 00 00 00 00 00 00 00 00 00 00 00 00 00 00 00
       0.0 0.0
0001d0 00 00 00 00 00 00 00 00 00 00 00 00 00 00 00 00
       0.0 0.0
0001e0 00 00 00 00 00 00 00 00 00 00 00 00 00 00 00 00
       0.0 0.0
0001f0 00 00 00 00 00 00 00 00 00 00 00 00 00 00 00 00
       0.0 0.0
000200 00 00 00 00 00 00 00 00 00 00 00 00 00 00 00 00
       0.0 0.0
000210 00 00 00 00 00 00 00 00 00 00 00 00 00 00 00 00
       0.0 0.0
000220 00 00 00 00 00 00 00 00 00 00 00 00 00 00 00 00
       0.0 0.0
000230 00 00 00 00 00 00 00 00 00 00 00 00 00 00 00 00
       0.0 0.0
000240 00 00 00 00 00 00 00 00 00 00 00 00 00 00 00 00
       0.0 0.0
000250 00 00 00 00 00 00 00 00 00 00 00 00 00 00 00 00
       0.0 0.0
000260 00 00 00 00 00 00 00 00 00 00 00 00 00 00 00 00
       0.0 0.0
000270 00 00 00 00 00 00 00 00 00 00 00 00 00 00 00 00
       0.0 0.0
000280 00 00 00 00 00 00 00 00 00 00 00 00 00 00 00 00
       0.0 0.0
000290 00 00 00 00 00 00 00 00 00 00 00 00 00 00 00 00
       0.0 0.0
0002a0 00 00 00 00 00 00 00 00 00 00 00 00 00 00 00 00
       0.0 0.0
0002b0 00 00 00 00 00 00 00 00 00 00 00 00 00 00 00 00
       0.0 0.0
0002c0 00 00 00 00 00 00 00 00 00 00 00 00 00 00 00 00
       0.0 0.0
0002d0 00 00 00 00 00 00 00 00 00 00 00 00 00 00 00 00
       0.0 0.0
0002e0 00 00 00 00 00 00 00 00 00 00 00 00 00 00 00 00
       0.0 0.0
0002f0 00 00 00 00 00 00 00 00 00 00 00 00 00 00 00 00
       0.0 0.0
000300 00 00 00 00 00 00 00 00 00 00 00 00 00 00 00 00
       0.0 0.0
000310 00 00 00 00 00 00 00 00 00 00 00 00 00 00 00 00
       0.0 0.0
000320 00 00 00 00 00 00 00 00 00 00 00 00 00 00 00 00
       0.0 0.0
000330 00 00 00 00 00 00 00 00 00 00 00 00 00 00 00 00
       0.0 0.0
000340 00 00 00 00 00 00 00 00 00 00 00 00 00 00 00 00
       0.0 0.0
000350 00 00 00 00 00 00 00 00 00 00 00 00 00 00 00 00
       0.0 0.0
000360 00 00 00 00 00 00 00 00 00 00 00 00 00 00 00 00
       0.0 0.0
000370 00 00 00 00 00 00 00 00 00 00 00 00 00 00 00 00
       0.0 0.0
000380 00 00 00 00 00 00 00 00 00 00 00 00 00 00 00 00
       0.0 0.0
000390 00 00 00 00 00 00 00 00 00 00 00 00 00 00 00 00
       0.0 0.0
0003a0 00 00 00 00 00 00 00 00 00 00 00 00 00 00 00 00
       0.0 0.0
0003b0 00 00 00 00 00 00 00 00 00 00 00 00 00 00 00 00
       0.0 0.0
0003c0 00 00 00 00 00 00 00 00 00 00 00 00 00 00 00 00
       0.0 0.0
0003d0 00 00 00 00 00 00 00 00 00 00 00 00 00 00 00 00
       0.0 0.0
0003e0 00 00 00 00 00 00 00 00 00 00 00 00 00 00 00 00
       0.0 0.0
0003f0 00 00 00 00 00 00 00 00 00 00 00 00 00 00 00 00
       0.0 0.0
000400 00 00 00 00 00 00 00 00 00 00 00 00 00 00 00 00
       0.0 0.0
000410 00 00 00 00 00 00 00 00 00 00 00 00 00 00 00 00
       0.0 0.0
000420 00 00 00 00 00 00 00 00 00 00 00 00 00 00 00 00
       0.0 0.0
000430 00 00 00 00 00 00 00 00 00 00 00 00 00 00 00 00
       0.0 0.0
000440 00 00 00 00 00 00 00 00 00 00 00 00 00 00 00 00
       0.0 0.0
000450 00 00 00 00 00 00 00 00 00 00 00 00 00 00 00 00
       0.0 0.0
000460 00 00 00 00 00 00 00 00 00 00 00 00 00 00 00 00
       0.0 0.0
000470 00 00 00 00 00 00 00 00 00 00 00 00 00 00 00 00
       0.0 0.0
000480 00 00 00 00 00 00 00 00 00 00 00 00 00 00 00 00
       0.0 0.0
000490 00 00 00 00 00 00 00 00 00 00 00 00 00 00 00 00
       0.0 0.0
0004a0 00 00 00 00 00 00 00 00 00 00 00 00 00 00 00 00
       0.0 0.0
0004b0 00 00 00 00 00 00 00 00 00 00 00 00 00 00 00 00
       0.0 0.0
0004c0 00 00 00 00 00 00 00 00 00 00 00 00 00 00 00 00
       0.0 0.0
0004d0 00 00 00 00 00 00 00 00 00 00 00 00 00 00 00 00
       0.0 0.0
0004e0 00 00 00 00 00 00 00 00 00 00 00 00 00 00 00 00
       0.0 0.0
0004f0 00 00 00 00 00 00 00 00 00 00 00 00 00 00 00 00
       0.0 0.0
000500 00 00 00 00 00 00 00 00 00 00 00 00 00 00 00 00
       0.0 0.0
000510 00 00 00 00 00 00 00 00 00 00 00 00 00 00 00 00
       0.0 0.0
000520 00 00 00 00 00 00 00 00 00 00 00 00 00 00 00 00
       0.0 0.0
000530 00 00 00 00 00 00 00 00 00 00 00 00 00 00 00 00
       0.0 0.0
000540 00 00 00 00 00 00 00 00 00 00 00 00 00 00 00 00
       0.0 0.0
000550 00 00 00 00 00 00 00 00 00 00 00 00 00 00 00 00
       0.0 0.0
000560 00 00 00 00 00 00 00 00 00 00 00 00 00 00 00 00
       0.0 0.0
000570 00 00 00 00 00 00 00 00 00 00 00 00 00 00 00 00
       0.0 0.0
000580 00 00 00 00 00 00 00 00 00 00 00 00 00 00 00 00
       0.0 0.0
000590 00 00 00 00 00 00 00 00 00 00 00 00 00 00 00 00
       0.0 0.0
0005a0 00 00 00 00 00 00 00 00 00 00 00 00 00 00 00 00
       0.0 0.0
0005b0 00 00 00 00 00 00 00 00 00 00 00 00 00 00 00 00
       0.0 0.0
0005c0 00 00 00 00 00 00 00 00 00 00 00 00 00 00 00 00
       0.0 0.0
0005d0 00 00 00 00 00 00 00 00 00 00 00 00 00 00 00 00
       0.0 0.0
0005e0 00 00 00 00 00 00 00 00 00 00 00 00 00 00 00 00
       0.0 0.0
0005f0 00 00 00 00 00 00 00 00 00 00 00 00 00 00 00 00
       0.0 0.0
000600 00 00 00 00 00 00 00 00 00 00 00 00 00 00 00 00
       0.0 0.0
000610 00 00 00 00 00 00 00 00 00 00 00 00 00 00 00 00
       0.0 0.0
000620 00 00 00 00 00 00 00 00 00 00 00 00 00 00 00 00
       0.0 0.0
000630 00 00 00 00 00 00 00 00 00 00 00 00 00 00 00 00
       0.0 0.0
000640 00 00 00 00 00 00 00 00 00 00 00 00 00 00 00 00
       0.0 0.0
000650 00 00 00 00 00 00 00 00 00 00 00 00 00 00 00 00
       0.0 0.0
000660 00 00 00 00 00 00 00 00 00 00 00 00 00 00 00 00
       0.0 0.0
000670 00 00 00 00 00 00 00 00 00 00 00 00 00 00 00 00
       0.0 0.0
000680 00 00 00 00 00 00 00 00 00 00 00 00 00 00 00 00
       0.0 0.0
000690 00 00 00 00 00 00 00 00 00 00 00 00 00 00 00 00
       0.0 0.0
0006a0 00 00 00 00 00 00 00 00 00 00 00 00 00 00 00 00
       0.0 0.0
0006b0 00 00 00 00 00 00 00 00 00 00 00 00 00 00 00 00
       0.0 0.0
0006c0 00 00 00 00 00 00 00 00 00 00 00 00 00 00 00 00
       0.0 0.0
0006d0 00 00 00 00 00 00 00 00 00 00 00 00 00 00 00 00
       0.0 0.0
0006e0 00 00 00 00 00 00 00 00 00 00 00 00 00 00 00 00
       0.0 0.0
0006f0 00 00 00 00 00 00 00 00 00 00 00 00 00 00 00 00
       0.0 0.0
000700 00 00 00 00 00 00 00 00 00 00 00 00 00 00 00 00
       0.0 0.0
000710 00 00 00 00 00 00 00 00 00 00 00 00 00 00 00 00
       0.0 0.0
000720 00 00 00 00 00 00 00 00 00 00 00 00 00 00 00 00
       0.0 0.0
000730 00 00 00 00 00 00 00 00 00 00 00 00 00 00 00 00
       0.0 0.0
000740 00 00 00 00 00 00 00 00 00 00 00 00 00 00 00 00
       0.0 0.0
000750 00 00 00 00 00 00 00 00 00 00 00 00 00 00 00 00
       0.0 0.0
000760 00 00 00 00 00 00 00 00 00 00 00 00 00 00 00 00
       0.0 0.0
000770 00 00 00 00 00 00 00 00 00 00 00 00 00 00 00 00
       0.0 0.0
000780 00 00 00 00 00 00 00 00 00 00 00 00 00 00 00 00
       0.0 0.0
000790 00 00 00 00 00 00 00 00 00 00 00 00 00 00 00 00
       0.0 0.0
0007a0 00 00 00 00 00 00 00 00 00 00 00 00 00 00 00 00
       0.0 0.0
0007b0 00 00 00 00 00 00 00 00 00 00 00 00 00 00 00 00
       0.0 0.0
0007c0 00 00 00 00 00 00 00 00 00 00 00 00 00 00 00 00
       0.0 0.0
0007d0 00 00 00 00 00 00 00 00 00 00 00 00 00 00 00 00
       0.0 0.0
0007e0 00 00 00 00 00 00 00 00 00 00 00 00 00 00 00 00
       0.0 0.0
0007f0 00 00 00 00 00 00 00 00 00 00 00 00 00 00 00 00
       0.0 0.0
