isoform_quantification/models/Mili.pt (torch, 349768 bytes, 36 tensors)

lstm.weight_ih_l0 f8 [256, 2]
000000 b8 0c ca fd 55 01 9d bf 66 88 79 0b c5 c7 f5 bf
       -0.028325408568446092 -1.3612719009620604
000010 c9 27 d2 0c e3 5b f0 bf 88 2d 2d 2f 2f f1 e1 bf
       -1.0224333287064715 -0.5606914445319697
000020 d3 65 cf c7 02 5e 97 bf 83 13 fc c9 a5 26 ed 3f
       -0.02281956047577245 0.9109677262318744
000030 ea fd 85 78 3a 58 de bf c5 a9 6f c1 ee 45 a8 3f
       -0.47413503427375636 0.04740854369432016
000040 79 e4 f0 b8 8a 9f e3 3f 11 38 91 8d 33 e3 f2 bf
       0.6132253276947629 -1.1804690866442835
000050 a0 87 3b 0e 7d fe e9 3f 49 b2 cc 24 86 5b f4 bf
       0.8123154905299437 -1.2723447263225742
000060 07 ed 88 c9 14 2b e2 3f 72 2a 91 e6 10 18 c9 3f
       0.567758935568606 0.19604693658978395
000070 a2 b6 72 55 14 77 f8 bf da c7 4b 6c 17 df f5 3f
       -1.5290721261803033 1.3669656973183835
000080 b1 52 f2 a3 41 ec e2 bf 16 3a 44 5c 92 dc f9 bf
       -0.5913398935395745 -1.6163505176697348
000090 3a 99 82 09 d8 7a d6 bf 18 ad fb 84 3d 27 fb 3f
       -0.35124779633260383 1.6970801539089901
0000a0 23 e0 82 03 94 ac f9 3f 15 5d ce a5 87 a2 bf 3f
       1.6046333443791887 0.12357375905991248
0000b0 4b 34 3a 0a ad 27 bb bf 1a 2c 8a 24 47 bb da 3f
       -0.10607415675822655 0.4176805359681467
0000c0 5c ab a0 79 b4 f4 d7 3f 0b d1 90 6b 5f 4b fa bf
       0.3743106067437816 -1.643401546648479
0000d0 76 0e 8e c0 b0 0f c4 bf 27 89 2f 61 80 4f dc 3f
       -0.15672883417220235 0.4423523854330988
0000e0 98 49 22 5d b9 b3 eb bf 20 7b e5 83 c5 f8 ea bf
       -0.8656889742872407 -0.8428676200963743
0000f0 f8 64 3c e5 e1 71 d3 bf e8 14 f2 aa dd 5a f7 bf
       -0.303825830329131 -1.4596840550960284
000100 2b d4 46 ad 26 07 e3 3f ff cb eb 4a 8f a6 f8 bf
       0.5946229347524697 -1.540663998280024
000110 bb 09 47 0a 9a da c5 bf 17 92 fa 1a 13 f0 d1 3f
       -0.17073369504767108 0.28027799257896063
000120 67 ce f4 5a 9b d3 de 3f dd 2e 84 a0 93 e5 e7 bf
       0.48166545755814244 -0.7467744956097381
000130 ed a4 a4 fd c5 93 f6 bf 6e 77 ac 39 26 11 f3 bf
       -1.4110774906096666 -1.1916868451002887
000140 c6 8d de 98 19 8b fb 3f 0a f6 7e d5 3d 1a ed bf
       1.7214599582156196 -0.9094533128588307
000150 a3 80 5f b5 25 39 e6 3f 5c cc b4 35 89 48 eb bf
       0.6944759886209976 -0.8526044892263474
000160 84 8f 0c 53 fc 99 f9 bf 7a ef 46 13 34 a3 f3 3f
       -1.60009415093461 1.2273445847522155
000170 b5 ef 25 f0 c6 c9 a5 bf 92 c8 6f ea 4c 25 f5 3f
       -0.04255506211754271 1.3216065557176404
000180 cd 0c 49 80 73 54 e3 bf 16 0a 9a 73 61 92 f2 3f
       -0.6040589814732812 1.160737468308644
000190 4c 32 96 eb 71 c3 f9 3f 57 31 25 b2 ce 15 fa 3f
       1.6102160647016204 1.6303240736770783
0001a0 5b c5 f8 03 62 ec e2 bf 62 05 2f d1 56 0e fa bf
       -0.591355331189486 -1.6285007640111293
0001b0 77 91 55 3d 2d 20 f3 3f f1 81 83 e7 b6 4f f8 3f
       1.195355643832128 1.519461540556332
0001c0 a3 40 48 9f 0b 7c ec 3f 5c eb cf 34 d8 ea d1 3f
       0.890142260645025 0.2799587741607661
0001d0 07 d8 93 45 67 7e ce bf 28 0f 4b 11 a5 2f f4 bf
       -0.23823252580012896 -1.2616320300593973
0001e0 03 27 6f 72 22 3b f1 bf 47 42 a2 f7 e8 d4 e7 3f
       -1.076937148102332 0.7447399937246438
0001f0 8d 3a 5f 50 a2 fc e0 bf 7b c4 b0 e2 d3 a3 e8 3f
       -0.5308391160741209 0.7699984958218374
000200 01 76 03 72 9e 3b ac 3f 57 df 45 88 4d f9 ec 3f
       0.05514235631720155 0.9054324781018107
000210 da c7 70 c2 ce 94 fb bf d9 0d fb ec ba 83 ef bf
       -1.7238299937566723 -0.9848303440598399
000220 22 1d f7 bf 3d 10 fa 3f 85 d8 84 a5 a0 89 e5 bf
       1.6289651392597269 -0.6730502350608424
000230 7e f5 65 7a ab 5c f8 3f 63 df c1 d6 96 e7 d4 bf
       1.52262447177722 -0.32663508388895063
000240 83 89 97 6c 98 e5 ef bf 16 b2 c8 76 ae 26 f8 bf
       -0.9967767830788009 -1.509443725585816
000250 4b 23 e4 57 f0 43 fb 3f 0b 87 29 18 dd 50 e0 3f
       1.7040866311310363 0.5098710510175989
000260 2b 46 f4 60 15 c5 d8 bf d6 53 d5 b5 47 12 e2 bf
       -0.38702902286704227 -0.5647314597541662
000270 31 dc 7b 3c 15 1c ee 3f 50 d4 81 eb b2 24 ea 3f
       0.9409280949902322 0.816979846930403
000280 c1 25 5c a1 0e 82 f6 bf 70 8b 2b fe d0 1a f7 bf
       -1.40675223380309 -1.4440469673652068
000290 91 50 46 d0 6d 84 e1 bf e8 5e 66 2b 73 4b f6 bf
       -0.547415644442042 -1.3934203810985597
0002a0 a9 4a 01 f0 c4 20 c6 bf fd ad 6f 9d 08 76 fb 3f
       -0.1728750392818104 1.7163168096402608
0002b0 07 7c bf 85 ee 8e ee bf 18 6a c7 60 66 50 ce 3f
       -0.9549477207436902 0.2368286106637505
0002c0 38 af ad 02 8d c6 bd 3f 3c 18 d8 ac 9c d0 e1 bf
       0.1163108951129147 -0.556715333543941
0002d0 1f 31 ad 62 cb 60 f2 3f d8 eb 4b e8 44 91 bf 3f
       1.1486314634849533 0.12331038161566654
0002e0 77 d6 af 49 34 ce f3 3f 27 84 4c f5 81 d5 f7 3f
       1.237842834319421 1.489625890921397
0002f0 35 f3 9e b5 93 bd f2 3f 0c c0 b2 d0 ec 7c f0 bf
       1.171283444840083 -1.0304992821002115
000300 c1 28 67 a0 e7 30 f0 bf f5 ee fa 06 d8 2c f2 3f
       -1.0119396463147015 1.1359482071556475
000310 22 1c 87 93 35 23 ec bf e6 2f d6 19 05 d3 cb bf
       -0.8792980080987756 -0.217377317061959
000320 a9 3d 6a 78 a1 32 f2 3f d7 21 d2 e0 e6 e7 d2 3f
       1.1373610213957852 0.2954041667476565
000330 c7 fa b3 7c 14 34 f7 3f b8 a7 2b 32 04 50 ef 3f
       1.450214850541373 0.9785176257985233
000340 6c 19 6b ee 34 85 aa bf 6d 3a e0 83 3b ac d2 3f
       -0.05179753694897013 0.2917622363901618
000350 eb 79 fd 3f 98 1d f3 bf d9 54 e0 53 5b 73 d2 bf
       -1.1947252750029473 -0.28829081717533495
000360 bc 58 01 a3 58 66 db bf 9b 3e 64 c5 a7 1f e5 bf
       -0.42812171858293957 -0.6601141791633894
000370 cd ac 2a 11 70 b6 bb bf a4 4a f7 00 d6 0b ce bf
       -0.10825252932652348 -0.2347362045971596
000380 97 ff 57 e6 ef 92 d9 3f 67 0c 61 99 d5 28 f8 3f
       0.39959332937723374 1.509969329011051
000390 13 7f 08 c7 64 dd f8 bf 33 d0 d8 24 75 02 f7 bf
       -1.5540511870130487 -1.4380999984105187
0003a0 fd 5c 5a 15 81 a8 fb bf db 42 91 62 06 35 e1 bf
       -1.7286387285328708 -0.5377227711815878
0003b0 25 dd 84 ef e7 47 e0 3f d1 4b 50 b4 57 05 f0 bf
       0.5087775877099473 -1.001304344511244
0003c0 64 05 a3 27 93 2c c8 3f d2 73 25 fc 0b c4 f8 bf
       0.18886031566038775 -1.5478629922356402
0003d0 0e bd 97 92 7b 61 f5 bf c1 75 b9 80 4e df f1 bf
       -1.3362994886663873 -1.1170182255076357
0003e0 1a 29 d3 74 57 4c f5 3f d3 12 18 f9 11 f7 ef 3f
       1.3311380923719924 0.9989099373929896
0003f0 8f b8 87 16 9c a6 db 3f c7 59 5f fa 31 a6 f7 3f
       0.43204405021868636 1.4780750065016137
000400 5c dd bd 26 91 16 a6 bf 98 99 02 19 ff a6 f8 3f
       -0.04314092252655641 1.5407706238707757
000410 57 b3 d0 0d 6d b9 eb bf a3 97 1d 19 5e 99 d6 bf
       -0.8663850087956274 -0.3531108136434062
000420 e0 c2 44 18 4c 49 f1 bf 20 94 1b 39 c1 89 e7 bf
       -1.0803948352806216 -0.7355657687554675
000430 4e b6 28 f6 1d 06 f1 3f 44 91 ad 78 2c 96 b0 bf
       1.0639934173190286 -0.06479146906128103
000440 6b cd 1a 2f 95 bd e5 bf b9 cf ce 99 97 2e f1 bf
       -0.6793924255384075 -1.0738750465506952
000450 c6 cf 1a ea 23 9d d8 3f 83 90 40 4d fa dd f6 3f
       0.3845910822085411 1.4291937844909917
000460 fb 3f 09 55 77 d9 f5 3f 88 c9 f5 dc 96 2f f1 3f
       1.3655923196529318 1.0741184836630016
000470 c8 18 66 a4 a1 bf f5 3f cf 50 c8 0e 1b 06 e0 bf
       1.3592850133732544 -0.5007453240127918
000480 22 35 2e 35 99 33 d0 bf 0f 01 1a de 5a e4 ca 3f
       -0.2531493205395511 0.2100938400726666
000490 ed ef c5 91 0c 0d f7 3f ce 49 79 03 14 16 c1 3f
       1.4406858152642557 0.133486272522147
0004a0 28 c2 6e 0c f3 ab a9 3f 46 46 d5 72 83 c6 cd 3f
       0.05013999487653492 0.23262065035901197
0004b0 83 93 3b 10 7f 83 e7 3f e9 98 c2 b3 0e 98 f9 3f
       0.7348017994923882 1.5996233960991566
0004c0 8b 1c f9 05 bc 01 c2 bf c6 d2 3e 58 db 95 fa 3f
       -0.14067793170599815 1.661586136540039
0004d0 fd 0b c6 8c 85 00 df bf 50 cf 97 79 2a 9b ed 3f
       -0.4844068407766711 0.9251911520827694
0004e0 0f 76 fd cb 35 1a f7 3f 3a 19 ef 2c 62 1b d4 3f
       1.4438989609110455 0.31417135608753066
0004f0 6c 14 df 3a da f5 ec bf 39 1d 0e 18 95 ec f9 bf
       -0.9050112867195259 -1.6202593745854996
000500 4c 30 9f 08 15 0f e5 3f 54 3e 92 4c 33 71 d3 3f
       0.6580910843272334 0.3037842033163305
000510 f6 27 b0 25 de 13 d7 bf 5c 46 16 2e b3 52 eb 3f
       -0.36058763199309796 0.853845205320066
000520 24 39 8e d3 9d 5b fa bf 30 4b 69 af d7 7c ba bf
       -1.6473673118485488 -0.10346744568350341
000530 cd 55 e7 1c 08 37 fb 3f 2e 05 ac 07 3d 47 d4 bf
       1.7009354714440292 -0.3168480467721392
000540 fb 8c 56 94 48 65 ad bf 4c 37 95 41 6f 2c f7 3f
       -0.0574133568836945 1.4483482896643691
000550 a2 1d 71 69 2e af e5 3f a3 6f 59 15 c1 30 de 3f
       0.6776344355975434 0.47172572216890724
000560 f7 bf c0 2f 50 67 e7 3f 25 a2 8d a0 52 c9 ca bf
       0.7313614781069181 -0.20926888312830375
000570 fc 63 14 4d 02 71 d3 3f 05 50 ee 97 3c 34 f1 3f
       0.3037725212794269 1.0752530989457239
000580 8d ed f3 52 1b ab e9 3f ab 40 d9 ca 70 75 da bf
       0.802137052552483 -0.41341800507962984
000590 6f eb 82 5a fc 0f 82 bf 42 3e f9 65 dd 7e cf bf
       -0.008819552910031196 -0.24605910758190147
0005a0 84 d1 5d 9f 1c ab db bf ca cc 8c 99 0e 35 ef 3f
       -0.43231883586056363 0.9752266882918772
0005b0 8a e2 5a 0c 23 9e e9 3f 35 bd 94 64 60 d6 df bf
       0.8005538216885537 -0.49745950529446087
0005c0 a3 8e 30 8b 40 fd e8 bf 62 6f 00 48 68 a5 d3 3f
       -0.7809145659016007 0.3069706633702848
0005d0 08 5c 9a 43 39 7c d2 3f ba db 43 71 53 70 eb bf
       0.28883201219417787 -0.8574616634567669
0005e0 12 62 8b 79 4a 46 d0 3f 15 48 1e 9f b7 12 d0 3f
       0.25429021710945776 0.25114241160292866
0005f0 fe 7b a9 b2 61 17 fa bf af 47 32 15 0f 3f dd 3f
       -1.6307084063516863 0.4569738108631282
000600 8a be fc 7d e1 12 d2 bf 14 c0 a5 ba c4 0b ee 3f
       -0.28240239432759806 0.9389365811784978
000610 e8 0d 49 d7 e2 f0 ec bf 80 f7 bf c7 bd b6 a8 bf
       -0.9044050411980011 -0.04826920569756421
000620 c1 c5 a3 82 b7 f8 cb 3f 14 58 c9 3b 53 8c e2 bf
       0.21852773550885554 -0.5796295325951655
000630 b0 5f 40 67 a9 f0 f6 bf 07 81 be 3a e8 8a fb 3f
       -1.4337553056011352 1.7214128775304418
000640 36 ae 90 eb 41 6d f9 bf d6 ae 67 32 57 c0 e9 bf
       -1.589174194504165 -0.8047290787194139
000650 ad b1 be cf a1 49 f7 bf b0 98 bb 4c fb 9e e0 3f
       -1.4554765810999968 0.519406938427684
000660 17 fd f2 aa 1f d2 c1 bf ea 2d 94 a3 41 30 fb 3f
       -0.13922496649863866 1.6992813482091784
000670 fe 4f ab 2e a3 d1 d5 3f 15 b5 e6 16 73 b2 d1 3f
       0.3409202533487131 0.2765166972775018
000680 da 60 67 d0 1f 28 a5 bf 5f dc a0 fd 2b f0 da bf
       -0.04132174891464198 -0.420908925708721
000690 ee 33 69 80 63 95 da bf f8 dd 7e 27 3a 30 f1 3f
       -0.41536796131259635 1.074274210242832
0006a0 ef 3c de 1b 44 ae c9 3f 2e 22 20 d4 57 28 f8 bf
       0.20063067780254282 -1.5098493848946748
0006b0 08 8e e9 d7 96 2b d4 3f ec 49 53 94 45 03 be bf
       0.3151604755896362 -0.11723742362236295
0006c0 5b 81 80 83 07 66 e7 3f 02 62 a2 4e 1f 47 f1 bf
       0.731204754676621 -1.0798638412144332
0006d0 68 7c 1a 59 1b 35 c3 bf 3e 9d 35 57 c5 40 f3 bf
       -0.15005819178347513 -1.2033131987207777
0006e0 f0 81 36 58 42 8a f6 3f 63 7b 5c 04 48 83 ec bf
       1.4087546773736186 -0.8910255513363662
0006f0 c7 7c a4 92 5a 87 9d 3f d9 e8 69 8f a8 e3 d1 bf
       0.028836646271085422 -0.27952016835446397
000700 b1 c1 f5 96 58 33 f6 bf 03 09 9d 5e 35 1f e4 bf
       -1.3875356575846178 -0.6288096282881103
000710 6a 59 15 bf 39 50 fb bf 67 c9 45 ac 90 b1 b0 3f
       -1.707086321277155 0.06520942884325152
000720 b4 9a ea 8e b5 6d f9 bf 4d 1c ff a3 7e f6 fa 3f
       -1.589284475581434 1.685179367648533
000730 b2 6b c5 23 cb a0 fb 3f e6 fc 1b f7 62 a5 e4 3f
       1.72675622914424 0.6451887918809944
000740 3c df 8a 17 a3 8f e1 3f 05 1e e9 47 ae 66 f6 3f
       0.5487838229955524 1.4000685509689685
000750 28 03 e8 3c 25 8b f1 bf a2 b1 96 75 43 48 e9 3f
       -1.0964710597183487 0.7900712296155243
000760 a9 f6 e3 72 4f eb c8 bf 7f b4 a1 32 b4 11 df bf
       -0.19468110189329949 -0.4854555601548966
000770 ec 52 e8 10 f1 3a d6 bf de 8e 96 01 06 4e e3 bf
       -0.34734751368641414 -0.6032743483560485
000780 ff 30 eb 2b b3 55 ed 3f 24 af 43 13 c9 08 f6 3f
       0.9167114122188024 1.3771448853030472
000790 c5 11 18 73 07 cf e3 bf 23 56 74 29 95 f8 e7 bf
       -0.6190221069269276 -0.7490945634514826
0007a0 00 d3 e0 71 f5 fa ec bf ff 40 58 4d 41 f5 db bf
       -0.9056346153434731 -0.43684418252179563
0007b0 f5 78 e3 cf 50 ab f4 3f d0 b1 96 25 fc e9 dc bf
       1.2918251152655646 -0.45178130789534254
0007c0 42 1b bb d9 2a 08 f4 3f 40 ad 6c ca f7 50 f1 bf
       1.2519939904320414 -1.0822675616462476
0007d0 6b be d3 7e 84 4d b3 3f 1a 1e 9c b9 5c 6c f9 3f
       0.07540157410016383 1.5889556169876244
0007e0 2e 12 48 49 f4 7e ec 3f 8e d3 c4 66 f0 1a e9 3f
       0.8904973441390831 0.7845384604648744
0007f0 f5 fc ad 35 5b 34 eb 3f d2 01 e0 57 78 1a e7 3f
       0.8501411484175195 0.7219812122639786

lstm.weight_hh_l0 f8 [256, 64]
000000 f2 c2 8d 15 c4 b0 d1 bf 8a 95 ee a0 6e 6c c0 3f
       -0.2764139376150033 0.12830908639913857
000010 eb c0 3a e2 8d d7 b8 3f a9 4d 2f 9a 8f 38 ca 3f
       0.09703909657651237 0.20485110310128832
000020 3c 03 e6 48 76 79 b3 bf e3 0d 50 22 4a f1 bd 3f
       -0.07607211379764761 0.11696303689682667
000030 61 74 af f7 e6 4e 8a 3f 1b b3 cc 3c 58 8e c6 bf
       0.01284580653548967 -0.17621901482325417
000040 d7 60 e7 18 da 52 ce bf 1d 3e 75 8d e5 da d1 bf
       -0.2369034406281176 -0.2789853936601235
000050 c5 b8 08 24 ad 04 b8 3f d1 4d 67 fe 30 aa c4 3f
       0.0938213551496317 0.16144382879302424
000060 7f 84 a4 de dd 97 c9 3f a8 75 d9 5e db 86 b3 3f
       0.1999471032259272 0.07627650323543966
000070 7c a8 66 30 10 79 ce 3f b1 e0 81 20 bc ac c5 bf
       0.23806955684023368 -0.1693339499213429
000080 8d dd 23 96 fb 64 d2 3f c7 97 85 e9 b8 2b c4 3f
       0.28741349851721837 0.15758429911073632
000090 b9 e5 39 16 1b 15 b0 bf 1f d2 26 04 ab 34 a7 bf
       -0.06282204907065293 -0.04532370019606823
0000a0 af e4 e9 a0 e6 84 c4 3f b4 4a 0e cc 81 ef b2 bf
       0.16030581338035207 -0.07396708709556316
0000b0 e5 05 a3 d7 b2 9b d2 3f 31 9a a6 4d a6 63 c8 3f
       0.29075308855325793 0.1905410651354074
0000c0 26 f3 e9 98 c4 20 d0 bf 9d f8 06 19 e9 43 d0 bf
       -0.25199999745363966 -0.2541449303061059
0000d0 ac c4 38 7a 6a e8 7f bf 62 44 a7 aa 33 ef d0 3f
       -0.007790008475738446 0.2645997206246361
0000e0 93 ca a7 06 a6 7b c4 3f 0b 99 9a f8 33 93 c1 bf
       0.16002345395061876 -0.13730477942335315
0000f0 9b c2 d1 1e e4 06 c8 3f 61 32 28 a6 94 93 ba bf
       0.18771029953815774 -0.10381440216605987
000100 b3 e2 73 94 a4 da 77 bf 36 be 88 65 3f 80 d1 bf
       -0.0058237484838562946 -0.2734526149315316
000110 b1 e7 67 e5 f7 6c c7 3f a4 09 96 fc 79 09 93 bf
       0.183012949957456 -0.018590837518340245
000120 6a 6b a4 1a b2 8b ba 3f a8 78 e5 0c 7c fe 85 bf
       0.103694087509593 -0.010739297050062227
000130 40 d9 6c 0c a5 cc bf 3f 77 41 fa 17 64 c6 c7 3f
       0.12421638062810292 0.1857419125631272
000140 1e 1e 2f 0b f9 6d c2 3f fe fd 98 3e 3e 81 c5 bf
       0.1439811043367038 -0.16800668770336807
000150 d7 1c be 33 6a 61 b9 bf 1b 8c 5e 93 b9 45 78 3f
       -0.09914268267867797 0.005925869851043176
000160 8a 78 7a f7 a4 a0 ce 3f e5 4d 96 be 63 b5 c3 bf
       0.23927747806459748 -0.153973072109337
000170 c3 1b 29 58 36 4c ca bf 67 e8 ad e3 8c 26 d3 bf
       -0.20545081429210485 -0.2992279265814716
000180 12 1d 85 0c 79 4c c9 bf 7b e5 81 e8 ea 75 d0 3f
       -0.19764626609160324 0.25719711976815746
000190 43 f2 7b ee b6 74 b2 3f fb 09 ac ca 66 8c bb 3f
       0.07209342310302085 0.10761110733077565
0001a0 63 cd b5 a0 1f b7 d2 bf 40 55 65 e8 c4 21 c2 3f
       -0.29242697424270697 0.14165555331661928
0001b0 d7 0b e6 6b db 8f c7 3f 84 ef 0e 05 50 08 b9 bf
       0.18407767075049605 -0.0977830898618191
0001c0 99 82 89 4c 2c d0 c3 3f f1 24 ed 22 03 97 ca bf
       0.15479043709912757 -0.2077335281885904
0001d0 c2 0b 7b 86 64 14 c1 bf 6b b3 38 43 8d 8c 93 bf
       -0.13343483511388682 -0.019090850093721395
0001e0 38 d1 0a b6 d9 a7 66 bf 00 99 0c 61 68 b9 cc 3f
       -0.002765584198949036 0.22440819491129815
0001f0 d5 6f 7c 26 d1 11 ce bf 9f 6f 25 60 af b5 d2 3f
       -0.23491873149111933 0.2923391760757514
000200 97 3d 35 36 02 13 b7 3f 78 d0 9c 14 34 64 c8 3f
       0.09013379882275384 0.190557966294026
000210 fe 3e b6 92 b8 e8 c3 bf e6 3d 2b b6 82 b5 d2 bf
       -0.15553958095232895 -0.2923285273545545
000220 b6 12 1c 51 3b 83 d0 bf 82 de be 35 59 95 c3 3f
       -0.25800974770417484 0.15299525379463225
000230 7c 1d 86 24 84 52 c6 3f 3d 60 10 62 3d 57 c2 3f
       0.17439319404023113 0.1432873467281314
000240 bd ac 69 fa 2f ac ce 3f ae 8c 64 8f 69 7a c8 bf
       0.23962974288165198 -0.19123572827911545
000250 2e 5e 17 9c b9 7f ca 3f fa 3c ed 46 83 50 a6 bf
       0.20702285882610866 -0.043583013923688754
000260 44 71 cb d0 df 50 d2 bf 28 9a 16 e3 cf 03 be 3f
       -0.28618617429835447 0.11724566740176867
000270 6b 50 91 99 a5 36 cd 3f 46 36 15 b8 37 47 9d 3f
       0.2282301902620277 0.028591986284757696
000280 e0 48 f8 75 dd f8 a4 3f 07 23 e3 6c 41 0a b9 bf
       0.04096118989049713 -0.09781273754482465
000290 da 34 c5 3e 0a c8 c7 bf 3c f5 ad 2a 7b 47 d0 bf
       -0.18579223694761177 -0.25436286132738295
0002a0 c2 a0 8a 9f 41 02 93 bf 8d 95 83 a2 cf 35 b9 bf
       -0.018563294756547284 -0.0984773418200204
0002b0 da 5f 59 12 c8 e9 c9 bf d3 e2 fa 86 27 cb ad 3f
       -0.20244694610550945 0.05819057009415975
0002c0 6c 59 55 ab 84 cc d2 3f d5 de ea e4 01 89 be 3f
       0.2937328026941006 0.11927806700520745
0002d0 f7 2d dc 27 d7 0e c5 3f 39 f3 43 92 50 00 b0 3f
       0.1645153946522979 0.06250480242665625
0002e0 33 0d e0 5d 72 83 d2 3f 8e b6 d1 f5 51 a6 cc bf
       0.28927287261486184 -0.22382568838968492
0002f0 b6 6c 8b 57 66 6b d0 3f 6e aa f2 90 d3 f7 ca 3f
       0.2565551619461063 0.210688062453602
000300 5a 21 c3 89 d7 64 d3 3f 68 4f f6 13 f3 c1 b9 3f
       0.3030299039205794 0.10061568486554295
000310 5c e3 fa e3 53 dd 81 bf 7d 5b 8a 3c 9e 0d cf 3f
       -0.008722930331133298 0.24260309177472186
000320 c8 e4 55 24 f3 99 b8 3f 1e 33 e4 b7 80 dc d1 bf
       0.09609908711526594 -0.27908342321534174
000330 66 7d bc d3 ec 04 ca 3f 24 6e 3f e8 07 10 85 bf
       0.20327530230222662 -0.010284482741489027
000340 4e 66 da a0 6f 08 bd 3f c8 ad 27 18 e3 db bf 3f
       0.11340997387960636 0.12444896068307465
000350 f0 a7 4a 99 f6 9e 9f bf c3 44 6e 7e 03 10 cd 3f
       -0.030879834276369367 0.22705119775176827
000360 d7 81 15 3f 34 c3 ce bf df 62 38 ca 2d 6e d2 bf
       -0.24033215599321409 -0.2879747843558515
000370 b2 71 93 2a b0 1b ae 3f 22 a1 d3 55 3e eb c5 3f
       0.058804993817577325 0.17124156180148825
000380 dd 95 7a 05 49 0e c7 3f cf db 94 02 12 65 c2 bf
       0.1801234509231752 -0.14370942235993175
000390 cf 67 1a b9 70 6f b8 bf 34 64 a9 47 ae 90 c8 bf
       -0.09545044440383708 -0.19191530703645443
0003a0 40 cc e1 c5 a8 2d c9 bf 36 de 4c 9e 91 43 cc 3f
       -0.19670591032226703 0.22081203679566536
0003b0 e2 5b 52 3e 30 bd c3 3f ed d1 0c 52 d3 94 d3 bf
       0.15421107333233325 -0.3059585858602805
0003c0 6c 07 09 b8 a0 c1 cf 3f a2 53 47 74 8b 00 ad 3f
       0.24809655176255363 0.056644781059424845
0003d0 3d a6 78 e9 37 50 c4 3f 5e b9 23 46 29 c0 cd bf
       0.15869807147946516 -0.23242679524214344
0003e0 f9 61 a1 d5 15 d2 c5 3f 71 39 25 a6 cd 3f 83 3f
       0.1704737942807382 0.009399038918357335
0003f0 65 a2 1c 64 2b c9 ce 3f a5 b8 b6 5a e5 29 ce bf
       0.24051420582079 -0.23565356187231604
000400 2e 48 5a ea f5 75 ac bf 0b 95 7b 1e d0 ab ac bf
       -0.05558746801138202 -0.05599832889655872
000410 df 2f 3c 4a fc 81 d0 bf b6 8c 3a 5e 38 c4 cf 3f
       -0.25793368577501313 0.24817566491137705
000420 bc 71 1e ce 61 af d1 bf 40 21 0a c0 d3 b4 c6 bf
       -0.27632947090912885 -0.17739340664798853
000430 08 90 e5 5e 59 4b bd 3f e8 10 0a 25 9b 40 cf bf
       0.114430986087939 -0.24415911968765802
000440 4d 8c be ac 50 6a c8 3f fd 53 10 bd 6c ed d0 bf
       0.19074448046476036 -0.2644912573171608
000450 9c fb 2e 4c dd 50 c9 bf 90 8c 4a bc 07 24 cc bf
       -0.19778028697870986 -0.21984955495745284
000460 16 5c c8 d4 3d bc c0 3f 2d a7 f3 0d d0 e1 cf bf
       0.1307446755388077 -0.24907875710715058
000470 3b 8e 91 31 76 cf bc 3f 1a 89 7e ab 6b 33 90 bf
       0.11254061422510457 -0.015821153967075487
000480 3f 9e dc 61 70 de 3f 3f a8 a9 91 e1 fb 8e bd 3f
       0.00048628085811450514 0.11546301133208792
000490 9c b9 42 d2 3a 1c c1 3f 05 1f c7 8c 3a 24 c7 3f
       0.13367400423653641 0.18079311250607347
0004a0 c4 c2 36 1c 11 ff b1 3f ad 6a c2 58 cc fc c0 bf
       0.07029826105896136 -0.13271478971440356
0004b0 d3 cb bf 28 e4 ec c7 3f 04 55 9f 9f cc 16 a7 bf
       0.1869168471308443 -0.04509581993594661
0004c0 77 d5 8b 66 4d 9d c0 3f a8 45 ce 68 80 5f d3 3f
       0.129800486632728 0.30270395502983627
0004d0 05 ec 88 86 88 98 c4 3f fa 42 47 2e ec 93 d1 bf
       0.16090494698605098 -0.2746534778535047
0004e0 45 df 8f e5 62 47 d2 bf ee fb 3f 4c 95 cd be 3f
       -0.28560707491077536 0.12032445060320615
0004f0 6d 39 d3 48 4b f8 d1 bf 82 79 46 10 54 4e 75 bf
       -0.2807796679670876 -0.005201652882901421
000500 5e 3b 34 2e 3d 19 c5 3f 1c 71 67 52 c6 af ab bf
       0.1648327327352161 -0.0540754294958978
000510 48 41 36 22 a4 3b 93 bf 49 db e0 7f c7 0e c0 3f
       -0.018782200420504297 0.12545102829036583
000520 d2 5c d6 bc bf f2 a6 3f e4 89 df 11 f9 a6 d0 bf
       0.04482077770369987 -0.2601912188094089
000530 21 f5 62 37 8c 86 c3 bf f8 d0 4e 4e f7 29 c1 bf
       -0.15254357056066062 -0.13409320186259044
000540 12 c5 17 93 6c 82 b5 3f 2d 3f 82 82 fa d0 cf 3f
       0.08402136412748387 0.24856501934527256
000550 49 24 42 69 9e 4f 99 bf 34 61 74 de b5 be c7 bf
       -0.02471778409429629 -0.18550752031365791
000560 bc cd ab ee ed 93 be 3f a1 9d e8 b7 74 48 b8 3f
       0.11944472386294697 0.09485558977086452
000570 6d 63 28 d4 49 8a d0 bf 11 31 e2 69 e1 e8 cf bf
       -0.2584404537060923 -0.24929444952102434
000580 4b 67 89 ca 48 c8 9f 3f db 39 0f da c0 08 b2 3f
       0.031037461625920398 0.07044606517522516
000590 e0 06 e1 d7 86 b4 c0 3f 39 a3 1f 54 c9 91 c3 3f
       0.13050923863379804 0.15288654906842128
0005a0 00 05 f4 db 03 96 c4 bf dc b8 9b f9 1a 11 c8 bf
       -0.16082809677030951 -0.18802201450257072
0005b0 ff fc 2e a2 71 41 cc 3f 0a 7d f3 b3 55 49 c8 bf
       0.22074718875044394 -0.18973799978901013
0005c0 1b 98 71 e3 19 15 d1 bf 56 40 6f 31 06 f3 c3 bf
       -0.26691291056920513 -0.15585400975988034
0005d0 36 44 9f a5 a6 2e b5 3f 53 14 88 40 8b 25 d0 3f
       0.08274308722981591 0.25229150106344383
0005e0 eb ee 88 cb 98 49 a6 3f d7 db c6 e0 73 86 c9 bf
       0.043530249448364554 -0.19941566920689865
0005f0 68 38 75 aa aa 36 b1 bf b0 57 e5 5b 29 d0 ce 3f
       -0.06724039708680751 0.24072758662322036
000600 69 17 db 4a 1d 04 d3 3f 8e 44 9d d9 3a 7d 82 3f
       0.2971261244787145 0.009027919546186671
000610 03 cf dc 18 96 bb a9 bf ba d9 6b 7f b4 67 ca bf
       -0.05025929502008177 -0.20628982755415654
000620 68 9d ac ac 72 96 cf 3f f4 01 00 93 4f 46 a8 3f
       0.24677880698548482 0.047411429113711906
000630 0c 70 95 e0 5a 5a d1 3f 69 48 95 60 6c 0b 74 bf
       0.271139830894527 -0.004893706654302312
000640 17 fb 9d 47 1a 0c cb 3f d4 a3 76 e6 17 01 d2 3f
       0.21130684372834516 0.28131673341937113
000650 db 0f e5 8e 52 06 c6 bf e3 62 0e 9c 6a 9d cb 3f
       -0.1720679471710572 0.2157414686196467
000660 6c cc 31 37 14 f6 cd bf 76 85 04 a3 03 28 53 3f
       -0.2340722341064948 0.0011692080989365839
000670 c0 f2 16 c5 3a ba d1 3f 41 71 de 48 67 ce c5 bf
       0.2769915508941203 -0.17036143358280678
000680 23 ce 00 91 a9 5c ae bf 3c b7 17 7f a3 f3 cc bf
       -0.05930070776994636 -0.22618526178069398
000690 c9 db c0 6d cc 75 cd bf a0 c6 86 89 87 5f 5f 3f
       -0.2301574264435813 0.0019148658376305985
0006a0 5d 86 5c 38 20 e0 d1 3f 64 e5 aa 27 18 ef bf bf
       0.2793045568851989 -0.12474204033323627
0006b0 f9 70 74 0c 51 7a bb bf 7f f7 35 d9 c5 14 bb 3f
       -0.10733515314172228 0.10578571846960293
0006c0 90 42 be fa 90 18 ca bf 23 f3 05 fb e7 c2 d2 bf
       -0.20387470477409808 -0.29314612878788376
0006d0 ef 8f c0 26 04 8b d3 bf 18 22 ce 16 94 5f bb bf
       -0.3053598764838616 -0.10692716175811545
0006e0 53 bf 23 13 2f 68 c7 bf bd c5 4a 77 23 a1 be 3f
       -0.18286693987419742 0.11964627897648135
0006f0 62 ca 74 51 6c 86 d1 3f 63 f5 57 20 5d 29 cc 3f
       0.2738295360060531 0.22001232222821007
000700 83 a3 c9 14 5b fb b3 3f 2a 41 5f 36 eb fb d2 bf
       0.07805413491736428 -0.2966259032227919
000710 24 ba e9 20 cc a4 b5 3f c6 ca d1 b9 dd 02 ad bf
       0.08454585841693835 -0.05666249173454711
000720 3d ff 49 cc b4 37 d3 3f e4 1a 40 44 a7 90 d2 bf
       0.3002750391969931 -0.2900789419658578
000730 65 82 dd a6 57 5e c5 3f 6d 75 d5 cb da d5 c4 3f
       0.16694160125463778 0.1627763266832675
000740 9a 4a d6 4e 60 fc ce 3f 44 78 d0 6b 95 ff c2 3f
       0.2420769104906711 0.14842479481098014
000750 d3 66 e7 98 e0 58 c3 3f e4 8d 97 a9 1f 5b c6 3f
       0.1511498209572922 0.17465587406978422
000760 db fe 68 a2 99 a8 ad 3f 08 a0 35 05 52 32 d1 3f
       0.05792694194360389 0.26869631298768626
000770 4f 56 3a a8 30 c3 b7 3f ca 68 95 58 b9 13 be 3f
       0.09282211405874218 0.11748846447645458
000780 de a8 a3 0a f4 20 ce 3f 8a a2 bc 97 a2 cd d2 3f
       0.2353806545209584 0.29380097215702305
000790 9f de 25 f9 d0 71 d0 3f 94 7a 2b e7 a8 69 c6 3f
       0.25694679575779306 0.1750994805106144
0007a0 85 45 86 b3 bc 88 d1 bf e8 9d 58 9d 0f 0a af bf
       -0.27397077113808904 -0.06062363429765211
0007b0 f0 23 6e fc 01 7b 51 bf e0 40 d5 21 61 3e b2 bf
       -0.0010669249911379151 -0.07126433444978231
0007c0 16 73 a8 c7 69 47 d0 3f c6 e8 1d f0 79 b6 c2 bf
       0.2543587159905639 -0.14619373535589925
0007d0 f5 6c 27 39 31 6a 98 3f 93 83 61 3f 61 d8 c0 bf
       0.023842591393855767 -0.1316033896901244
0007e0 ca e1 7b 9a da 10 d1 bf 91 7d 6b 20 04 c8 86 bf
       -0.2666536816246007 -0.011123687972427717
0007f0 46 0c af 92 e9 1b bd bf 4a bf 5c 0d 80 f5 d2 3f
       -0.11370715933939932 0.2962341433039809

lstm.bias_ih_l0 f8 [256]
000000 00 00 00 00 00 00 00 00 00 00 00 00 00 00 00 00
       0.0 0.0
000010 00 00 00 00 00 00 00 00 00 00 00 00 00 00 00 00
       0.0 0.0
000020 00 00 00 00 00 00 00 00 00 00 00 00 00 00 00 00
       0.0 0.0
000030 00 00 00 00 00 00 00 00 00 00 00 00 00 00 00 00
       0.0 0.0
000040 00 00 00 00 00 00 00 00 00 00 00 00 00 00 00 00
       0.0 0.0
000050 00 00 00 00 00 00 00 00 00 00 00 00 00 00 00 00
       0.0 0.0
000060 00 00 00 00 00 00 00 00 00 00 00 00 00 00 00 00
       0.0 0.0
000070 00 00 00 00 00 00 00 00 00 00 00 00 00 00 00 00
       0.0 0.0
000080 00 00 00 00 00 00 00 00 00 00 00 00 00 00 00 00
       0.0 0.0
000090 00 00 00 00 00 00 00 00 00 00 00 00 00 00 00 00
       0.0 0.0
0000a0 00 00 00 00 00 00 00 00 00 00 00 00 00 00 00 00
       0.0 0.0
0000b0 00 00 00 00 00 00 00 00 00 00 00 00 00 00 00 00
       0.0 0.0
0000c0 00 00 00 00 00 00 00 00 00 00 00 00 00 00 00 00
       0.0 0.0
0000d0 00 00 00 00 00 00 00 00 00 00 00 00 00 00 00 00
       0.0 0.0
0000e0 00 00 00 00 00 00 00 00 00 00 00 00 00 00 00 00
       0.0 0.0
0000f0 00 00 00 00 00 00 00 00 00 00 00 00 00 00 00 00
       0.0 0.0
000100 00 00 00 00 00 00 00 00 00 00 00 00 00 00 00 00
       0.0 0.0
000110 00 00 00 00 00 00 00 00 00 00 00 00 00 00 00 00
       0.0 0.0
000120 00 00 00 00 00 00 00 00 00 00 00 00 00 00 00 00
       0.0 0.0
000130 00 00 00 00 00 00 00 00 00 00 00 00 00 00 00 00
       0.0 0.0
000140 00 00 00 00 00 00 00 00 00 00 00 00 00 00 00 00
       0.0 0.0
000150 00 00 00 00 00 00 00 00 00 00 00 00 00 00 00 00
       0.0 0.0
000160 00 00 00 00 00 00 00 00 00 00 00 00 00 00 00 00
       0.0 0.0
000170 00 00 00 00 00 00 00 00 00 00 00 00 00 00 00 00
       0.0 0.0
000180 00 00 00 00 00 00 00 00 00 00 00 00 00 00 00 00
       0.0 0.0
000190 00 00 00 00 00 00 00 00 00 00 00 00 00 00 00 00
       0.0 0.0
0001a0 00 00 00 00 00 00 00 00 00 00 00 00 00 00 00 00
       0.0 0.0
0001b0 00 00 00 00 00 00 00 00 00 00 00 00 00 00 00 00
       0.0 0.0
0001c0 00 00 00 00 00 00 00 00 00 00 00 00 00 00 00 00
       0.0 0.0
0001d0 00 00 00 00 00 00 00 00 00 00 00 00 00 00 00 00
       0.0 0.0
0001e0 00 00 00 00 00 00 00 00 00 00 00 00 00 00 00 00
       0.0 0.0
0001f0 00 00 00 00 00 00 00 00 00 00 00 00 00 00 00 00
       0.0 0.0
000200 00 00 00 00 00 00 00 00 00 00 00 00 00 00 00 00
       0.0 0.0
000210 00 00 00 00 00 00 00 00 00 00 00 00 00 00 00 00
       0.0 0.0
000220 00 00 00 00 00 00 00 00 00 00 00 00 00 00 00 00
       0.0 0.0
000230 00 00 00 00 00 00 00 00 00 00 00 00 00 00 00 00
       0.0 0.0
000240 00 00 00 00 00 00 00 00 00 00 00 00 00 00 00 00
       0.0 0.0
000250 00 00 00 00 00 00 00 00 00 00 00 00 00 00 00 00
       0.0 0.0
000260 00 00 00 00 00 00 00 00 00 00 00 00 00 00 00 00
       0.0 0.0
000270 00 00 00 00 00 00 00 00 00 00 00 00 00 00 00 00
       0.0 0.0
000280 00 00 00 00 00 00 00 00 00 00 00 00 00 00 00 00
       0.0 0.0
000290 00 00 00 00 00 00 00 00 00 00 00 00 00 00 00 00
       0.0 0.0
0002a0 00 00 00 00 00 00 00 00 00 00 00 00 00 00 00 00
       0.0 0.0
0002b0 00 00 00 00 00 00 00 00 00 00 00 00 00 00 00 00
       0.0 0.0
0002c0 00 00 00 00 00 00 00 00 00 00 00 00 00 00 00 00
       0.0 0.0
0002d0 00 00 00 00 00 00 00 00 00 00 00 00 00 00 00 00
       0.0 0.0
0002e0 00 00 00 00 00 00 00 00 00 00 00 00 00 00 00 00
       0.0 0.0
0002f0 00 00 00 00 00 00 00 00 00 00 00 00 00 00 00 00
       0.0 0.0
000300 00 00 00 00 00 00 00 00 00 00 00 00 00 00 00 00
       0.0 0.0
000310 00 00 00 00 00 00 00 00 00 00 00 00 00 00 00 00
       0.0 0.0
000320 00 00 00 00 00 00 00 00 00 00 00 00 00 00 00 00
       0.0 0.0
000330 00 00 00 00 00 00 00 00 00 00 00 00 00 00 00 00
       0.0 0.0
000340 00 00 00 00 00 00 00 00 00 00 00 00 00 00 00 00
       0.0 0.0
000350 00 00 00 00 00 00 00 00 00 00 00 00 00 00 00 00
       0.0 0.0
000360 00 00 00 00 00 00 00 00 00 00 00 00 00 00 00 00
       0.0 0.0
000370 00 00 00 00 00 00 00 00 00 00 00 00 00 00 00 00
       0.0 0.0
000380 00 00 00 00 00 00 00 00 00 00 00 00 00 00 00 00
       0.0 0.0
000390 00 00 00 00 00 00 00 00 00 00 00 00 00 00 00 00
       0.0 0.0
0003a0 00 00 00 00 00 00 00 00 00 00 00 00 00 00 00 00
       0.0 0.0
0003b0 00 00 00 00 00 00 00 00 00 00 00 00 00 00 00 00
       0.0 0.0
0003c0 00 00 00 00 00 00 00 00 00 00 00 00 00 00 00 00
       0.0 0.0
0003d0 00 00 00 00 00 00 00 00 00 00 00 00 00 00 00 00
       0.0 0.0
0003e0 00 00 00 00 00 00 00 00 00 00 00 00 00 00 00 00
       0.0 0.0
0003f0 00 00 00 00 00 00 00 00 00 00 00 00 00 00 00 00
       0.0 0.0
000400 00 00 00 00 00 00 00 00 00 00 00 00 00 00 00 00
       0.0 0.0
000410 00 00 00 00 00 00 00 00 00 00 00 00 00 00 00 00
       0.0 0.0
000420 00 00 00 00 00 00 00 00 00 00 00 00 00 00 00 00
       0.0 0.0
000430 00 00 00 00 00 00 00 00 00 00 00 00 00 00 00 00
       0.0 0.0
000440 00 00 00 00 00 00 00 00 00 00 00 00 00 00 00 00
       0.0 0.0
000450 00 00 00 00 00 00 00 00 00 00 00 00 00 00 00 00
       0.0 0.0
000460 00 00 00 00 00 00 00 00 00 00 00 00 00 00 00 00
       0.0 0.0
000470 00 00 00 00 00 00 00 00 00 00 00 00 00 00 00 00
       0.0 0.0
000480 00 00 00 00 00 00 00 00 00 00 00 00 00 00 00 00
       0.0 0.0
000490 00 00 00 00 00 00 00 00 00 00 00 00 00 00 00 00
       0.0 0.0
0004a0 00 00 00 00 00 00 00 00 00 00 00 00 00 00 00 00
       0.0 0.0
0004b0 00 00 00 00 00 00 00 00 00 00 00 00 00 00 00 00
       0.0 0.0
0004c0 00 00 00 00 00 00 00 00 00 00 00 00 00 00 00 00
       0.0 0.0
0004d0 00 00 00 00 00 00 00 00 00 00 00 00 00 00 00 00
       0.0 0.0
0004e0 00 00 00 00 00 00 00 00 00 00 00 00 00 00 00 00
       0.0 0.0
0004f0 00 00 00 00 00 00 00 00 00 00 00 00 00 00 00 00
       0.0 0.0
000500 00 00 00 00 00 00 00 00 00 00 00 00 00 00 00 00
       0.0 0.0
000510 00 00 00 00 00 00 00 00 00 00 00 00 00 00 00 00
       0.0 0.0
000520 00 00 00 00 00 00 00 00 00 00 00 00 00 00 00 00
       0.0 0.0
000530 00 00 00 00 00 00 00 00 00 00 00 00 00 00 00 00
       0.0 0.0
000540 00 00 00 00 00 00 00 00 00 00 00 00 00 00 00 00
       0.0 0.0
000550 00 00 00 00 00 00 00 00 00 00 00 00 00 00 00 00
       0.0 0.0
000560 00 00 00 00 00 00 00 00 00 00 00 00 00 00 00 00
       0.0 0.0
000570 00 00 00 00 00 00 00 00 00 00 00 00 00 00 00 00
       0.0 0.0
000580 00 00 00 00 00 00 00 00 00 00 00 00 00 00 00 00
       0.0 0.0
000590 00 00 00 00 00 00 00 00 00 00 00 00 00 00 00 00
       0.0 0.0
0005a0 00 00 00 00 00 00 00 00 00 00 00 00 00 00 00 00
       0.0 0.0
0005b0 00 00 00 00 00 00 00 00 00 00 00 00 00 00 00 00
       0.0 0.0
0005c0 00 00 00 00 00 00 00 00 00 00 00 00 00 00 00 00
       0.0 0.0
0005d0 00 00 00 00 00 00 00 00 00 00 00 00 00 00 00 00
       0.0 0.0
0005e0 00 00 00 00 00 00 00 00 00 00 00 00 00 00 00 00
       0.0 0.0
0005f0 00 00 00 00 00 00 00 00 00 00 00 00 00 00 00 00
       0.0 0.0
000600 00 00 00 00 00 00 00 00 00 00 00 00 00 00 00 00
       0.0 0.0
000610 00 00 00 00 00 00 00 00 00 00 00 00 00 00 00 00
       0.0 0.0
000620 00 00 00 00 00 00 00 00 00 00 00 00 00 00 00 00
       0.0 0.0
000630 00 00 00 00 00 00 00 00 00 00 00 00 00 00 00 00
       0.0 0.0
000640 00 00 00 00 00 00 00 00 00 00 00 00 00 00 00 00
       0.0 0.0
000650 00 00 00 00 00 00 00 00 00 00 00 00 00 00 00 00
       0.0 0.0
000660 00 00 00 00 00 00 00 00 00 00 00 00 00 00 00 00
       0.0 0.0
000670 00 00 00 00 00 00 00 00 00 00 00 00 00 00 00 00
       0.0 0.0
000680 00 00 00 00 00 00 00 00 00 00 00 00 00 00 00 00
       0.0 0.0
000690 00 00 00 00 00 00 00 00 00 00 00 00 00 00 00 00
       0.0 0.0
0006a0 00 00 00 00 00 00 00 00 00 00 00 00 00 00 00 00
       0.0 0.0
0006b0 00 00 00 00 00 00 00 00 00 00 00 00 00 00 00 00
       0.0 0.0
0006c0 00 00 00 00 00 00 00 00 00 00 00 00 00 00 00 00
       0.0 0.0
0006d0 00 00 00 00 00 00 00 00 00 00 00 00 00 00 00 00
       0.0 0.0
0006e0 00 00 00 00 00 00 00 00 00 00 00 00 00 00 00 00
       0.0 0.0
0006f0 00 00 00 00 00 00 00 00 00 00 00 00 00 00 00 00
       0.0 0.0
000700 00 00 00 00 00 00 00 00 00 00 00 00 00 00 00 00
       0.0 0.0
000710 00 00 00 00 00 00 00 00 00 00 00 00 00 00 00 00
       0.0 0.0
000720 00 00 00 00 00 00 00 00 00 00 00 00 00 00 00 00
       0.0 0.0
000730 00 00 00 00 00 00 00 00 00 00 00 00 00 00 00 00
       0.0 0.0
000740 00 00 00 00 00 00 00 00 00 00 00 00 00 00 00 00
       0.0 0.0
000750 00 00 00 00 00 00 00 00 00 00 00 00 00 00 00 00
       0.0 0.0
000760 00 00 00 00 00 00 00 00 00 00 00 00 00 00 00 00
       0.0 0.0
000770 00 00 00 00 00 00 00 00 00 00 00 00 00 00 00 00
       0.0 0.0
000780 00 00 00 00 00 00 00 00 00 00 00 00 00 00 00 00
       0.0 0.0
000790 00 00 00 00 00 00 00 00 00 00 00 00 00 00 00 00
       0.0 0.0
0007a0 00 00 00 00 00 00 00 00 00 00 00 00 00 00 00 00
       0.0 0.0
0007b0 00 00 00 00 00 00 00 00 00 00 00 00 00 00 00 00
       0.0 0.0
0007c0 00 00 00 00 00 00 00 00 00 00 00 00 00 00 00 00
       0.0 0.0
0007d0 00 00 00 00 00 00 00 00 00 00 00 00 00 00 00 00
       0.0 0.0
0007e0 00 00 00 00 00 00 00 00 00 00 00 00 00 00 00 00
       0.0 0.0
0007f0 00 00 00 00 00 00 00 00 00 00 00 00 00 00 00 00
       0.0 0.0

lstm.bias_hh_l0 f8 [256]
000000 00 00 00 00 00 00 00 00 00 00 00 00 00 00 00 00
       0.0 0.0
000010 00 00 00 00 00 00 00 00 00 00 00 00 00 00 00 00
       0.0 0.0
000020 00 00 00 00 00 00 00 00 00 00 00 00 00 00 00 00
       0.0 0.0
000030 00 00 00 00 00 00 00 00 00 00 00 00 00 00 00 00
       0.0 0.0
000040 00 00 00 00 00 00 00 00 00 00 00 00 00 00 00 00
       0.0 0.0
000050 00 00 00 00 00 00 00 00 00 00 00 00 00 00 00 00
       0.0 0.0
000060 00 00 00 00 00 00 00 00 00 00 00 00 00 00 00 00
       0.0 0.0
000070 00 00 00 00 00 00 00 00 00 00 00 00 00 00 00 00
       0.0 0.0
000080 00 00 00 00 00 00 00 00 00 00 00 00 00 00 00 00
       0.0 0.0
000090 00 00 00 00 00 00 00 00 00 00 00 00 00 00 00 00
       0.0 0.0
0000a0 00 00 00 00 00 00 00 00 00 00 00 00 00 00 00 00
       0.0 0.0
0000b0 00 00 00 00 00 00 00 00 00 00 00 00 00 00 00 00
       0.0 0.0
0000c0 00 00 00 00 00 00 00 00 00 00 00 00 00 00 00 00
       0.0 0.0
0000d0 00 00 00 00 00 00 00 00 00 00 00 00 00 00 00 00
       0.0 0.0
0000e0 00 00 00 00 00 00 00 00 00 00 00 00 00 00 00 00
       0.0 0.0
0000f0 00 00 00 00 00 00 00 00 00 00 00 00 00 00 00 00
       0.0 0.0
000100 00 00 00 00 00 00 00 00 00 00 00 00 00 00 00 00
       0.0 0.0
000110 00 00 00 00 00 00 00 00 00 00 00 00 00 00 00 00
       0.0 0.0
000120 00 00 00 00 00 00 00 00 00 00 00 00 00 00 00 00
       0.0 0.0
000130 00 00 00 00 00 00 00 00 00 00 00 00 00 00 00 00
       0.0 0.0
000140 00 00 00 00 00 00 00 00 00 00 00 00 00 00 00 00
       0.0 0.0
000150 00 00 00 00 00 00 00 00 00 00 00 00 00 00 00 00
       0.0 0.0
000160 00 00 00 00 00 00 00 00 00 00 00 00 00 00 00 00
       0.0 0.0
000170 00 00 00 00 00 00 00 00 00 00 00 00 00 00 00 00
       0.0 0.0
000180 00 00 00 00 00 00 00 00 00 00 00 00 00 00 00 00
       0.0 0.0
000190 00 00 00 00 00 00 00 00 00 00 00 00 00 00 00 00
       0.0 0.0
0001a0 00 00 00 00 00 00 00 00 00 00 00 00 00 00 00 00
       0.0 0.0
0001b0 00 00 00 00 00 00 00 00 00 00 00 00 00 00 00 00
       0.0 0.0
0001c0 00 00 00 00 00 00 00 00 00 00 00 00 00 00 00 00
       0.0 0.0
0001d0 00 00 00 00 00 00 00 00 00 00 00 00 00 00 00 00
       0.0 0.0
0001e0 00 00 00 00 00 00 00 00 00 00 00 00 00 00 00 00
       0.0 0.0
0001f0 00 00 00 00 00 00 00 00 00 00 00 00 00 00 00 00
       0.0 0.0
000200 00 00 00 00 00 00 00 00 00 00 00 00 00 00 00 00
       0.0 0.0
000210 00 00 00 00 00 00 00 00 00 00 00 00 00 00 00 00
       0.0 0.0
000220 00 00 00 00 00 00 00 00 00 00 00 00 00 00 00 00
       0.0 0.0
000230 00 00 00 00 00 00 00 00 00 00 00 00 00 00 00 00
       0.0 0.0
000240 00 00 00 00 00 00 00 00 00 00 00 00 00 00 00 00
       0.0 0.0
000250 00 00 00 00 00 00 00 00 00 00 00 00 00 00 00 00
       0.0 0.0
000260 00 00 00 00 00 00 00 00 00 00 00 00 00 00 00 00
       0.0 0.0
000270 00 00 00 00 00 00 00 00 00 00 00 00 00 00 00 00
       0.0 0.0
000280 00 00 00 00 00 00 00 00 00 00 00 00 00 00 00 00
       0.0 0.0
000290 00 00 00 00 00 00 00 00 00 00 00 00 00 00 00 00
       0.0 0.0
0002a0 00 00 00 00 00 00 00 00 00 00 00 00 00 00 00 00
       0.0 0.0
0002b0 00 00 00 00 00 00 00 00 00 00 00 00 00 00 00 00
       0.0 0.0
0002c0 00 00 00 00 00 00 00 00 00 00 00 00 00 00 00 00
       0.0 0.0
0002d0 00 00 00 00 00 00 00 00 00 00 00 00 00 00 00 00
       0.0 0.0
0002e0 00 00 00 00 00 00 00 00 00 00 00 00 00 00 00 00
       0.0 0.0
0002f0 00 00 00 00 00 00 00 00 00 00 00 00 00 00 00 00
       0.0 0.0
000300 00 00 00 00 00 00 00 00 00 00 00 00 00 00 00 00
       0.0 0.0
000310 00 00 00 00 00 00 00 00 00 00 00 00 00 00 00 00
       0.0 0.0
000320 00 00 00 00 00 00 00 00 00 00 00 00 00 00 00 00
       0.0 0.0
000330 00 00 00 00 00 00 00 00 00 00 00 00 00 00 00 00
       0.0 0.0
000340 00 00 00 00 00 00 00 00 00 00 00 00 00 00 00 00
       0.0 0.0
000350 00 00 00 00 00 00 00 00 00 00 00 00 00 00 00 00
       0.0 0.0
000360 00 00 00 00 00 00 00 00 00 00 00 00 00 00 00 00
       0.0 0.0
000370 00 00 00 00 00 00 00 00 00 00 00 00 00 00 00 00
       0.0 0.0
000380 00 00 00 00 00 00 00 00 00 00 00 00 00 00 00 00
       0.0 0.0
000390 00 00 00 00 00 00 00 00 00 00 00 00 00 00 00 00
       0.0 0.0
0003a0 00 00 00 00 00 00 00 00 00 00 00 00 00 00 00 00
       0.0 0.0
0003b0 00 00 00 00 00 00 00 00 00 00 00 00 00 00 00 00
       0.0 0.0
0003c0 00 00 00 00 00 00 00 00 00 00 00 00 00 00 00 00
       0.0 0.0
0003d0 00 00 00 00 00 00 00 00 00 00 00 00 00 00 00 00
       0.0 0.0
0003e0 00 00 00 00 00 00 00 00 00 00 00 00 00 00 00 00
       0.0 0.0
0003f0 00 00 00 00 00 00 00 00 00 00 00 00 00 00 00 00
       0.0 0.0
000400 00 00 00 00 00 00 00 00 00 00 00 00 00 00 00 00
       0.0 0.0
000410 00 00 00 00 00 00 00 00 00 00 00 00 00 00 00 00
       0.0 0.0
000420 00 00 00 00 00 00 00 00 00 00 00 00 00 00 00 00
       0.0 0.0
000430 00 00 00 00 00 00 00 00 00 00 00 00 00 00 00 00
       0.0 0.0
000440 00 00 00 00 00 00 00 00 00 00 00 00 00 00 00 00
       0.0 0.0
000450 00 00 00 00 00 00 00 00 00 00 00 00 00 00 00 00
       0.0 0.0
000460 00 00 00 00 00 00 00 00 00 00 00 00 00 00 00 00
       0.0 0.0
000470 00 00 00 00 00 00 00 00 00 00 00 00 00 00 00 00
       0.0 0.0
000480 00 00 00 00 00 00 00 00 00 00 00 00 00 00 00 00
       0.0 0.0
000490 00 00 00 00 00 00 00 00 00 00 00 00 00 00 00 00
       0.0 0.0
0004a0 00 00 00 00 00 00 00 00 00 00 00 00 00 00 00 00
       0.0 0.0
0004b0 00 00 00 00 00 00 00 00 00 00 00 00 00 00 00 00
       0.0 0.0
0004c0 00 00 00 00 00 00 00 00 00 00 00 00 00 00 00 00
       0.0 0.0
0004d0 00 00 00 00 00 00 00 00 00 00 00 00 00 00 00 00
       0.0 0.0
0004e0 00 00 00 00 00 00 00 00 00 00 00 00 00 00 00 00
       0.0 0.0
0004f0 00 00 00 00 00 00 00 00 00 00 00 00 00 00 00 00
       0.0 0.0
000500 00 00 00 00 00 00 00 00 00 00 00 00 00 00 00 00
       0.0 0.0
000510 00 00 00 00 00 00 00 00 00 00 00 00 00 00 00 00
       0.0 0.0
000520 00 00 00 00 00 00 00 00 00 00 00 00 00 00 00 00
       0.0 0.0
000530 00 00 00 00 00 00 00 00 00 00 00 00 00 00 00 00
       0.0 0.0
000540 00 00 00 00 00 00 00 00 00 00 00 00 00 00 00 00
       0.0 0.0
000550 00 00 00 00 00 00 00 00 00 00 00 00 00 00 00 00
       0.0 0.0
000560 00 00 00 00 00 00 00 00 00 00 00 00 00 00 00 00
       0.0 0.0
000570 00 00 00 00 00 00 00 00 00 00 00 00 00 00 00 00
       0.0 0.0
000580 00 00 00 00 00 00 00 00 00 00 00 00 00 00 00 00
       0.0 0.0
000590 00 00 00 00 00 00 00 00 00 00 00 00 00 00 00 00
       0.0 0.0
0005a0 00 00 00 00 00 00 00 00 00 00 00 00 00 00 00 00
       0.0 0.0
0005b0 00 00 00 00 00 00 00 00 00 00 00 00 00 00 00 00
       0.0 0.0
0005c0 00 00 00 00 00 00 00 00 00 00 00 00 00 00 00 00
       0.0 0.0
0005d0 00 00 00 00 00 00 00 00 00 00 00 00 00 00 00 00
       0.0 0.0
0005e0 00 00 00 00 00 00 00 00 00 00 00 00 00 00 00 00
       0.0 0.0
0005f0 00 00 00 00 00 00 00 00 00 00 00 00 00 00 00 00
       0.0 0.0
000600 00 00 00 00 00 00 00 00 00 00 00 00 00 00 00 00
       0.0 0.0
000610 00 00 00 00 00 00 00 00 00 00 00 00 00 00 00 00
       0.0 0.0
000620 00 00 00 00 00 00 00 00 00 00 00 00 00 00 00 00
       0.0 0.0
000630 00 00 00 00 00 00 00 00 00 00 00 00 00 00 00 00
       0.0 0.0
000640 00 00 00 00 00 00 00 00 00 00 00 00 00 00 00 00
       0.0 0.0
000650 00 00 00 00 00 00 00 00 00 00 00 00 00 00 00 00
       0.0 0.0
000660 00 00 00 00 00 00 00 00 00 00 00 00 00 00 00 00
       0.0 0.0
000670 00 00 00 00 00 00 00 00 00 00 00 00 00 00 00 00
       0.0 0.0
000680 00 00 00 00 00 00 00 00 00 00 00 00 00 00 00 00
       0.0 0.0
000690 00 00 00 00 00 00 00 00 00 00 00 00 00 00 00 00
       0.0 0.0
0006a0 00 00 00 00 00 00 00 00 00 00 00 00 00 00 00 00
       0.0 0.0
0006b0 00 00 00 00 00 00 00 00 00 00 00 00 00 00 00 00
       0.0 0.0
0006c0 00 00 00 00 00 00 00 00 00 00 00 00 00 00 00 00
       0.0 0.0
0006d0 00 00 00 00 00 00 00 00 00 00 00 00 00 00 00 00
       0.0 0.0
0006e0 00 00 00 00 00 00 00 00 00 00 00 00 00 00 00 00
       0.0 0.0
0006f0 00 00 00 00 00 00 00 00 00 00 00 00 00 00 00 00
       0.0 0.0
000700 00 00 00 00 00 00 00 00 00 00 00 00 00 00 00 00
       0.0 0.0
000710 00 00 00 00 00 00 00 00 00 00 00 00 00 00 00 00
       0.0 0.0
000720 00 00 00 00 00 00 00 00 00 00 00 00 00 00 00 00
       0.0 0.0
000730 00 00 00 00 00 00 00 00 00 00 00 00 00 00 00 00
       0.0 0.0
000740 00 00 00 00 00 00 00 00 00 00 00 00 00 00 00 00
       0.0 0.0
000750 00 00 00 00 00 00 00 00 00 00 00 00 00 00 00 00
       0.0 0.0
000760 00 00 00 00 00 00 00 00 00 00 00 00 00 00 00 00
       0.0 0.0
000770 00 00 00 00 00 00 00 00 00 00 00 00 00 00 00 00
       0.0 0.0
000780 00 00 00 00 00 00 00 00 00 00 00 00 00 00 00 00
       0.0 0.0
000790 00 00 00 00 00 00 00 00 00 00 00 00 00 00 00 00
       0.0 0.0
0007a0 00 00 00 00 00 00 00 00 00 00 00 00 00 00 00 00
       0.0 0.0
0007b0 00 00 00 00 00 00 00 00 00 00 00 00 00 00 00 00
       0.0 0.0
0007c0 00 00 00 00 00 00 00 00 00 00 00 00 00 00 00 00
       0.0 0.0
0007d0 00 00 00 00 00 00 00 00 00 00 00 00 00 00 00 00
       0.0 0.0
0007e0 00 00 00 00 00 00 00 00 00 00 00 00 00 00 00 00
       0.0 0.0
0007f0 00 00 00 00 00 00 00 00 00 00 00 00 00 00 00 00
       0.0 0.0
