isoform_quantification/models/Mili_RSEM.pt (torch, 547841 bytes, 23 tensors)

lstm.weight_ih_l0 f4 [256, 2]
0	0x3f579001	0.8420411
1	0x3fcd8a0c	1.6057754
2	0xbefd0b4f	-0.4942269
3	0x3d954527	0.072885804
4	0x3d8b6269	0.068058796
5	0x3f1894a1	0.5960179
6	0x3fafba71	1.3728772
7	0xbf91b710	-1.1383991
8	0xbf81fea1	-1.0155832
9	0x3f990275	1.1953875
10	0xbd3d51d0	-0.0462206
11	0x3de5d4af	0.11222207
12	0x3f8f6145	1.1201559
13	0xbfbd5af9	-1.4793388
14	0x3fcd5950	1.6042881
15	0xbe32406c	-0.17407387
16	0x3f11a70c	0.5689552
17	0x3fcc3e1d	1.5956455
18	0x3cdb2287	0.026749862
19	0xbf40fbd0	-0.75384235
20	0xbf2c21f3	-0.672393
21	0xbf5b29d2	-0.8561069
22	0xbf3b72d0	-0.73222065
23	0xbf5abb6a	-0.8544222
24	0x3f980409	1.1876231
25	0x3eb425f6	0.35185212
26	0x3fb1d1a8	1.3892107
27	0x3e8fc5cf	0.28080603
28	0xbad91a0c	-0.0016563549
29	0xbf4688a3	-0.7755224
30	0x3f7c48a1	0.9854832
31	0xbd940db6	-0.07229178
32	0x3f4d1740	0.801136
33	0x3f416011	0.7553721
34	0xbfd073e9	-1.6285373
35	0xbf14c535	-0.58113414
36	0xbfd5535f	-1.6666068
37	0x3cc76f3a	0.02434503
38	0x3d1c5308	0.038165122
39	0xbf381272	-0.71903145
40	0xbdc267c6	-0.094924495
41	0xbe5ae163	-0.2137504
42	0xbf0f61d8	-0.5600867
43	0x3fdaac70	1.7083874
44	0xbf4a53c6	-0.7903408
45	0x3e118aaf	0.1421306
46	0xbf3fcd7d	-0.74922925
47	0xbec3952d	-0.3819975
48	0x3f06c318	0.5264144
49	0x3f1b56b2	0.6067916
50	0xbf9005ef	-1.1251811
51	0xbfad9df0	-1.3563824
52	0x3fa3221b	1.2744783
53	0x3f4aba39	0.79190403
54	0xbfbb3f88	-1.4628763
55	0x3fb564ac	1.4171348
56	0xbf8f3d44	-1.1190572
57	0x3fbbcd93	1.4672111
58	0xbf291e48	-0.6606183
59	0x3f9db82e	1.2321832
60	0x3e2596ce	0.16170809
61	0x3fc5c94c	1.5452056
62	0xbf84a5dc	-1.0363116
63	0xbfd6fdcb	-1.6796201
64	0xbf8faa60	-1.1223869
65	0xbf1a5f34	-0.6030152
66	0x3f701043	0.93774813
67	0x3fc66871	1.5500623
68	0x3c7742a9	0.015091577
69	0x3e994548	0.2993567
70	0xbeb456cc	-0.3522247
71	0x3fd4eb27	1.6634263
72	0x3f5df285	0.8669818
73	0x3fa802f6	1.3125904
74	0xbd236460	-0.039890647
75	0xbf92b776	-1.1462238
76	0x3f60c128	0.87794733
77	0x3f8a4eff	1.0805358
78	0xbe80fe74	-0.25194132
79	0x3f30b973	0.69032973
80	0xbfd096ff	-1.629608
81	0x3e88568e	0.26628536
82	0x3eb491f9	0.35267618
83	0x3f8cde18	1.1005278
84	0x3ebc3d8d	0.3676571
85	0xbf5115f0	-0.816741
86	0x3fd033e8	1.626584
87	0x3e656180	0.22400475
88	0x3f390da9	0.7228647
89	0x3f676535	0.90388805
90	0xbfd4032b	-1.6563467
91	0x3f6ef87b	0.933479
92	0xbe98a040	-0.2980976
93	0xbfa76bc8	-1.3079767
94	0xbf0d9a5d	-0.55313665
95	0xbf7777f1	-0.9666739
96	0xbf834115	-1.0254236
97	0x3eeea33e	0.4660892
98	0xbf095142	-0.53639615
99	0x3d09d66c	0.033651754
100	0x3f88e597	1.0695065
101	0x3fba03dc	1.4532428
102	0x3d854357	0.06506985
103	0x3f31796d	0.69325906
104	0x3d8066f8	0.0626964
105	0xbf8ad636	-1.0846622
106	0xbe859c98	-0.26096034
107	0x3fc00b4f	1.5003451
108	0xbf6d96cd	-0.9280823
109	0x3fc06669	1.5031253
110	0x3f695c80	0.9115677
111	0x3e144aed	0.14481707
112	0x3fc0f736	1.5075443
113	0xbec0d7fb	-0.3766478
114	0xbfc5a69c	-1.544147
115	0x3f2d2288	0.67630816
116	0xbf60fbe2	-0.8788434
117	0xbf99fb65	-1.2029845
118	0x3f93d721	1.1550027
119	0xbfa1dc29	-1.2645313
120	0xbf23719e	-0.6384524
121	0x3f0888cc	0.53333735
122	0xbf867e54	-1.0507302
123	0x3ec95650	0.39323664
124	0x3fb4246d	1.4073616
125	0x3f60cbbd	0.8781088
126	0xbfa8803d	-1.3164135
127	0x3f7a995c	0.9789026
128	0x3f18f21b	0.59744424
129	0x3eef37a2	0.46722132
130	0x3f994af9	1.1976005
131	0xbf2b5263	-0.6692259
132	0xbe818f37	-0.25304577
133	0x3fb1c0f5	1.3887011
134	0xbf5a2844	-0.8521769
135	0x3f004f69	0.5012117
136	0x3f472f66	0.778067
137	0xbfa3ab6a	-1.2786686
138	0x3eb3842e	0.35061783
139	0xbefafb55	-0.49019876
140	0xbc8397f4	-0.016063668
141	0x3f6a16f4	0.91441274
142	0xbe825382	-0.25454336
143	0xbeb2c54a	-0.34916145
144	0x3f38224a	0.7192732
145	0x3f9ad24d	1.2095429
146	0xbf737b7e	-0.9511031
147	0x3f3bb4b8	0.7332263
148	0xbcc5aa4c	-0.024129055
149	0xbf5bdb3a	-0.8588139
150	0xbfbb9b7e	-1.4656827
151	0x3fda2e4b	1.7045377
152	0xbec8b372	-0.39199406
153	0xbfbdd15f	-1.482952
154	0x3fdc5af9	1.7215263
155	0xbf8611f0	-1.0474224
156	0xbf51ed57	-0.82002777
157	0x3fdcb68a	1.7243207
158	0xbe8329b6	-0.2561776
159	0xbe866622	-0.26249796
160	0xbf4e0771	-0.80480105
161	0x3edeaa10	0.43489122
162	0xbfc109e9	-1.5081149
163	0x3fb8e0b2	1.4443572
164	0x3d53e843	0.051735174
165	0xbfbcaafb	-1.4739679
166	0xbf6e7d23	-0.93159693
167	0xbf90d7be	-1.1315839
168	0x3fd1c01b	1.6386751
169	0xbf814ad2	-1.0100958
170	0xbf2d9e5d	-0.6781977
171	0xbeea8bfd	-0.45809928
172	0xbfc88afb	-1.5667413
173	0xbf0b9e5d	-0.5453852
174	0x3de98be7	0.114036374
175	0xbf28e8bb	-0.6598012
176	0xbeee766d	-0.46574727
177	0xbf5d7acc	-0.865155
178	0x3ed6cf9c	0.41955268
179	0xbfad8f00	-1.3559265
180	0xbe9b6f2c	-0.30358255
181	0xbfb050b0	-1.3774624
182	0xbfacb92e	-1.3494012
183	0x3f876fd5	1.0581003
184	0x3fc1ea5d	1.5149647
185	0x3fd6ea54	1.6790261
186	0x3f7c8392	0.9863826
187	0xbfbd9e96	-1.4814022
188	0x3e017817	0.12643467
189	0x3fb59ade	1.4187887
190	0xbf94b7fa	-1.1618645
191	0x3ef59ed4	0.4797274
192	0x3d828551	0.06373084
193	0x3e11a7ea	0.1422421
194	0xbe0bac14	-0.13639861
195	0x3f84eb81	1.038437
196	0x3ea34ca4	0.3189441
197	0xbfb94780	-1.4474945
198	0xbefa9fbc	-0.48949993
199	0xbf14a659	-0.58066326
200	0x3f8d82b0	1.1055508
201	0x3e41a05f	0.18908833
202	0x3e7d83ba	0.24757281
203	0xbfc107b1	-1.5080472
204	0x3f09f692	0.5389186
205	0x3f364649	0.71200997
206	0xbf8ac1f4	-1.084044
207	0xbe600a13	-0.21878843
208	0x3fa57c77	1.2928609
209	0x3f9b194f	1.2117099
210	0xbeb674dd	-0.35636035
211	0x3f8964be	1.0733869
212	0x3e872cea	0.26401454
213	0xbeb61327	-0.35561487
214	0xbe4efac3	-0.20212846
215	0xbfc33c99	-1.5252868
216	0xbfc54760	-1.5412407
217	0xbeb22469	-0.34793404
218	0xbf018d51	-0.50606257
219	0xbe1a8d43	-0.1509295
220	0xbf11b0d1	-0.56910425
221	0xbf52cb20	-0.82341194
222	0xbe95d08f	-0.2926068
223	0xbf21a13f	-0.63136667
224	0x3fceffc5	1.6171805
225	0x3f893285	1.0718542
226	0x3f82a004	1.0205083
227	0x3f0219a5	0.5082038
228	0xbf58e472	-0.8472358
229	0xbeb7194d	-0.3576149
230	0x3f2c6dcd	0.6735504
231	0xbefc44bb	-0.49271187
232	0xbf121439	-0.5706211
233	0xbf7fedca	-0.9997221
234	0xbf359160	-0.7092495
235	0xbf831bf0	-1.0242901
236	0x3f301c8d	0.68793565
237	0xbe5e26dc	-0.21694511
238	0xbf095003	-0.53637713
239	0xbf25e79e	-0.64806545
240	0x3ead6e1e	0.33873075
241	0xbf48c105	-0.78419524
242	0xbfa766db	-1.3078264
243	0xbf0f2d9e	-0.5592898
244	0xbe2b3dcd	-0.16722794
245	0x3fbe5912	1.4870932
246	0x3f8f7635	1.1207949
247	0xbfcc7f83	-1.5976413
248	0x3fc12bf9	1.5091544
249	0x3f9d08da	1.2268326
250	0x3f12eca5	0.5739234
251	0x3f6175c0	0.880703
252	0x3f668a2f	0.900546
253	0xbf63b42c	-0.88946795
254	0xbfd9f0d6	-1.7026622
255	0xbf5a347c	-0.85236335

lstm.weight_hh_l0 f4 [256, 64]
0	0xbe8ca5c2	-0.27470213
1	0x3d142587	0.0361686
2	0xbe7d0109	-0.24707426
3	0x3e43b0e4	0.19110447
4	0xbd3de521	-0.046361092
5	0x3b99990c	0.004687434
6	0xbde1d940	-0.11027765
7	0xbcc890ad	-0.02448305
8	0xbe265329	-0.1624266
9	0xbe916e38	-0.28404403
10	0xbe62e643	-0.2215815
11	0x3deff22f	0.11716115
12	0x3ddcc14f	0.10779058
13	0x3c1285f5	0.008943071
14	0xbe6e8c04	-0.23295599
15	0xbdf89477	-0.121376924
16	0x3e98093a	0.2969454
17	0x3d02f4ca	0.03197173
18	0x3dc95d88	0.09832293
19	0xbc5454dc	-0.012959685
20	0x3e5adbd7	0.21372925
21	0xbdbee366	-0.093207166
22	0x3e28a985	0.16470917
23	0x3e939855	0.28827158
24	0xbe9658c6	-0.29364604
25	0xbe4ecf53	-0.20196275
26	0xbe450e7d	-0.19243808
27	0xbe81aa41	-0.25325206
28	0x3e971e7b	0.29515442
29	0xbdab5467	-0.08365708
30	0xbc174eb4	-0.009235073
31	0x3de5c893	0.11219897
32	0x3e3d96bf	0.18514536
33	0xbd33747d	-0.043812264
34	0x3e7fb863	0.24972682
35	0xbe6c9420	-0.2310338
36	0x3e1c73ad	0.15278502
37	0xbc9ae2bc	-0.018906944
38	0x3e481da0	0.19542551
39	0x3e574983	0.21024136
40	0x3c1e637a	0.009667272
41	0xbe88b9dc	-0.267043
42	0x3c3de135	0.011589338
43	0x3d25edde	0.04051005
44	0xbe90bcea	-0.2826913
45	0x3e282026	0.16418514
46	0xbe8c3a79	-0.2738836
47	0xbe3894af	-0.18025468
48	0x3e041dc0	0.12901974
49	0x3d585b5e	0.05282151
50	0x3e88880f	0.26666304
51	0x3d092bf6	0.03348919
52	0xbe8924b3	-0.26785812
53	0x3dc73d71	0.09728516
54	0xbe9355ce	-0.287764
55	0xbe904305	-0.28176132
56	0xbbb6da5d	-0.00558023
57	0xbd7b4f7d	-0.061355103
58	0x3e487c64	0.19578701
59	0xbdfe5742	-0.12418987
60	0xbdebff80	-0.11523342
61	0x3e31e90a	0.17374054
62	0xbe293ee8	-0.16527903
63	0x3cefe575	0.029284218
64	0xbde747c4	-0.11292985
65	0x3e2d3ff5	0.16918929
66	0x3e373b8f	0.17893814
67	0xbca0c79f	-0.019626437
68	0x3db62442	0.088936344
69	0x3e6b9b7e	0.23008534
70	0xbcd0b28d	-0.025475765
71	0x3e927f81	0.28612903
72	0x3d5acce8	0.05341807
73	0xbe35fff4	-0.1777342
74	0xbded40c9	-0.115846224
75	0x3d92f8a0	0.07176328
76	0x3e8ab962	0.2709456
77	0xbe691955	-0.2276357
78	0x3ca6b54f	0.020350127
79	0x3c870c8f	0.01648548
80	0xbe71f2a8	-0.23627722
81	0xbddcde92	-0.107846394
82	0x3daa2eb4	0.08309689
83	0xbe10997d	-0.14121051
84	0xbd827de7	-0.0637167
85	0xbe5ec2bd	-0.21753974
86	0xbe53185f	-0.20614766
87	0xbe821f57	-0.25414535
88	0xbe9bc99a	-0.30427247
89	0xbdaa8caa	-0.08327611
90	0xbd09256b	-0.03348295
91	0x3e3727db	0.17886297
92	0xbdddec01	-0.1083603
93	0x3e87cc4f	0.26523063
94	0x3e94efe3	0.2908927
95	0x3d781741	0.06056905
96	0xbe8dea4f	-0.27717826
97	0x3d039cf6	0.03213211
98	0xbd2a28ad	-0.041542698
99	0x3e47b200	0.19501495
100	0x3e2fe907	0.17178737
101	0xbe0abe75	-0.13549216
102	0x3e07b7e9	0.1325375
103	0x3e9b2117	0.30298683
104	0xbe2f425c	-0.17115158
105	0x3dc03f30	0.09387052
106	0x3e3e2553	0.18568926
107	0x3e7dc909	0.2478372
108	0x3d4251cf	0.0474413
109	0x3df8fe01	0.121578224
110	0xbe72a137	-0.23694311
111	0x3e03b61e	0.12862441
112	0xbe91c1ac	-0.28468072
113	0xbe619b72	-0.22031954
114	0x3cbf8995	0.023381034
115	0x3e89b7d0	0.2689805
116	0xbe50b170	-0.20380187
117	0xbe9685bc	-0.29398906
118	0xbe1a9c19	-0.15098609
119	0x3e9152d3	0.28383502
120	0x3e677329	0.22602524
121	0xbe86e8a8	-0.26349378
122	0xbcb4c18b	-0.022064945
123	0xbe1b92ea	-0.15192762
124	0xbc39802f	-0.011322065
125	0x3e27d913	0.16391401
126	0x3e1e0801	0.15432741
127	0x3dc3732d	0.095434524
128	0xbe0136bb	-0.12618534
129	0x3e8de1ef	0.27711436
130	0x3e9694cc	0.29410398
131	0xbb25cd5f	-0.0025299413
132	0x3e57a073	0.210573
133	0xbe786c21	-0.24259998
134	0x3e937412	0.28799492
135	0x3e827899	0.25482634
136	0xbcd3184d	-0.025768423
137	0x3e294a6e	0.16532299
138	0xbe942254	-0.2893244
139	0xbe8f3558	-0.27970386
140	0xbe6b0ca0	-0.22954035
141	0xbe88f9af	-0.26752993
142	0x3e3027e7	0.17202722
143	0x3e9376dc	0.2880162
144	0x3e8d7bba	0.27633458
145	0xbb95910c	-0.00456441
146	0x3e80f236	0.25184792
147	0x3e81c89b	0.25348362
148	0x3e3a882c	0.18216008
149	0x3e81d096	0.2535445
150	0x3e630412	0.22169521
151	0x3e55d349	0.2088138
152	0x3e1bd7b9	0.1521901
153	0xbe8cea96	-0.27522725
154	0xbb751e1d	-0.0037401982
155	0x3e684778	0.22683513
156	0x3d99ea04	0.07515338
157	0x3e89eb3d	0.26937285
158	0xbb6024d5	-0.003420164
159	0x3d5d7209	0.05406383
160	0xbe414e98	-0.18877637
161	0xbe7b79b3	-0.24558143
162	0xbbc0f245	-0.005888256
163	0xbe366bd3	-0.17814569
164	0xbdb43eb0	-0.08801019
165	0xbe0ff292	-0.14057377
166	0xbcca275e	-0.024676975
167	0xbe4e0358	-0.20118463
168	0xbd53dbb4	-0.051723197
169	0x3da112bb	0.07864901
170	0x3e9040b8	0.28174376
171	0x3e5b2173	0.21399479
172	0xbe8ab6f2	-0.270927
173	0xbe75195c	-0.23935455
174	0xbddbc9e2	-0.107318655
175	0xbe666ec9	-0.22503199
176	0xbdd49fb1	-0.10382021
177	0x3e7100f2	0.23535517
178	0x3e489deb	0.19591491
179	0xbe57bea9	-0.21068825
180	0x3e968965	0.294017
181	0x3dd4c351	0.10388816
182	0xbdd0662b	-0.10175737
183	0xbd6bf3ec	-0.05760567
184	0xbd7ee4cd	-0.06222992
185	0x3c39c329	0.011338034
186	0x3e3f56f9	0.18685521
187	0xbb47f175	-0.003050891
188	0xbe71e162	-0.23621133
189	0xbdf425ac	-0.11921248
190	0x3e91bc39	0.28463915
191	0xbe0a6358	-0.13514459
192	0xbd82c752	-0.063856736
193	0xbe69da7b	-0.2283725
194	0xbd928573	-0.0715436
195	0xbe36d1b8	-0.17853439
196	0x3e486ebc	0.19573492
197	0x3e214312	0.15748242
198	0x3d3a2392	0.04544408
199	0xbe9bb13d	-0.3040866
200	0x3da55b6f	0.0807408
201	0xbe9c5342	-0.3053227
202	0x3e75a4e4	0.23988682
203	0x3e679e26	0.22618923
204	0x3dcaec04	0.09908298
205	0x3e8fe3b7	0.2810342
206	0x3dc3873b	0.095472775
207	0xbe1e69df	-0.15470074
208	0x3ba43673	0.0050113737
209	0xbe0f1680	-0.13973427
210	0xbcc1f20d	-0.02367499
211	0x3e73633c	0.23768324
212	0xbe86dd9d	-0.26340953
213	0x3e7baa60	0.24576712
214	0x3e990af5	0.29891172
215	0xbe1c575a	-0.15267697
216	0x3dc01bc4	0.09380296
217	0x3e037f28	0.12841475
218	0x3d64e2e6	0.05588045
219	0xbdeea66e	-0.11652838
220	0xbd482202	-0.048860557
221	0xbe2d358d	-0.16914959
222	0x3e82c750	0.25542688
223	0x3ded90f8	0.11599916
224	0x3e178791	0.14797808
225	0xbdc8af44	-0.09799054
226	0x3d762f31	0.0601036
227	0xbe69bf42	-0.22826865
228	0xbe5a1111	-0.21295573
229	0xbd55a17e	-0.052155964
230	0xbe286258	-0.16443765
231	0x3c054c26	0.008135831
232	0x3e4fc631	0.20290448
233	0x3e028d2f	0.1274917
234	0x3df803f7	0.12110131
235	0xbd94333d	-0.072363354
236	0xbe4130c2	-0.18866256
237	0x3e96c18b	0.29444537
238	0xbe509e13	-0.203728
239	0x3cef674f	0.029224066
240	0xbe06dc9d	-0.13170095
241	0x3e460b59	0.19340266
242	0x3e2c84f1	0.16847588
243	0x3e66aca5	0.22526796
244	0x3db2c6a7	0.08729296
245	0x3e18fcc5	0.14940174
246	0x3d2c4346	0.042056344
247	0xbd704dad	-0.058667827
248	0x3e75d989	0.24008764
249	0xbe3ba804	-0.18325812
250	0xbda5b3b3	-0.080909155
251	0xbddade85	-0.106869735
252	0xbe897825	-0.26849476
253	0xbe798368	-0.24366534
254	0xbe35821b	-0.17725413
255	0x3e7e6f06	0.2484704

lstm.bias_ih_l0 f4 [256]
0	0x00000000	0.0
1	0x00000000	0.0
2	0x00000000	0.0
3	0x00000000	0.0
4	0x00000000	0.0
5	0x00000000	0.0
6	0x00000000	0.0
7	0x00000000	0.0
8	0x00000000	0.0
9	0x00000000	0.0
10	0x00000000	0.0
11	0x00000000	0.0
12	0x00000000	0.0
13	0x00000000	0.0
14	0x00000000	0.0
15	0x00000000	0.0
16	0x00000000	0.0
17	0x00000000	0.0
18	0x00000000	0.0
19	0x00000000	0.0
20	0x00000000	0.0
21	0x00000000	0.0
22	0x00000000	0.0
23	0x00000000	0.0
24	0x00000000	0.0
25	0x00000000	0.0
26	0x00000000	0.0
27	0x00000000	0.0
28	0x00000000	0.0
29	0x00000000	0.0
30	0x00000000	0.0
31	0x00000000	0.0
32	0x00000000	0.0
33	0x00000000	0.0
34	0x00000000	0.0
35	0x00000000	0.0
36	0x00000000	0.0
37	0x00000000	0.0
38	0x00000000	0.0
39	0x00000000	0.0
40	0x00000000	0.0
41	0x00000000	0.0
42	0x00000000	0.0
43	0x00000000	0.0
44	0x00000000	0.0
45	0x00000000	0.0
46	0x00000000	0.0
47	0x00000000	0.0
48	0x00000000	0.0
49	0x00000000	0.0
50	0x00000000	0.0
51	0x00000000	0.0
52	0x00000000	0.0
53	0x00000000	0.0
54	0x00000000	0.0
55	0x00000000	0.0
56	0x00000000	0.0
57	0x00000000	0.0
58	0x00000000	0.0
59	0x00000000	0.0
60	0x00000000	0.0
61	0x00000000	0.0
62	0x00000000	0.0
63	0x00000000	0.0
64	0x00000000	0.0
65	0x00000000	0.0
66	0x00000000	0.0
67	0x00000000	0.0
68	0x00000000	0.0
69	0x00000000	0.0
70	0x00000000	0.0
71	0x00000000	0.0
72	0x00000000	0.0
73	0x00000000	0.0
74	0x00000000	0.0
75	0x00000000	0.0
76	0x00000000	0.0
77	0x00000000	0.0
78	0x00000000	0.0
79	0x00000000	0.0
80	0x00000000	0.0
81	0x00000000	0.0
82	0x00000000	0.0
83	0x00000000	0.0
84	0x00000000	0.0
85	0x00000000	0.0
86	0x00000000	0.0
87	0x00000000	0.0
88	0x00000000	0.0
89	0x00000000	0.0
90	0x00000000	0.0
91	0x00000000	0.0
92	0x00000000	0.0
93	0x00000000	0.0
94	0x00000000	0.0
95	0x00000000	0.0
96	0x00000000	0.0
97	0x00000000	0.0
98	0x00000000	0.0
99	0x00000000	0.0
100	0x00000000	0.0
101	0x00000000	0.0
102	0x00000000	0.0
103	0x00000000	0.0
104	0x00000000	0.0
105	0x00000000	0.0
106	0x00000000	0.0
107	0x00000000	0.0
108	0x00000000	0.0
109	0x00000000	0.0
110	0x00000000	0.0
111	0x00000000	0.0
112	0x00000000	0.0
113	0x00000000	0.0
114	0x00000000	0.0
115	0x00000000	0.0
116	0x00000000	0.0
117	0x00000000	0.0
118	0x00000000	0.0
119	0x00000000	0.0
120	0x00000000	0.0
121	0x00000000	0.0
122	0x00000000	0.0
123	0x00000000	0.0
124	0x00000000	0.0
125	0x00000000	0.0
126	0x00000000	0.0
127	0x00000000	0.0
128	0x00000000	0.0
129	0x00000000	0.0
130	0x00000000	0.0
131	0x00000000	0.0
132	0x00000000	0.0
133	0x00000000	0.0
134	0x00000000	0.0
135	0x00000000	0.0
136	0x00000000	0.0
137	0x00000000	0.0
138	0x00000000	0.0
139	0x00000000	0.0
140	0x00000000	0.0
141	0x00000000	0.0
142	0x00000000	0.0
143	0x00000000	0.0
144	0x00000000	0.0
145	0x00000000	0.0
146	0x00000000	0.0
147	0x00000000	0.0
148	0x00000000	0.0
149	0x00000000	0.0
150	0x00000000	0.0
151	0x00000000	0.0
152	0x00000000	0.0
153	0x00000000	0.0
154	0x00000000	0.0
155	0x00000000	0.0
156	0x00000000	0.0
157	0x00000000	0.0
158	0x00000000	0.0
159	0x00000000	0.0
160	0x00000000	0.0
161	0x00000000	0.0
162	0x00000000	0.0
163	0x00000000	0.0
164	0x00000000	0.0
165	0x00000000	0.0
166	0x00000000	0.0
167	0x00000000	0.0
168	0x00000000	0.0
169	0x00000000	0.0
170	0x00000000	0.0
171	0x00000000	0.0
172	0x00000000	0.0
173	0x00000000	0.0
174	0x00000000	0.0
175	0x00000000	0.0
176	0x00000000	0.0
177	0x00000000	0.0
178	0x00000000	0.0
179	0x00000000	0.0
180	0x00000000	0.0
181	0x00000000	0.0
182	0x00000000	0.0
183	0x00000000	0.0
184	0x00000000	0.0
185	0x00000000	0.0
186	0x00000000	0.0
187	0x00000000	0.0
188	0x00000000	0.0
189	0x00000000	0.0
190	0x00000000	0.0
191	0x00000000	0.0
192	0x00000000	0.0
193	0x00000000	0.0
194	0x00000000	0.0
195	0x00000000	0.0
196	0x00000000	0.0
197	0x00000000	0.0
198	0x00000000	0.0
199	0x00000000	0.0
200	0x00000000	0.0
201	0x00000000	0.0
202	0x00000000	0.0
203	0x00000000	0.0
204	0x00000000	0.0
205	0x00000000	0.0
206	0x00000000	0.0
207	0x00000000	0.0
208	0x00000000	0.0
209	0x00000000	0.0
210	0x00000000	0.0
211	0x00000000	0.0
212	0x00000000	0.0
213	0x00000000	0.0
214	0x00000000	0.0
215	0x00000000	0.0
216	0x00000000	0.0
217	0x00000000	0.0
218	0x00000000	0.0
219	0x00000000	0.0
220	0x00000000	0.0
221	0x00000000	0.0
222	0x00000000	0.0
223	0x00000000	0.0
224	0x00000000	0.0
225	0x00000000	0.0
226	0x00000000	0.0
227	0x00000000	0.0
228	0x00000000	0.0
229	0x00000000	0.0
230	0x00000000	0.0
231	0x00000000	0.0
232	0x00000000	0.0
233	0x00000000	0.0
234	0x00000000	0.0
235	0x00000000	0.0
236	0x00000000	0.0
237	0x00000000	0.0
238	0x00000000	0.0
239	0x00000000	0.0
240	0x00000000	0.0
241	0x00000000	0.0
242	0x00000000	0.0
243	0x00000000	0.0
244	0x00000000	0.0
245	0x00000000	0.0
246	0x00000000	0.0
247	0x00000000	0.0
248	0x00000000	0.0
249	0x00000000	0.0
250	0x00000000	0.0
251	0x00000000	0.0
252	0x00000000	0.0
253	0x00000000	0.0
254	0x00000000	0.0
255	0x00000000	0.0

lstm.bias_hh_l0 f4 [256]
0	0x00000000	0.0
1	0x00000000	0.0
2	0x00000000	0.0
3	0x00000000	0.0
4	0x00000000	0.0
5	0x00000000	0.0
6	0x00000000	0.0
7	0x00000000	0.0
8	0x00000000	0.0
9	0x00000000	0.0
10	0x00000000	0.0
11	0x00000000	0.0
12	0x00000000	0.0
13	0x00000000	0.0
14	0x00000000	0.0
15	0x00000000	0.0
16	0x00000000	0.0
17	0x00000000	0.0
18	0x00000000	0.0
19	0x00000000	0.0
20	0x00000000	0.0
21	0x00000000	0.0
22	0x00000000	0.0
23	0x00000000	0.0
24	0x00000000	0.0
25	0x00000000	0.0
26	0x00000000	0.0
27	0x00000000	0.0
28	0x00000000	0.0
29	0x00000000	0.0
30	0x00000000	0.0
31	0x00000000	0.0
32	0x00000000	0.0
33	0x00000000	0.0
34	0x00000000	0.0
35	0x00000000	0.0
36	0x00000000	0.0
37	0x00000000	0.0
38	0x00000000	0.0
39	0x00000000	0.0
40	0x00000000	0.0
41	0x00000000	0.0
42	0x00000000	0.0
43	0x00000000	0.0
44	0x00000000	0.0
45	0x00000000	0.0
46	0x00000000	0.0
47	0x00000000	0.0
48	0x00000000	0.0
49	0x00000000	0.0
50	0x00000000	0.0
51	0x00000000	0.0
52	0x00000000	0.0
53	0x00000000	0.0
54	0x00000000	0.0
55	0x00000000	0.0
56	0x00000000	0.0
57	0x00000000	0.0
58	0x00000000	0.0
59	0x00000000	0.0
60	0x00000000	0.0
61	0x00000000	0.0
62	0x00000000	0.0
63	0x00000000	0.0
64	0x00000000	0.0
65	0x00000000	0.0
66	0x00000000	0.0
67	0x00000000	0.0
68	0x00000000	0.0
69	0x00000000	0.0
70	0x00000000	0.0
71	0x00000000	0.0
72	0x00000000	0.0
73	0x00000000	0.0
74	0x00000000	0.0
75	0x00000000	0.0
76	0x00000000	0.0
77	0x00000000	0.0
78	0x00000000	0.0
79	0x00000000	0.0
80	0x00000000	0.0
81	0x00000000	0.0
82	0x00000000	0.0
83	0x00000000	0.0
84	0x00000000	0.0
85	0x00000000	0.0
86	0x00000000	0.0
87	0x00000000	0.0
88	0x00000000	0.0
89	0x00000000	0.0
90	0x00000000	0.0
91	0x00000000	0.0
92	0x00000000	0.0
93	0x00000000	0.0
94	0x00000000	0.0
95	0x00000000	0.0
96	0x00000000	0.0
97	0x00000000	0.0
98	0x00000000	0.0
99	0x00000000	0.0
100	0x00000000	0.0
101	0x00000000	0.0
102	0x00000000	0.0
103	0x00000000	0.0
104	0x00000000	0.0
105	0x00000000	0.0
106	0x00000000	0.0
107	0x00000000	0.0
108	0x00000000	0.0
109	0x00000000	0.0
110	0x00000000	0.0
111	0x00000000	0.0
112	0x00000000	0.0
113	0x00000000	0.0
114	0x00000000	0.0
115	0x00000000	0.0
116	0x00000000	0.0
117	0x00000000	0.0
118	0x00000000	0.0
119	0x00000000	0.0
120	0x00000000	0.0
121	0x00000000	0.0
122	0x00000000	0.0
123	0x00000000	0.0
124	0x00000000	0.0
125	0x00000000	0.0
126	0x00000000	0.0
127	0x00000000	0.0
128	0x00000000	0.0
129	0x00000000	0.0
130	0x00000000	0.0
131	0x00000000	0.0
132	0x00000000	0.0
133	0x00000000	0.0
134	0x00000000	0.0
135	0x00000000	0.0
136	0x00000000	0.0
137	0x00000000	0.0
138	0x00000000	0.0
139	0x00000000	0.0
140	0x00000000	0.0
141	0x00000000	0.0
142	0x00000000	0.0
143	0x00000000	0.0
144	0x00000000	0.0
145	0x00000000	0.0
146	0x00000000	0.0
147	0x00000000	0.0
148	0x00000000	0.0
149	0x00000000	0.0
150	0x00000000	0.0
151	0x00000000	0.0
152	0x00000000	0.0
153	0x00000000	0.0
154	0x00000000	0.0
155	0x00000000	0.0
156	0x00000000	0.0
157	0x00000000	0.0
158	0x00000000	0.0
159	0x00000000	0.0
160	0x00000000	0.0
161	0x00000000	0.0
162	0x00000000	0.0
163	0x00000000	0.0
164	0x00000000	0.0
165	0x00000000	0.0
166	0x00000000	0.0
167	0x00000000	0.0
168	0x00000000	0.0
169	0x00000000	0.0
170	0x00000000	0.0
171	0x00000000	0.0
172	0x00000000	0.0
173	0x00000000	0.0
174	0x00000000	0.0
175	0x00000000	0.0
176	0x00000000	0.0
177	0x00000000	0.0
178	0x00000000	0.0
179	0x00000000	0.0
180	0x00000000	0.0
181	0x00000000	0.0
182	0x00000000	0.0
183	0x00000000	0.0
184	0x00000000	0.0
185	0x00000000	0.0
186	0x00000000	0.0
187	0x00000000	0.0
188	0x00000000	0.0
189	0x00000000	0.0
190	0x00000000	0.0
191	0x00000000	0.0
192	0x00000000	0.0
193	0x00000000	0.0
194	0x00000000	0.0
195	0x00000000	0.0
196	0x00000000	0.0
197	0x00000000	0.0
198	0x00000000	0.0
199	0x00000000	0.0
200	0x00000000	0.0
201	0x00000000	0.0
202	0x00000000	0.0
203	0x00000000	0.0
204	0x00000000	0.0
205	0x00000000	0.0
206	0x00000000	0.0
207	0x00000000	0.0
208	0x00000000	0.0
209	0x00000000	0.0
210	0x00000000	0.0
211	0x00000000	0.0
212	0x00000000	0.0
213	0x00000000	0.0
214	0x00000000	0.0
215	0x00000000	0.0
216	0x00000000	0.0
217	0x00000000	0.0
218	0x00000000	0.0
219	0x00000000	0.0
220	0x00000000	0.0
221	0x00000000	0.0
222	0x00000000	0.0
223	0x00000000	0.0
224	0x00000000	0.0
225	0x00000000	0.0
226	0x00000000	0.0
227	0x00000000	0.0
228	0x00000000	0.0
229	0x00000000	0.0
230	0x00000000	0.0
231	0x00000000	0.0
232	0x00000000	0.0
233	0x00000000	0.0
234	0x00000000	0.0
235	0x00000000	0.0
236	0x00000000	0.0
237	0x00000000	0.0
238	0x00000000	0.0
239	0x00000000	0.0
240	0x00000000	0.0
241	0x00000000	0.0
242	0x00000000	0.0
243	0x00000000	0.0
244	0x00000000	0.0
245	0x00000000	0.0
246	0x00000000	0.0
247	0x00000000	0.0
248	0x00000000	0.0
249	0x00000000	0.0
250	0x00000000	0.0
251	0x00000000	0.0
252	0x00000000	0.0
253	0x00000000	0.0
254	0x00000000	0.0
255	0x00000000	0.0

lstm.weight_ih_l0_reverse f4 [256, 2]
0	0x3f08c133	0.534198
1	0x3f8c178d	1.0944687
2	0xbfa230c3	-1.2671131
3	0xbf20fb95	-0.62883884
4	0x3f30f22d	0.6911953
5	0xbfbae900	-1.4602356
6	0xbfb957ee	-1.4479959
7	0xbfca1e7a	-1.5790551
8	0xbed8dcf7	-0.42356083
9	0x3df70147	0.120607905
10	0xbea29b6f	-0.3175921
11	0xbc64e6be	-0.013971029
12	0x3df3075f	0.1186664
13	0xbf848033	-1.0351623
14	0xbf94f904	-1.1638494
15	0x3fa91e5b	1.3212389
16	0x3f92b6e3	1.1462063
17	0xbe35b3f5	-0.1774443
18	0xbf1a30c4	-0.6023066
19	0x3f5eadb0	0.86983776
20	0xbf9e111b	-1.234897
21	0xbfd6d725	-1.6784407
22	0xbf598dec	-0.8498218
23	0xbf968a14	-1.1760888
24	0x3ce252d5	0.027627388
25	0x3f52066a	0.8204104
26	0x3f306b36	0.6891359
27	0x3f6ee85d	0.9332331
28	0xbfb851cf	-1.4399966
29	0xbfabfb20	-1.3436012
30	0xbf963327	-1.173436
31	0xbfb9fddf	-1.45306
32	0xbfa805b7	-1.3126744
33	0x3fd78c3c	1.6839671
34	0x3fcf19fb	1.6179804
35	0x3fd220b7	1.6416234
36	0x3f9e387f	1.2360991
37	0x3ed42b7d	0.4143943
38	0xbf480d34	-0.78145146
39	0x3ef59c80	0.47970963
40	0x3e0fcea2	0.14043668
41	0x3fd1c398	1.6387815
42	0x3f8bc931	1.0920774
43	0xbf71f40b	-0.94513005
44	0xbfb4fa89	-1.4138957
45	0x3e63e195	0.22254021
46	0xbfb78e99	-1.4340392
47	0xbfdca872	-1.7238905
48	0x3fd05c3e	1.627815
49	0xbd4bf057	-0.049789753
50	0x3f98c590	1.1935291
51	0x3f20cf7e	0.6281661
52	0x3fcf5c45	1.6200033
53	0xbfab6c32	-1.3392394
54	0x3f4063c2	0.7515222
55	0xbee5492c	-0.44782388
56	0xbf87b08e	-1.0600755
57	0x3d707740	0.058707476
58	0xbf6bb7f9	-0.92077595
59	0xbfd7f4b0	-1.6871548
60	0x3f1d6617	0.614839
61	0x3fb4db7a	1.4129479
62	0x3f309f09	0.6899267
63	0xbf1db9e1	-0.61611754
64	0xbf68b258	-0.9089713
65	0x3fb213b4	1.3912263
66	0x3f31fcfe	0.6952666
67	0xbf3bf824	-0.7342551
68	0x3f80f66b	1.0075201
69	0x3fcf5978	1.6199179
70	0x3f448c4b	0.7677657
71	0x3f0b34fc	0.5437772
72	0x3e811f75	0.25219312
73	0xbfc89c4d	-1.5672699
74	0x3d173c19	0.036922548
75	0xbf5c2ba7	-0.8600411
76	0x3ead3e9f	0.3383684
77	0xbf1eb8cd	-0.62000734
78	0x3fc73104	1.5561833
79	0xbfa98481	-1.3243562
80	0x3fdcc06b	1.7246221
81	0x3f721023	0.9455587
82	0x3f83bf82	1.0292819
83	0x3dbfc74e	0.09364186
84	0x3f547c2e	0.83001983
85	0xbf246d47	-0.64229244
86	0xbfb8ca13	-1.4436668
87	0x3e915b7d	0.28390113
88	0x3d0b494c	0.03400545
89	0x3f7798ab	0.9671733
90	0xbf38d656	-0.7220205
91	0xbec269b9	-0.37971285
92	0xbfc22ae6	-1.5169342
93	0x3d4aab26	0.049479626
94	0xbf5c6aa8	-0.86100245
95	0xbd4de32c	-0.050265476
96	0x3faa8bf2	1.3323958
97	0x3fd5b3fd	1.6695553
98	0x3fc5a3bc	1.5440593
99	0x3c53f317	0.012936375
100	0xbe55b148	-0.20868409
101	0xbfbaf19b	-1.4604982
102	0x3fa87085	1.3159338
103	0x3fb6fb89	1.4295512
104	0x3f069120	0.52565193
105	0xbeef7835	-0.46771398
106	0x3fc77b00	1.5584412
107	0xbfaaf663	-1.3356441
108	0x3f64cba0	0.8937321
109	0xbfb4f2a8	-1.4136553
110	0x3fa5e9fc	1.2962031
111	0xbfafa463	-1.3722042
112	0x3ebdc4ce	0.37064213
113	0x3f81d6ac	1.0143638
114	0x3f9e25e9	1.2355319
115	0x3e70e5ab	0.23525111
116	0xbd197088	-0.037460834
117	0x3fba15e4	1.453793
118	0xbf90130c	-1.1255813
119	0x3ed6b046	0.4193136
120	0xbf4fc8cf	-0.81165785
121	0x3da3b8b5	0.079942144
122	0xbfbb4877	-1.463149
123	0x3fc9698b	1.5735334
124	0xbf5f8b0a	-0.8732153
125	0x3f0b215a	0.54347765
126	0x3eed7f19	0.4638603
127	0x3fcfe525	1.6241804
128	0xbfc36e59	-1.526805
129	0x3f5beb8d	0.85906297
130	0x3f9bf144	1.2183003
131	0x3f697ece	0.91209114
132	0xbfd89d5b	-1.6923021
133	0xbf8d8b73	-1.1058182
134	0x3f3dace8	0.7409196
135	0x3f3451fb	0.7043759
136	0xbd994b58	-0.07485074
137	0xbfdb4806	-1.7131355
138	0x3fc9b14e	1.5757234
139	0xbe6cf4db	-0.2314028
140	0x3f8e9181	1.1138154
141	0x3f80add4	1.0053048
142	0x3fdb4095	1.7129084
143	0xbece3d6a	-0.4028123
144	0x3f332008	0.6997075
145	0x3fd163c0	1.6358566
146	0xbf8586b2	-1.0431731
147	0xbf4f0bef	-0.80877584
148	0xbf26762c	-0.65024066
149	0x3fa98e6d	1.324659
150	0xbfa4b708	-1.2868357
151	0x3f548c29	0.8302637
152	0x3ed1f21b	0.41005024
153	0xbf9ebedb	-1.2401994
154	0xbf97dfbf	-1.1865157
155	0x3fda234b	1.704202
156	0x3f1599ee	0.58438003
157	0x3edcbad5	0.43111292
158	0xbf43b6ed	-0.76451
159	0x3d82e5e1	0.06391502
160	0xbf4e7864	-0.8065245
161	0xbec273bc	-0.37978923
162	0xbf5e21bf	-0.8677024
163	0xbf7ba023	-0.98291224
164	0xbfab4393	-1.3379997
165	0xbec39a97	-0.3820388
166	0xbf934b79	-1.1507407
167	0xbe779719	-0.24178733
168	0xbf92dc10	-1.1473408
169	0xbfd9afd8	-1.7006788
170	0xbec2c810	-0.3804326
171	0xbf90b600	-1.1305542
172	0x3f91caec	1.1390052
173	0xbfda90f0	-1.7075481
174	0x3faf3a6c	1.3689704
175	0xbf8fb117	-1.1225919
176	0x3fddacc7	1.7318352
177	0x3f3e1602	0.7425233
178	0x3decb4c5	0.115579166
179	0xbf043353	-0.51640815
180	0x3fc33b2d	1.5252434
181	0xbd5ad0cc	-0.05342178
182	0x3e205ffe	0.15661618
183	0x3f9cbff3	1.2246078
184	0x3f1466fe	0.57969654
185	0xbfbd9c3e	-1.4813306
186	0xbe9f5edd	-0.31127062
187	0x3fc5087e	1.5393217
188	0x3d9922ea	0.074773625
189	0xbe0e6a12	-0.1390765
190	0xbf2d5261	-0.67703825
191	0x3fc8b75a	1.5680954
192	0x3f762c20	0.9616108
193	0xbf486b4c	-0.7828872
194	0x3f19d04f	0.6008348
195	0xbf5561d1	-0.8335238
196	0xbee28149	-0.44239262
197	0x3c671554	0.014104206
198	0xbfb3f8c1	-1.4060289
199	0x3ef422ac	0.47682703
200	0x3dc357c5	0.09538225
201	0x3f9fb57e	1.2477262
202	0xbe5fcdc0	-0.21855831
203	0x3c896297	0.016770644
204	0x3f438f4e	0.7639054
205	0x3f2f7206	0.6853336
206	0xbfb42e74	-1.4076676
207	0x3ef5ef58	0.48034167
208	0x3e7fdb49	0.24985994
209	0xbd6be0d0	-0.057587445
210	0xbf0f8433	-0.56061095
211	0x3ec64126	0.3872158
212	0x3eceeacb	0.40413508
213	0xbf77f6b0	-0.9686079
214	0xbfd9e665	-1.7023436
215	0xbf6a3724	-0.9149039
216	0x3fa51172	1.2895949
217	0xbccc924a	-0.0249721
218	0x3fa46871	1.2844373
219	0x3fc24162	1.5176203
220	0x3f09c817	0.5382094
221	0x3f6e03e9	0.92974716
222	0xbf58a9db	-0.8463418
223	0x3d579f98	0.052642435
224	0x3fc6e75f	1.5539359
225	0x3f67ba74	0.9051888
226	0xbfd789f0	-1.683897
227	0xbf8afc0e	-1.0858171
228	0x3f737871	0.95105654
229	0xbd3d04d8	-0.046147197
230	0xbfcfc410	-1.6231709
231	0xbf067e1c	-0.5253618
232	0xbf8c5fa3	-1.0966686
233	0xbfbc77a8	-1.4724016
234	0xbf047edf	-0.5175609
235	0x3d3a1b4e	0.045436196
236	0x3f841d87	1.0321511
237	0x3f774928	0.96596
238	0x3fbe6ec6	1.4877555
239	0xbfab70c5	-1.339379
240	0x3dd0f7b0	0.10203493
241	0x3f384fe1	0.71996886
242	0x3f4f63a2	0.810114
243	0xbf844f28	-1.0336657
244	0xbf5e6960	-0.8687954
245	0x3f91b634	1.1383729
246	0x3edaa48c	0.42703664
247	0x3f18bdce	0.5966462
248	0x3f45cc3c	0.7726476
249	0x3d598c94	0.05311258
250	0xbee3dcd1	-0.44504407
251	0xbfacb421	-1.3492471
252	0x3f89b79f	1.0759162
253	0x3ea5c4f3	0.32376823
254	0xbe2dca83	-0.16971783
255	0xbfb21506	-1.3912666

lstm.weight_hh_l0_reverse f4 [256, 64]
0	0x3d85773a	0.06516881
1	0xbe88b21d	-0.2669839
2	0xbe519e91	-0.20470645
3	0xbe7854ad	-0.24251051
4	0x3e6f1c1a	0.23350564
5	0x3e414f86	0.18877992
6	0xbe563403	-0.20918278
7	0xbd81f063	-0.06344678
8	0xbe6e0826	-0.23245296
9	0xbe10701f	-0.14105271
10	0x3d207524	0.039174214
11	0x3d4bdea1	0.049772862
12	0x3e8cc7f5	0.27496305
13	0x3d8f777a	0.0700521
14	0xbe1cda1a	-0.15317574
15	0xbd34bf21	-0.044127587
16	0x3e7d83f3	0.24757366
17	0xbda21652	-0.079144135
18	0xbe73d603	-0.23812108
19	0xbe462b92	-0.19352558
20	0x3e92d05a	0.28674585
21	0x3e8a9520	0.27066898
22	0x3cda7d56	0.026671093
23	0xbdb2679c	-0.08711168
24	0x3de2f001	0.11080933
25	0xbd63ae12	-0.05558593
26	0x3e55d617	0.2088245
27	0xbe8f421e	-0.2798013
28	0xbe8920ed	-0.26782933
29	0x3cb45d6b	0.022017201
30	0xbc8f7336	-0.017510992
31	0x3c755a6e	0.014975173
32	0xbd4e51d5	-0.05037101
33	0xbe93e65f	-0.28886697
34	0x3e78e5e4	0.24306446
35	0xbe16cc17	-0.14726292
36	0xbe2e73e1	-0.17036392
37	0xbe376327	-0.17908917
38	0x3e7d3fe7	0.24731408
39	0xbd619bf2	-0.05508036
40	0xbd351535	-0.044209678
41	0x3e5c3abb	0.21506779
42	0x3c5b2dda	0.013377631
43	0x3e82ecdd	0.25571337
44	0xbbd5a2fc	-0.0065196734
45	0x3e83e376	0.25759476
46	0xbbab1e86	-0.0052221445
47	0xbe36531d	-0.17805143
48	0x3e747c5e	0.23875567
49	0x3d973f42	0.07385112
50	0xbe60fa22	-0.21970418
51	0x3e3b8c0a	0.1831514
52	0x3e8bbd94	0.27293074
53	0xbe6548cb	-0.2239105
54	0x3e2b885e	0.16751239
55	0xbe47aeef	-0.19500326
56	0xbdaa1aab	-0.08305868
57	0xbe4381b9	-0.19092454
58	0xbdf856bb	-0.121259175
59	0x3e60f69e	0.21969077
60	0x3e8f9285	0.28041473
61	0x3e8d7b6f	0.27633235
62	0xbac6a5dc	-0.0015155631
63	0x3e943d0d	0.28952828
64	0xbe32a398	-0.17445219
65	0x3ceeabff	0.029134749
66	0xbe77e88e	-0.24209806
67	0xbe858a64	-0.26082146
68	0x3e913d70	0.28367186
69	0xbe737b58	-0.2377752
70	0xbd5600b7	-0.052246775
71	0x3e765cc2	0.24058822
72	0x3dd65664	0.104656965
73	0xbe20ff4d	-0.1572239
74	0x3db6d8e9	0.08928091
75	0xbe6ce50f	-0.23134254
76	0x3e139c2f	0.14415048
77	0xbe4c4d41	-0.19951345
78	0xbe23a80d	-0.15982075
79	0xbc8c6050	-0.01713577
80	0xbe3a2707	-0.1817895
81	0x3cc48f42	0.023994092
82	0x3daa88b9	0.08326859
83	0xbd15f019	-0.036605928
84	0x3d921d96	0.07134549
85	0xbd153320	-0.03642571
86	0xbdec0180	-0.115237236
87	0x3e8371a3	0.25672635
88	0x3d272ab1	0.040812198
89	0x3e1be6e3	0.15224795
90	0xbe4024bc	-0.18764013
91	0xbe21f66b	-0.15816657
92	0x3e6172fa	0.22016516
93	0xbd01156b	-0.031514566
94	0xbd61bc9d	-0.055111516
95	0xbe770a77	-0.24125086
96	0xbd41482c	-0.04718797
97	0xbd1f67c1	-0.038917307
98	0xbe85781d	-0.26068202
99	0x3e88b79a	0.26702577
100	0xbc7c5865	-0.015401934
101	0xbe46c9fd	-0.1941299
102	0xbe935a20	-0.28779697
103	0xbe391352	-0.18073776
104	0x3e7b59fe	0.24546048
105	0xbcab3f70	-0.020904273
106	0xbe819864	-0.25311577
107	0x3dd095a2	0.1018479
108	0xbe84d8b3	-0.25946578
109	0x3e213183	0.15741543
110	0x3d592bce	0.05302029
111	0xb9d4bb82	-0.00040575495
112	0x3e1ffa02	0.15622714
113	0x3e93665a	0.28789026
114	0xbdbc9260	-0.09207606
115	0xbe75a696	-0.23989329
116	0x3e3e1672	0.1856325
117	0x3e9bdf2e	0.3044371
118	0xbe710ad1	-0.23539282
119	0x3e15b992	0.1462157
120	0x3e3f8ce9	0.18706097
121	0x3ae7b265	0.0017677067
122	0xbe9a0e24	-0.30088913
123	0xbe8169e5	-0.25276104
124	0xbe004dba	-0.1252965
125	0xbdf91c9f	-0.12163662
126	0xbe152167	-0.14563523
127	0x3e454797	0.1926559
128	0xbd34450f	-0.044011172
129	0x3e465605	0.19368751
130	0xbe198c7f	-0.14995001
131	0x3e89f18a	0.26942092
132	0xbe978941	-0.29596904
133	0xbded7b4e	-0.11595784
134	0xbe39b422	-0.18135121
135	0x3dc0cd69	0.09414179
136	0x3e33496e	0.1750848
137	0xbbda91d9	-0.0066702184
138	0xbd493967	-0.04912701
139	0xbdc69e37	-0.09698146
140	0x3cc18367	0.023622228
141	0x3e858b7a	0.26082975
142	0xbc1ad431	-0.009450004
143	0x3d018292	0.031618662
144	0xbe2fee06	-0.17180642
145	0x3e1ec091	0.15503146
146	0xbe2eb6f2	-0.17061976
147	0xbe37e1ff	-0.17957304
148	0x3e96aa00	0.29426575
149	0x3e203c5a	0.15648022
150	0x3decad87	0.11556535
151	0xbd7cd06c	-0.061722204
152	0x3e6b0c50	0.22953916
153	0xbe97fad7	-0.29683563
154	0xbe841d69	-0.25803688
155	0x3d63cb01	0.05561352
156	0x3e93fdcd	0.28904572
157	0x3d0f671e	0.03501045
158	0x3e6460c0	0.22302532
159	0x3e86c7cd	0.2632431
160	0xbdcc8345	-0.09985975
161	0x3e2fcbca	0.17167583
162	0x3e3cba13	0.18430357
163	0x3e7d163e	0.24715516
164	0x3e84fcdb	0.25974163
165	0x3cc77489	0.02434756
166	0x3dc10047	0.09423881
167	0x3d92cc92	0.07167925
168	0x3d14ae5b	0.03629909
169	0xbe984e80	-0.2974739
170	0x3d2acd93	0.041699957
171	0xbca2b0e8	-0.019859746
172	0xbd82fa88	-0.06395441
173	0x3be4dcbc	0.0069843214
174	0x3e91bf65	0.28466335
175	0xbe458845	-0.19290264
176	0xbe918cec	-0.28427827
177	0xbcd0beea	-0.02548166
178	0xbe538e51	-0.20659758
179	0xbe0c21b6	-0.13684735
180	0xbe82462d	-0.25444165
181	0x3e2d834a	0.16944614
182	0xbe30ecff	-0.17277907
183	0xbce97a1e	-0.028500613
184	0xbe57ffbf	-0.21093653
185	0xbdaf187a	-0.085495904
186	0xbd16387e	-0.03667497
187	0xbdae31ba	-0.08505578
188	0x3e725eeb	0.23669021
189	0xbe57a095	-0.21057351
190	0x3e6838f5	0.22677977
191	0xbe9b016b	-0.3027452
192	0x3dc92eab	0.09823354
193	0xbe90674c	-0.2820381
194	0x3e865497	0.26236412
195	0xbe81c9da	-0.25349313
196	0xbe23f725	-0.16012247
197	0x3d814215	0.06311432
198	0xbe08478b	-0.13308541
199	0x3e8bf636	0.27336282
200	0xbcd3fd23	-0.02587754
201	0xbe44d214	-0.19220763
202	0xbe28f7b1	-0.16500737
203	0x3c267a37	0.010160974
204	0xbdc11191	-0.09427179
205	0x3d432de1	0.047651175
206	0xbd9b624c	-0.07587108
207	0xbda048c3	-0.07826378
208	0x3e664fc9	0.22491373
209	0xbe3b517f	-0.18292807
210	0x3e22b365	0.15888746
211	0xbe0e9b01	-0.13926317
212	0xbe864255	-0.26222482
213	0x3d9d5823	0.07682826
214	0x3c8c2637	0.017108066
215	0x3e854c26	0.2603466
216	0xbc796b15	-0.015223284
217	0x3b997b59	0.0046838936
218	0x3d195252	0.037432022
219	0x3e4c5bcb	0.19956891
220	0x3de814a5	0.11332063
221	0x3e307850	0.17233396
222	0x3e311db9	0.17296495
223	0x3d02b5e8	0.03191176
224	0x3e985497	0.29752037
225	0xbda9b878	-0.08287138
226	0xbe159494	-0.1460746
227	0xbdf94a72	-0.121724024
228	0xbe5102eb	-0.2041127
229	0x3e41159b	0.18855898
230	0x3dbcd4e4	0.09220293
231	0x3bcd8273	0.0062716543
232	0xbc96edf2	-0.018424008
233	0xbe5a404b	-0.21313588
234	0xbe213cec	-0.15745896
235	0xbcf6d3d8	-0.030130312
236	0x3e98fb90	0.29879427
237	0xbdaa7fda	-0.08325167
238	0xbd41689c	-0.047218904
239	0x3e01d7ff	0.12680052
240	0xbde439f1	-0.11143864
241	0x3e5189c5	0.20462711
242	0xbd65ca60	-0.056101203
243	0xbe482c46	-0.19548139
244	0xbe421c13	-0.18956022
245	0xbd9c8d79	-0.07644171
246	0x3e169426	0.14704952
247	0x3e332daf	0.17497896
248	0xbd597674	-0.05309148
249	0xbe1e764c	-0.15474814
250	0x3e061056	0.13092169
251	0x3d59dc17	0.05318841
252	0x3e8d8704	0.2764207
253	0x3dadd6f2	0.08488263
254	0x3d4e7c4c	0.050411507
255	0xbe303dde	-0.172111

lstm.bias_ih_l0_reverse f4 [256]
0	0x00000000	0.0
1	0x00000000	0.0
2	0x00000000	0.0
3	0x00000000	0.0
4	0x00000000	0.0
5	0x00000000	0.0
6	0x00000000	0.0
7	0x00000000	0.0
8	0x00000000	0.0
9	0x00000000	0.0
10	0x00000000	0.0
11	0x00000000	0.0
12	0x00000000	0.0
13	0x00000000	0.0
14	0x00000000	0.0
15	0x00000000	0.0
16	0x00000000	0.0
17	0x00000000	0.0
18	0x00000000	0.0
19	0x00000000	0.0
20	0x00000000	0.0
21	0x00000000	0.0
22	0x00000000	0.0
23	0x00000000	0.0
24	0x00000000	0.0
25	0x00000000	0.0
26	0x00000000	0.0
27	0x00000000	0.0
28	0x00000000	0.0
29	0x00000000	0.0
30	0x00000000	0.0
31	0x00000000	0.0
32	0x00000000	0.0
33	0x00000000	0.0
34	0x00000000	0.0
35	0x00000000	0.0
36	0x00000000	0.0
37	0x00000000	0.0
38	0x00000000	0.0
39	0x00000000	0.0
40	0x00000000	0.0
41	0x00000000	0.0
42	0x00000000	0.0
43	0x00000000	0.0
44	0x00000000	0.0
45	0x00000000	0.0
46	0x00000000	0.0
47	0x00000000	0.0
48	0x00000000	0.0
49	0x00000000	0.0
50	0x00000000	0.0
51	0x00000000	0.0
52	0x00000000	0.0
53	0x00000000	0.0
54	0x00000000	0.0
55	0x00000000	0.0
56	0x00000000	0.0
57	0x00000000	0.0
58	0x00000000	0.0
59	0x00000000	0.0
60	0x00000000	0.0
61	0x00000000	0.0
62	0x00000000	0.0
63	0x00000000	0.0
64	0x00000000	0.0
65	0x00000000	0.0
66	0x00000000	0.0
67	0x00000000	0.0
68	0x00000000	0.0
69	0x00000000	0.0
70	0x00000000	0.0
71	0x00000000	0.0
72	0x00000000	0.0
73	0x00000000	0.0
74	0x00000000	0.0
75	0x00000000	0.0
76	0x00000000	0.0
77	0x00000000	0.0
78	0x00000000	0.0
79	0x00000000	0.0
80	0x00000000	0.0
81	0x00000000	0.0
82	0x00000000	0.0
83	0x00000000	0.0
84	0x00000000	0.0
85	0x00000000	0.0
86	0x00000000	0.0
87	0x00000000	0.0
88	0x00000000	0.0
89	0x00000000	0.0
90	0x00000000	0.0
91	0x00000000	0.0
92	0x00000000	0.0
93	0x00000000	0.0
94	0x00000000	0.0
95	0x00000000	0.0
96	0x00000000	0.0
97	0x00000000	0.0
98	0x00000000	0.0
99	0x00000000	0.0
100	0x00000000	0.0
101	0x00000000	0.0
102	0x00000000	0.0
103	0x00000000	0.0
104	0x00000000	0.0
105	0x00000000	0.0
106	0x00000000	0.0
107	0x00000000	0.0
108	0x00000000	0.0
109	0x00000000	0.0
110	0x00000000	0.0
111	0x00000000	0.0
112	0x00000000	0.0
113	0x00000000	0.0
114	0x00000000	0.0
115	0x00000000	0.0
116	0x00000000	0.0
117	0x00000000	0.0
118	0x00000000	0.0
119	0x00000000	0.0
120	0x00000000	0.0
121	0x00000000	0.0
122	0x00000000	0.0
123	0x00000000	0.0
124	0x00000000	0.0
125	0x00000000	0.0
126	0x00000000	0.0
127	0x00000000	0.0
128	0x00000000	0.0
129	0x00000000	0.0
130	0x00000000	0.0
131	0x00000000	0.0
132	0x00000000	0.0
133	0x00000000	0.0
134	0x00000000	0.0
135	0x00000000	0.0
136	0x00000000	0.0
137	0x00000000	0.0
138	0x00000000	0.0
139	0x00000000	0.0
140	0x00000000	0.0
141	0x00000000	0.0
142	0x00000000	0.0
143	0x00000000	0.0
144	0x00000000	0.0
145	0x00000000	0.0
146	0x00000000	0.0
147	0x00000000	0.0
148	0x00000000	0.0
149	0x00000000	0.0
150	0x00000000	0.0
151	0x00000000	0.0
152	0x00000000	0.0
153	0x00000000	0.0
154	0x00000000	0.0
155	0x00000000	0.0
156	0x00000000	0.0
157	0x00000000	0.0
158	0x00000000	0.0
159	0x00000000	0.0
160	0x00000000	0.0
161	0x00000000	0.0
162	0x00000000	0.0
163	0x00000000	0.0
164	0x00000000	0.0
165	0x00000000	0.0
166	0x00000000	0.0
167	0x00000000	0.0
168	0x00000000	0.0
169	0x00000000	0.0
170	0x00000000	0.0
171	0x00000000	0.0
172	0x00000000	0.0
173	0x00000000	0.0
174	0x00000000	0.0
175	0x00000000	0.0
176	0x00000000	0.0
177	0x00000000	0.0
178	0x00000000	0.0
179	0x00000000	0.0
180	0x00000000	0.0
181	0x00000000	0.0
182	0x00000000	0.0
183	0x00000000	0.0
184	0x00000000	0.0
185	0x00000000	0.0
186	0x00000000	0.0
187	0x00000000	0.0
188	0x00000000	0.0
189	0x00000000	0.0
190	0x00000000	0.0
191	0x00000000	0.0
192	0x00000000	0.0
193	0x00000000	0.0
194	0x00000000	0.0
195	0x00000000	0.0
196	0x00000000	0.0
197	0x00000000	0.0
198	0x00000000	0.0
199	0x00000000	0.0
200	0x00000000	0.0
201	0x00000000	0.0
202	0x00000000	0.0
203	0x00000000	0.0
204	0x00000000	0.0
205	0x00000000	0.0
206	0x00000000	0.0
207	0x00000000	0.0
208	0x00000000	0.0
209	0x00000000	0.0
210	0x00000000	0.0
211	0x00000000	0.0
212	0x00000000	0.0
213	0x00000000	0.0
214	0x00000000	0.0
215	0x00000000	0.0
216	0x00000000	0.0
217	0x00000000	0.0
218	0x00000000	0.0
219	0x00000000	0.0
220	0x00000000	0.0
221	0x00000000	0.0
222	0x00000000	0.0
223	0x00000000	0.0
224	0x00000000	0.0
225	0x00000000	0.0
226	0x00000000	0.0
227	0x00000000	0.0
228	0x00000000	0.0
229	0x00000000	0.0
230	0x00000000	0.0
231	0x00000000	0.0
232	0x00000000	0.0
233	0x00000000	0.0
234	0x00000000	0.0
235	0x00000000	0.0
236	0x00000000	0.0
237	0x00000000	0.0
238	0x00000000	0.0
239	0x00000000	0.0
240	0x00000000	0.0
241	0x00000000	0.0
242	0x00000000	0.0
243	0x00000000	0.0
244	0x00000000	0.0
245	0x00000000	0.0
246	0x00000000	0.0
247	0x00000000	0.0
248	0x00000000	0.0
249	0x00000000	0.0
250	0x00000000	0.0
251	0x00000000	0.0
252	0x00000000	0.0
253	0x00000000	0.0
254	0x00000000	0.0
255	0x00000000	0.0

lstm.bias_hh_l0_reverse f4 [256]
0	0x00000000	0.0
1	0x00000000	0.0
2	0x00000000	0.0
3	0x00000000	0.0
4	0x00000000	0.0
5	0x00000000	0.0
6	0x00000000	0.0
7	0x00000000	0.0
8	0x00000000	0.0
9	0x00000000	0.0
10	0x00000000	0.0
11	0x00000000	0.0
12	0x00000000	0.0
13	0x00000000	0.0
14	0x00000000	0.0
15	0x00000000	0.0
16	0x00000000	0.0
17	0x00000000	0.0
18	0x00000000	0.0
19	0x00000000	0.0
20	0x00000000	0.0
21	0x00000000	0.0
22	0x00000000	0.0
23	0x00000000	0.0
24	0x00000000	0.0
25	0x00000000	0.0
26	0x00000000	0.0
27	0x00000000	0.0
28	0x00000000	0.0
29	0x00000000	0.0
30	0x00000000	0.0
31	0x00000000	0.0
32	0x00000000	0.0
33	0x00000000	0.0
34	0x00000000	0.0
35	0x00000000	0.0
36	0x00000000	0.0
37	0x00000000	0.0
38	0x00000000	0.0
39	0x00000000	0.0
40	0x00000000	0.0
41	0x00000000	0.0
42	0x00000000	0.0
43	0x00000000	0.0
44	0x00000000	0.0
45	0x00000000	0.0
46	0x00000000	0.0
47	0x00000000	0.0
48	0x00000000	0.0
49	0x00000000	0.0
50	0x00000000	0.0
51	0x00000000	0.0
52	0x00000000	0.0
53	0x00000000	0.0
54	0x00000000	0.0
55	0x00000000	0.0
56	0x00000000	0.0
57	0x00000000	0.0
58	0x00000000	0.0
59	0x00000000	0.0
60	0x00000000	0.0
61	0x00000000	0.0
62	0x00000000	0.0
63	0x00000000	0.0
64	0x00000000	0.0
65	0x00000000	0.0
66	0x00000000	0.0
67	0x00000000	0.0
68	0x00000000	0.0
69	0x00000000	0.0
70	0x00000000	0.0
71	0x00000000	0.0
72	0x00000000	0.0
73	0x00000000	0.0
74	0x00000000	0.0
75	0x00000000	0.0
76	0x00000000	0.0
77	0x00000000	0.0
78	0x00000000	0.0
79	0x00000000	0.0
80	0x00000000	0.0
81	0x00000000	0.0
82	0x00000000	0.0
83	0x00000000	0.0
84	0x00000000	0.0
85	0x00000000	0.0
86	0x00000000	0.0
87	0x00000000	0.0
88	0x00000000	0.0
89	0x00000000	0.0
90	0x00000000	0.0
91	0x00000000	0.0
92	0x00000000	0.0
93	0x00000000	0.0
94	0x00000000	0.0
95	0x00000000	0.0
96	0x00000000	0.0
97	0x00000000	0.0
98	0x00000000	0.0
99	0x00000000	0.0
100	0x00000000	0.0
101	0x00000000	0.0
102	0x00000000	0.0
103	0x00000000	0.0
104	0x00000000	0.0
105	0x00000000	0.0
106	0x00000000	0.0
107	0x00000000	0.0
108	0x00000000	0.0
109	0x00000000	0.0
110	0x00000000	0.0
111	0x00000000	0.0
112	0x00000000	0.0
113	0x00000000	0.0
114	0x00000000	0.0
115	0x00000000	0.0
116	0x00000000	0.0
117	0x00000000	0.0
118	0x00000000	0.0
119	0x00000000	0.0
120	0x00000000	0.0
121	0x00000000	0.0
122	0x00000000	0.0
123	0x00000000	0.0
124	0x00000000	0.0
125	0x00000000	0.0
126	0x00000000	0.0
127	0x00000000	0.0
128	0x00000000	0.0
129	0x00000000	0.0
130	0x00000000	0.0
131	0x00000000	0.0
132	0x00000000	0.0
133	0x00000000	0.0
134	0x00000000	0.0
135	0x00000000	0.0
136	0x00000000	0.0
137	0x00000000	0.0
138	0x00000000	0.0
139	0x00000000	0.0
140	0x00000000	0.0
141	0x00000000	0.0
142	0x00000000	0.0
143	0x00000000	0.0
144	0x00000000	0.0
145	0x00000000	0.0
146	0x00000000	0.0
147	0x00000000	0.0
148	0x00000000	0.0
149	0x00000000	0.0
150	0x00000000	0.0
151	0x00000000	0.0
152	0x00000000	0.0
153	0x00000000	0.0
154	0x00000000	0.0
155	0x00000000	0.0
156	0x00000000	0.0
157	0x00000000	0.0
158	0x00000000	0.0
159	0x00000000	0.0
160	0x00000000	0.0
161	0x00000000	0.0
162	0x00000000	0.0
163	0x00000000	0.0
164	0x00000000	0.0
165	0x00000000	0.0
166	0x00000000	0.0
167	0x00000000	0.0
168	0x00000000	0.0
169	0x00000000	0.0
170	0x00000000	0.0
171	0x00000000	0.0
172	0x00000000	0.0
173	0x00000000	0.0
174	0x00000000	0.0
175	0x00000000	0.0
176	0x00000000	0.0
177	0x00000000	0.0
178	0x00000000	0.0
179	0x00000000	0.0
180	0x00000000	0.0
181	0x00000000	0.0
182	0x00000000	0.0
183	0x00000000	0.0
184	0x00000000	0.0
185	0x00000000	0.0
186	0x00000000	0.0
187	0x00000000	0.0
188	0x00000000	0.0
189	0x00000000	0.0
190	0x00000000	0.0
191	0x00000000	0.0
192	0x00000000	0.0
193	0x00000000	0.0
194	0x00000000	0.0
195	0x00000000	0.0
196	0x00000000	0.0
197	0x00000000	0.0
198	0x00000000	0.0
199	0x00000000	0.0
200	0x00000000	0.0
201	0x00000000	0.0
202	0x00000000	0.0
203	0x00000000	0.0
204	0x00000000	0.0
205	0x00000000	0.0
206	0x00000000	0.0
207	0x00000000	0.0
208	0x00000000	0.0
209	0x00000000	0.0
210	0x00000000	0.0
211	0x00000000	0.0
212	0x00000000	0.0
213	0x00000000	0.0
214	0x00000000	0.0
215	0x00000000	0.0
216	0x00000000	0.0
217	0x00000000	0.0
218	0x00000000	0.0
219	0x00000000	0.0
220	0x00000000	0.0
221	0x00000000	0.0
222	0x00000000	0.0
223	0x00000000	0.0
224	0x00000000	0.0
225	0x00000000	0.0
226	0x00000000	0.0
227	0x00000000	0.0
228	0x00000000	0.0
229	0x00000000	0.0
230	0x00000000	0.0
231	0x00000000	0.0
232	0x00000000	0.0
233	0x00000000	0.0
234	0x00000000	0.0
235	0x00000000	0.0
236	0x00000000	0.0
237	0x00000000	0.0
238	0x00000000	0.0
239	0x00000000	0.0
240	0x00000000	0.0
241	0x00000000	0.0
242	0x00000000	0.0
243	0x00000000	0.0
244	0x00000000	0.0
245	0x00000000	0.0
246	0x00000000	0.0
247	0x00000000	0.0
248	0x00000000	0.0
249	0x00000000	0.0
250	0x00000000	0.0
251	0x00000000	0.0
252	0x00000000	0.0
253	0x00000000	0.0
254	0x00000000	0.0
255	0x00000000	0.0
