isoform_quantification/models/model.pt (torch, 110865 bytes, 33 tensors)

lstm.weight_ih_l0 f8 [64, 2]
0	0x3f93f17e00000000	0.01947590708732605
1	0xbfc726d6c0000000	-0.18087276816368103
2	0xbfc1d078c0000000	-0.13917455077171326
3	0xbfb9d1b380000000	-0.10085603594779968
4	0xbfb93c7880000000	-0.09857895970344543
5	0x3fcc63ea80000000	0.22179919481277466
6	0xbfbb641b00000000	-0.10699623823165894
7	0x3fc0fb8200000000	0.1326754093170166
8	0x3fce709280000000	0.2378104329109192
9	0xbfc6cb8c00000000	-0.1780867576599121
10	0xbfaad60c00000000	-0.05241429805755615
11	0xbfab412700000000	-0.05323144793510437
12	0x3fc2f05880000000	0.14795976877212524
13	0x3fa4a08000000000	0.040287017822265625
14	0xbfc1130940000000	-0.13339343667030334
15	0x3fcd66aac0000000	0.2296956479549408
16	0xbfca488140000000	-0.20533767342567444
17	0x3fae71e000000000	0.059462547302246094
18	0xbfb57abd80000000	-0.08390411734580994
19	0x3fc3666480000000	0.15156227350234985
20	0x3fc1cc7340000000	0.13905182480812073
21	0xbfb16dad00000000	-0.06807976961135864
22	0x3f70434800000000	0.003970414400100708
23	0x3f9e16da00000000	0.02938404679298401
24	0x3fc75a86c0000000	0.18245014548301697
25	0xbfc7ffb100000000	-0.1874905824661255
26	0x3fc70cba80000000	0.18007594347000122
27	0xbf9afcae00000000	-0.02635452151298523
28	0xbf94233800000000	-0.01966559886932373
29	0xbfcde44500000000	-0.233528733253479
30	0x3fc0105680000000	0.12549859285354614
31	0x3fb801f200000000	0.09377968311309814
32	0xbf8d3dac00000000	-0.014277786016464233
33	0x3fbbc23680000000	0.10843220353126526
34	0xbf7f78e000000000	-0.0076836347579956055
35	0xbfb563b900000000	-0.08355289697647095
36	0x3fadf0ff00000000	0.05847927927970886
37	0x3f9d75a200000000	0.02876904606819153
38	0x3fa7f0b700000000	0.04675838351249695
39	0x3fc15ff240000000	0.13574054837226868
40	0x3fc2d9f540000000	0.14727655053138733
41	0x3fcd99d640000000	0.23125723004341125
42	0x3fb661e280000000	0.08743110299110413
43	0xbf81bd2800000000	-0.00866156816482544
44	0xbfca9c9980000000	-0.20790404081344604
45	0x3fce60c6c0000000	0.23732838034629822
46	0xbfbb9e1c80000000	-0.1078813374042511
47	0x3fa99a4400000000	0.05000507831573486
48	0xbfc9ff0680000000	-0.20309525728225708
49	0xbfc55497c0000000	-0.16664406657218933
50	0x3fa39ad300000000	0.038290590047836304
51	0x3faa1e0800000000	0.0510103702545166
52	0x3fce88e4c0000000	0.23855265974998474
53	0x3fcf9bf980000000	0.24694746732711792
54	0xbfc52ac740000000	-0.165367990732193
55	0xbf91188600000000	-0.016695111989974976
56	0x3f981ec000000000	0.02355480194091797
57	0x3fc4708c80000000	0.15968471765518188
58	0xbfc4929440000000	-0.1607232391834259
59	0xbfcdfa7b40000000	-0.23420658707618713
60	0x3fc87573c0000000	0.1910843551158905
61	0xbfcf5e9240000000	-0.2450735867023468
62	0x3fcb3f5e80000000	0.21287137269973755
63	0xbfc3e1ea40000000	-0.15533187985420227
64	0xbfb0a0c880000000	-0.06495335698127747
65	0x3fa0c3a600000000	0.03274267911911011
66	0x3fada4d100000000	0.05789807438850403
67	0xbfbea28f00000000	-0.11966794729232788
68	0xbf96ab8c00000000	-0.022138774394989014
69	0xbfc5b168c0000000	-0.16947659850120544
70	0x3fcb4b54c0000000	0.21323642134666443
71	0x3fb41b2d00000000	0.07853966951370239
72	0xbfa1833200000000	-0.034204065799713135
73	0x3fc5a775c0000000	0.1691729724407196
74	0x3fc770ff00000000	0.18313586711883545
75	0x3fcbc46f00000000	0.21693217754364014
76	0x3fc6f8ddc0000000	0.17946979403495789
77	0x3fc8691700000000	0.19070708751678467
78	0xbf93e71a00000000	-0.019436269998550415
79	0x3fc2a83240000000	0.14575794339179993
80	0x3fa03add00000000	0.03169909119606018
81	0x3fb0f07b80000000	0.06616947054862976
82	0xbfcf89f4c0000000	-0.24639758467674255
83	0x3fc8b32500000000	0.19296705722808838
84	0xbfcba31480000000	-0.2159143090248108
85	0xbfbfeb2900000000	-0.12468200922012329
86	0x3fc7ccd900000000	0.18593895435333252
87	0x3fb2b02480000000	0.0730002224445343
88	0x3f98e54e00000000	0.024312227964401245
89	0x3fb2921000000000	0.0725412368774414
90	0x3f9364b400000000	0.018938839435577393
91	0xbfcf3286c0000000	-0.24372944235801697
92	0x3fcffb4040000000	0.24985507130622864
93	0x3fabbf0100000000	0.05419161915779114
94	0x3fba58a300000000	0.10291498899459839
95	0xbfc5969600000000	-0.16865801811218262
96	0xbfc9f9d6c0000000	-0.20293697714805603
97	0xbfba18c900000000	-0.10194069147109985
98	0xbfc18586c0000000	-0.13688740134239197
99	0xbfbfaab180000000	-0.12369832396507263
100	0x3fcb6a1e40000000	0.2141759693622589
101	0xbfb2c55a00000000	-0.07332384586334229
102	0xbfcb57eb00000000	-0.21362054347991943
103	0xbfbb0c9b00000000	-0.10566109418869019
104	0xbf957f5200000000	-0.02099350094795227
105	0xbfa9ae9b00000000	-0.05016025900840759
106	0xbf81f76000000000	-0.008772611618041992
107	0x3fc76988c0000000	0.18290814757347107
108	0x3fbf845400000000	0.12311291694641113
109	0x3f85b1fc00000000	0.010593384504318237
110	0xbfc2f1b200000000	-0.14800095558166504
111	0xbfc4a0ae40000000	-0.16115358471870422
112	0xbf98913800000000	-0.02399146556854248
113	0x3fb987c980000000	0.09972819685935974
114	0xbfc6049200000000	-0.17201447486877441
115	0x3fa3bf0700000000	0.038566797971725464
116	0xbfc5f28c40000000	-0.1714644730091095
117	0xbfca38da80000000	-0.20486003160476685
118	0x3f9e8b8400000000	0.029829084873199463
119	0xbf93b9d600000000	-0.01926359534263611
120	0xbfce67fb40000000	-0.23754826188087463
121	0x3fcaf59700000000	0.21061980724334717
122	0xbfbdc99d00000000	-0.11635762453079224
123	0x3fc581dd00000000	0.16802561283111572
124	0xbfb6676100000000	-0.08751493692398071
125	0x3f95d2a400000000	0.02131134271621704
126	0x3fa1ecec00000000	0.035010695457458496
127	0xbf8252e800000000	-0.008947193622589111

lstm.weight_hh_l0 f8 [64, 16]
0	0x3fb778ae80000000	0.0916852056980133
1	0x3fad627e00000000	0.05739206075668335
2	0xbfc5748a40000000	-0.1676190197467804
3	0xbfb09df000000000	-0.0649099349975586
4	0xbfc65e1500000000	-0.17474615573883057
5	0xbf8872f000000000	-0.011937975883483887
6	0x3fa3111c00000000	0.037239909172058105
7	0xbfb04d0780000000	-0.06367537379264832
8	0x3fca57b480000000	0.20580154657363892
9	0x3fc3d60a00000000	0.1549694538116455
10	0x3f83938400000000	0.009558707475662231
11	0x3fa2735800000000	0.03603625297546387
12	0x3fc1ada9c0000000	0.13811227679252625
13	0xbfb7498580000000	-0.09096559882164001
14	0x3fc6bb61c0000000	0.1775934398174286
15	0x3fb6875b80000000	0.08800289034843445
16	0x3fce5e8d80000000	0.23726052045822144
17	0x3fc1ef7c80000000	0.14012104272842407
18	0x3f9589ee00000000	0.02103397250175476
19	0xbf74cb9000000000	-0.005076944828033447
20	0xbfb0ba2900000000	-0.06534057855606079
21	0x3f5a262000000000	0.001596003770828247
22	0xbfc7bb9ec0000000	-0.1854132115840912
23	0x3fcfef09c0000000	0.24948236346244812
24	0x3fa2a34700000000	0.036401957273483276
25	0xbfc05dab80000000	-0.12785857915878296
26	0x3fc870e940000000	0.19094577431678772
27	0xbfbb316a00000000	-0.10622274875640869
28	0x3fc3303cc0000000	0.1499095857143402
29	0x3faa579d00000000	0.05144968628883362
30	0x3fc7828280000000	0.18367034196853638
31	0xbfbabc5180000000	-0.1044360101222992
32	0x3fcfefcb80000000	0.24950546026229858
33	0x3f8818d800000000	0.011766135692596436
34	0xbfc22da540000000	-0.14201799035072327
35	0xbfc2feaf00000000	-0.1483973264694214
36	0x3fcb587500000000	0.21363699436187744
37	0x3f95485600000000	0.02078375220298767
38	0xbfce76a880000000	-0.2379961609840393
39	0x3f5db1c000000000	0.0018123984336853027
40	0xbfc2375940000000	-0.1423141062259674
41	0x3fb79f6f00000000	0.09227651357650757
42	0xbfca7b2cc0000000	-0.2068839967250824
43	0x3fcbf4ac00000000	0.21840429306030273
44	0xbfb8fc5080000000	-0.09760001301765442
45	0xbfcea46f40000000	-0.23939314484596252
46	0x3fba303e00000000	0.10229861736297607
47	0x3f92511600000000	0.01788744330406189
48	0xbfa1236600000000	-0.033473193645477295
49	0x3fc8f2b7c0000000	0.19490715861320496
50	0x3fc8aa9900000000	0.19270622730255127
51	0x3fce7c8980000000	0.23817557096481323
52	0xbfc38de780000000	-0.152768075466156
53	0xbfc1934680000000	-0.13730698823928833
54	0xbfc52b65c0000000	-0.1653868854045868
55	0x3fb7c92500000000	0.09291297197341919
56	0x3fbca8f080000000	0.11195281147956848
57	0xbfcfba7c40000000	-0.24787858128547668
58	0xbf67cf3000000000	-0.00290641188621521
59	0xbfa16b8c00000000	-0.03402364253997803
60	0xbfbd0d0e00000000	-0.11348044872283936
61	0xbfa32e0400000000	-0.03746044635772705
62	0x3fafb39b00000000	0.06191715598106384
63	0x3fc6a47c40000000	0.17689469456672668
64	0xbf4adb4000000000	-0.0008195936679840088
65	0xbfc358bb40000000	-0.15114536881446838
66	0xbfc6b6ca00000000	-0.17745327949523926
67	0xbfcb89d940000000	-0.2151443064212799
68	0xbfcf811fc0000000	-0.24612805247306824
69	0x3fcc277040000000	0.21995356678962708
70	0x3fb9001880000000	0.097657710313797
71	0x3fca94fd80000000	0.20767182111740112
72	0x3fb4e3e480000000	0.08160236477851868
73	0xbfa202f000000000	-0.03517866134643555
74	0x3fb063bb00000000	0.0640217661857605
75	0x3fce328880000000	0.23591715097427368
76	0x3f98fd6800000000	0.024404168128967285
77	0x3f9db46400000000	0.029008448123931885
78	0xbfc5dcfa80000000	-0.17080622911453247
79	0x3f7e669000000000	0.007422029972076416
80	0x3fc973b0c0000000	0.1988430917263031
81	0x3fcbb0f540000000	0.21633782982826233
82	0x3fad7a7c00000000	0.057575106620788574
83	0x3fc82f8500000000	0.18895018100738525
84	0xbfc7fe6e40000000	-0.18745210766792297
85	0xbfba1a1480000000	-0.1019604504108429
86	0x3fba6f1280000000	0.10325732827186584
87	0x3f73d14000000000	0.004838228225708008
88	0xbfc22ebf80000000	-0.14205163717269897
89	0xbfc10c6380000000	-0.1331905722618103
90	0x3fb4884b80000000	0.08020469546318054
91	0x3fcf33e940000000	0.24377170205116272
92	0xbfb1556a80000000	-0.06770959496498108
93	0x3fc8a443c0000000	0.19251295924186707
94	0x3fc1b73380000000	0.13840335607528687
95	0x3fb41a9480000000	0.07853057980537415
96	0xbfc5515340000000	-0.1665443480014801
97	0x3fc2c9c0c0000000	0.1467820107936859
98	0x3fc1703480000000	0.13623672723770142
99	0xbfc3ef9140000000	-0.15574851632118225
100	0x3fcb904c00000000	0.21534109115600586
101	0x3fc4d00580000000	0.16259831190109253
102	0x3f9bb40e00000000	0.027054041624069214
103	0xbfb8663b80000000	-0.09530994296073914
104	0xbfc2c9e840000000	-0.14678671956062317
105	0x3fc93f1e80000000	0.1972387433052063
106	0x3f962ba000000000	0.02165079116821289
107	0x3fb8e12a00000000	0.09718573093414307
108	0xbfce039d00000000	-0.23448526859283447
109	0x3fc4d24f00000000	0.1626681089401245
110	0xbf5464c000000000	-0.0012447237968444824
111	0x3fcc9d7c80000000	0.22355610132217407
112	0xbfcab05d80000000	-0.208507239818573
113	0xbfce189940000000	-0.23512569069862366
114	0xbf90478000000000	-0.015897750854492188
115	0xbfa6385000000000	-0.043398380279541016
116	0xbfc3fef100000000	-0.15621769428253174
117	0x3fbc74f700000000	0.11115974187850952
118	0xbfcdeab540000000	-0.23372521996498108
119	0xbfb5720380000000	-0.08377096056938171
120	0xbfafcdd000000000	-0.06211709976196289
121	0xbfcefb4c00000000	-0.24204397201538086
122	0x3fa6229d00000000	0.04323282837867737
123	0x3f96602400000000	0.02185112237930298
124	0xbfbe8b3800000000	-0.11931180953979492
125	0xbf9bc87800000000	-0.02713191509246826
126	0xbfcfeaa180000000	-0.24934786558151245
127	0xbf8e502c00000000	-0.014801353216171265
128	0x3fcd48e200000000	0.22878670692443848
129	0xbfc4d666c0000000	-0.16279301047325134
130	0x3fa45a7900000000	0.03975275158882141
131	0x3fc47c00c0000000	0.16003426909446716
132	0xbfb7468180000000	-0.09091958403587341
133	0x3fc14d57c0000000	0.13517281413078308
134	0x3fa5457300000000	0.041545480489730835
135	0xbfb5b77780000000	-0.08483073115348816
136	0xbfbcb58c80000000	-0.11214521527290344
137	0x3fc7d9a180000000	0.18632906675338745
138	0xbfcc9ecd40000000	-0.2235962450504303
139	0xbfbe498400000000	-0.11830925941467285
140	0x3fb7c2fb80000000	0.09281894564628601
141	0xbfa3134900000000	-0.03725650906562805
142	0xbfacc66200000000	-0.056201040744781494
143	0x3fc27bb100000000	0.1443997621536255
144	0x3fb1833f00000000	0.06840890645980835
145	0xbfc3de5e80000000	-0.15522366762161255
146	0x3fca353000000000	0.20474815368652344
147	0x3fa9dd2200000000	0.05051523447036743
148	0xbfcf63b500000000	-0.2452303171157837
149	0x3fb50c1680000000	0.08221569657325745
150	0x3faec80e00000000	0.06012004613876343
151	0x3fa4c44b00000000	0.04056009650230408
152	0xbfcbe3e080000000	-0.21789175271987915
153	0xbfa47b1800000000	-0.040001630783081055
154	0x3fc8690700000000	0.19070518016815186
155	0xbfb676e100000000	-0.08775144815444946
156	0x3f9bbe3200000000	0.027092725038528442
157	0x3fcef8c6c0000000	0.24196705222129822
158	0x3fc7f8fa00000000	0.1872856616973877
159	0xbfcf34b540000000	-0.24379602074623108
160	0xbfc49b3400000000	-0.16098642349243164
161	0xbfc592fb00000000	-0.16854798793792725
162	0x3f9f4f3c00000000	0.030575692653656006
163	0xbfb15ada80000000	-0.06779256463050842
164	0x3fc2048c80000000	0.14076381921768188
165	0xbf74404800000000	-0.004944115877151489
166	0xbfc8ec1c00000000	-0.19470548629760742
167	0x3fbb094600000000	0.10561025142669678
168	0xbfb7b8fc80000000	-0.09266641736030579
169	0x3fc6b84880000000	0.17749887704849243
170	0xbfc5b433c0000000	-0.16956183314323425
171	0x3fcbe92800000000	0.21805286407470703
172	0x3fa3bd7500000000	0.03855481743812561
173	0x3fb6cb5d00000000	0.08904057741165161
174	0xbfb5c73800000000	-0.08507108688354492
175	0xbfc7803800000000	-0.18360042572021484
176	0x3fadc97000000000	0.05817747116088867
177	0x3fb53c5180000000	0.0829516351222992
178	0xbfc95e41c0000000	-0.19818899035453796
179	0x3fc64fc580000000	0.17430943250656128
180	0x3fbcf21100000000	0.11306864023208618
181	0x3fc9b99f40000000	0.20097723603248596
182	0x3fc9766280000000	0.19892531633377075
183	0x3fbcd27680000000	0.11258640885353088
184	0x3fac2ace00000000	0.055014073848724365
185	0x3fc0a16c80000000	0.12992626428604126
186	0x3fb50c0a00000000	0.08221495151519775
187	0xbfcff33dc0000000	-0.24961063265800476
188	0x3fc9555700000000	0.19791686534881592
189	0xbfcce187c0000000	-0.22563263773918152
190	0xbfc3227240000000	-0.14948871731758118
191	0xbfb6a37880000000	-0.08843186497688293
192	0x3fa98ceb00000000	0.04990324378013611
193	0x3f9835de00000000	0.02364298701286316
194	0xbfccafb000000000	-0.22411155700683594
195	0xbfc9827840000000	-0.19929412007331848
196	0xbfc2363c40000000	-0.14228013157844543
197	0x3fb0d03480000000	0.06567695736885071
198	0x3fc7202240000000	0.18066814541816711
199	0xbfcd2c1ac0000000	-0.22790846228599548
200	0xbfc8691bc0000000	-0.19070765376091003
201	0x3fcdee2200000000	0.23382973670959473
202	0x3fc1a3a880000000	0.1378069519996643
203	0xbfc3d46a40000000	-0.15491989254951477
204	0x3fbd6c2100000000	0.11493116617202759
205	0x3fc698a140000000	0.17653289437294006
206	0x3fbadb2180000000	0.10490617156028748
207	0xbfc5546d80000000	-0.1666390299797058
208	0x3fce101180000000	0.23486536741256714
209	0x3fcce15bc0000000	0.22562739253044128
210	0x3fc77feec0000000	0.18359169363975525
211	0x3fb906ce80000000	0.09776011109352112
212	0xbfbbb3b780000000	-0.10821101069450378
213	0x3fc2039480000000	0.1407342553138733
214	0xbfc15b59c0000000	-0.13560029864311218
215	0x3fc66c1c80000000	0.1751742959022522
216	0xbfb8d58c00000000	-0.09700846672058105
217	0xbfb9adec00000000	-0.10031008720397949
218	0xbfa813ed00000000	-0.047027021646499634
219	0xbfca3a72c0000000	-0.20490869879722595
220	0x3fc2a88c80000000	0.14576870203018188
221	0x3fbbe4a200000000	0.10895740985870361
222	0xbfcf75a6c0000000	-0.2457779347896576
223	0x3fa6089c00000000	0.04303443431854248
224	0x3fcae72640000000	0.21017912030220032
225	0x3fcfdfd080000000	0.24901777505874634
226	0xbfce526100000000	-0.23688900470733643
227	0x3fb4b45980000000	0.0808769166469574
228	0x3f864a9400000000	0.01088443398475647
229	0x3fb3af9400000000	0.07689785957336426
230	0x3fb6004400000000	0.08594155311584473
231	0xbfa1ec6f00000000	-0.035006970167160034
232	0xbfc753aa00000000	-0.18224072456359863
233	0x3fa34e1b00000000	0.03770527243614197
234	0x3fceee3a80000000	0.24164515733718872
235	0x3f9fdf7400000000	0.03112584352493286
236	0xbfb8e2f680000000	-0.09721317887306213
237	0xbfccb09380000000	-0.22413867712020874
238	0xbfc84d7b00000000	-0.18986451625823975
239	0xbfaec75d00000000	-0.060114771127700806
240	0xbfcf947f40000000	-0.24671927094459534
241	0x3fcae25580000000	0.2100321650505066
242	0x3fcb6c45c0000000	0.21424171328544617
243	0x3fa227ae00000000	0.03545898199081421
244	0x3fbbdcd200000000	0.10883820056915283
245	0x3fcae9b580000000	0.21025723218917847
246	0x3fa2e9af00000000	0.0369391143321991
247	0xbfc7ea3a80000000	-0.18683558702468872
248	0xbfcedfd140000000	-0.2412053644657135
249	0xbfa1d49c00000000	-0.03482520580291748
250	0xbfc5f31e40000000	-0.1714818775653839
251	0xbfb55b3f80000000	-0.08342358469963074
252	0x3fcc97a100000000	0.22337734699249268
253	0xbfc9599d00000000	-0.19804728031158447
254	0xbf8a1d2800000000	-0.01275092363357544
255	0xbfbd44ff00000000	-0.11433404684066772

lstm.bias_ih_l0 f8 [64]
0	0x3fb84e9c80000000	0.09494951367378235
1	0x3fb0186300000000	0.06287211179733276
2	0xbfc6c90d40000000	-0.17801061272621155
3	0x3fc06db6c0000000	0.1283482015132904
4	0x3f87ba5000000000	0.011585831642150879
5	0xbfcc27dc80000000	-0.21996647119522095
6	0x3fbf0f5600000000	0.12132775783538818
7	0xbfc547b480000000	-0.16625076532363892
8	0x3fc18fc740000000	0.137200266122818
9	0xbfc5f67e80000000	-0.17158490419387817
10	0xbfc0271bc0000000	-0.12619349360466003
11	0x3fbf8ca380000000	0.12323972582817078
12	0x3f9c570c00000000	0.0276758074760437
13	0x3fb2c09480000000	0.07325103878974915
14	0xbfa845ff00000000	-0.04740902781486511
15	0xbfa4c6cd00000000	-0.04057922959327698
16	0xbfc2c4bf00000000	-0.1466292142868042
17	0xbfcd3500c0000000	-0.22818002104759216
18	0x3fb86aeb00000000	0.09538143873214722
19	0x3fc4261980000000	0.15741270780563354
20	0x3fc8798740000000	0.19120875000953674
21	0xbfbd6ac880000000	-0.11491063237190247
22	0xbfca713d80000000	-0.20658081769943237
23	0xbfa4e85100000000	-0.0408349335193634
24	0x3fcb7ee640000000	0.21481016278266907
25	0xbfb52f0f80000000	-0.08274933695793152
26	0xbfbd9c3b80000000	-0.11566516757011414
27	0x3fc9ecbd80000000	0.20253723859786987
28	0x3fbca55280000000	0.11189761757850647
29	0x3fab80d500000000	0.05371728539466858
30	0xbfa45dec00000000	-0.039779067039489746
31	0x3fc92a4f00000000	0.1966036558151245
32	0x3fc0577b40000000	0.12766972184181213
33	0xbfc03cf9c0000000	-0.1268608272075653
34	0x3fceee3500000000	0.2416445016860962
35	0x3fc6852380000000	0.17593806982040405
36	0x3fc7363bc0000000	0.18134257197380066
37	0x3fc14e2f00000000	0.1351984739303589
38	0xbfc1f4fa80000000	-0.14028865098953247
39	0x3fa2794500000000	0.036081463098526
40	0x3fbd6eba80000000	0.11497083306312561
41	0xbfb3421b80000000	-0.07522746920585632
42	0x3fcabfe800000000	0.20898151397705078
43	0x3fca5bd880000000	0.20592790842056274
44	0x3f9d2cec00000000	0.028491675853729248
45	0x3fcbdadb00000000	0.21761643886566162
46	0x3fcc117200000000	0.2192823886871338
47	0xbfc9df0dc0000000	-0.20211955904960632
48	0x3fbc97f800000000	0.1116938591003418
49	0x3fa1ebe900000000	0.03500297665596008
50	0xbfbb811200000000	-0.10743820667266846
51	0x3fb20dd580000000	0.07052358984947205
52	0xbfbe517100000000	-0.11843019723892212
53	0x3fb7fb8c00000000	0.09368205070495605
54	0x3fa7983300000000	0.04608306288719177
55	0x3fc60d7340000000	0.17228546738624573
56	0xbfbf678b00000000	-0.12267369031906128
57	0xbfc9155880000000	-0.19596391916275024
58	0x3fc8788f80000000	0.19117921590805054
59	0x3fc524f200000000	0.1651899814605713
60	0xbfcca56640000000	-0.22379758954048157
61	0xbfb5ff6380000000	-0.08592817187309265
62	0xbfcf404cc0000000	-0.24414977431297302
63	0xbfc4ce8f80000000	-0.16255372762680054

lstm.bias_hh_l0 f8 [64]
0	0xbfa7756e00000000	-0.045817792415618896
1	0xbfb5996a00000000	-0.08437216281890869
2	0x3fb6267f00000000	0.08652490377426147
3	0x3fcc5f3800000000	0.22165584564208984
4	0x3fcf4d1dc0000000	0.24454089999198914
5	0xbfabbc7c00000000	-0.054172396659851074
6	0xbfcaecd880000000	-0.21035295724868774
7	0xbf85c80000000000	-0.0106353759765625
8	0x3fc080a500000000	0.12892591953277588
9	0xbfbc094b80000000	-0.10951682925224304
10	0xbfc71e9480000000	-0.1806207299232483
11	0x3fc74a5a00000000	0.18195652961730957
12	0xbfc62e6d80000000	-0.1732918620109558
13	0x3fc2a9d200000000	0.14580750465393066
14	0x3fc6e9e800000000	0.17901325225830078
15	0xbf5ea92000000000	-0.0018713772296905518
16	0xbf4c9f0000000000	-0.0008734464645385742
17	0xbfbebd8480000000	-0.12007930874824524
18	0x3fcc7f0f80000000	0.22262758016586304
19	0x3f2def0000000000	0.00022837519645690918
20	0x3fc7d7f140000000	0.18627753853797913
21	0xbfa5d57e00000000	-0.0426444411277771
22	0x3fc3e3d7c0000000	0.15539070963859558
23	0x3fc3c8f300000000	0.15456998348236084
24	0x3fca012040000000	0.203159362077713
25	0xbfccbd4e80000000	-0.22452718019485474
26	0xbfca78e780000000	-0.206814706325531
27	0xbfceb8ec00000000	-0.24001836776733398
28	0x3fb94e3e00000000	0.09885013103485107
29	0x3f9666b200000000	0.021876126527786255
30	0x3fb7827280000000	0.09183421730995178
31	0x3f82551800000000	0.008951365947723389
32	0x3f61deb000000000	0.0021813809871673584
33	0xbfc9dbd500000000	-0.20202124118804932
34	0x3fc838d480000000	0.18923431634902954
35	0x3fc7b3d940000000	0.1851760447025299
36	0x3fbfb15a00000000	0.12379992008209229
37	0xbfc8fbc3c0000000	-0.19518324732780457
38	0xbfa6fa8200000000	-0.0448799729347229
39	0x3fc5e698c0000000	0.17109975218772888
40	0xbfb2cbe380000000	-0.0734235942363739
41	0xbfc064bb80000000	-0.12807410955429077
42	0x3fcd482780000000	0.22876447439193726
43	0x3f82c4c000000000	0.00916433334350586
44	0xbfc4ae6680000000	-0.16157227754592896
45	0xbfcb6c9d00000000	-0.21425211429595947
46	0xbfc1e629c0000000	-0.13983651995658875
47	0xbfc2fcb540000000	-0.14833703637123108
48	0xbfc2b9aac0000000	-0.1462911069393158
49	0x3fa86fd900000000	0.04772832989692688
50	0x3fca3b9ec0000000	0.2049444615840912
51	0xbfc5268e80000000	-0.165239155292511
52	0xbf9d98be00000000	-0.02890297770500183
53	0x3fc6014540000000	0.1719137728214264
54	0xbfa3394000000000	-0.03754615783691406
55	0x3fbfc5fd80000000	0.12411484122276306
56	0xbfc9d935c0000000	-0.20194122195243835
57	0xbfba221e80000000	-0.10208311676979065
58	0x3fc53b2080000000	0.1658669114112854
59	0xbfb9be6080000000	-0.10056117177009583
60	0x3fc5591480000000	0.1667810082435608
61	0xbfc8b28400000000	-0.1929478645324707
62	0xbfc5bb3b00000000	-0.1697763204574585
63	0xbfb31d4100000000	-0.0746651291847229

lstm.weight_ih_l0_reverse f8 [64, 2]
0	0xbfade0db00000000	-0.058356136083602905
1	0xbfbf8d0500000000	-0.12324553728103638
2	0xbfa03acc00000000	-0.03169858455657959
3	0x3fcebb0d40000000	0.24008336663246155
4	0x3fc0026f80000000	0.1250743269920349
5	0xbfabcc0300000000	-0.05429086089134216
6	0x3fcb7db340000000	0.21477356553077698
7	0xbfcef0dac0000000	-0.24172529578208923
8	0xbfcec38100000000	-0.24034130573272705
9	0xbfcb5852c0000000	-0.21363291144371033
10	0xbfc1913f00000000	-0.1372450590133667
11	0x3fbe466480000000	0.11826160550117493
12	0xbfb3d8dd00000000	-0.07752782106399536
13	0xbfb2129200000000	-0.07059586048126221
14	0xbfb40df400000000	-0.0783379077911377
15	0xbfbee17380000000	-0.12062761187553406
16	0xbfb5296480000000	-0.08266285061836243
17	0x3f949cda00000000	0.02012959122657776
18	0x3fb73c5e00000000	0.09076488018035889
19	0x3fb7082700000000	0.08996814489364624
20	0x3fcfa19d00000000	0.24711954593658447
21	0x3fc5c38c00000000	0.1700301170349121
22	0xbfc66ddac0000000	-0.17522749304771423
23	0xbfbe89e680000000	-0.11929169297218323
24	0xbfc0f1a100000000	-0.13237392902374268
25	0xbfc6894bc0000000	-0.17606493830680847
26	0xbfc6b20c00000000	-0.1773085594177246
27	0xbfc3fa5880000000	-0.15607744455337524
28	0xbf810d1800000000	-0.008325755596160889
29	0xbfc80a47c0000000	-0.18781372904777527
30	0x3fcacc4b40000000	0.2093595564365387
31	0xbfbefaab80000000	-0.12101241946220398
32	0x3fce7d5440000000	0.23819974064826965
33	0x3fc4eb3840000000	0.16342833638191223
34	0x3fc387bb80000000	0.15257972478866577
35	0xbfcdde2940000000	-0.23334231972694397
36	0xbfc2e58000000000	-0.1476287841796875
37	0xbfb99c0280000000	-0.10003677010536194
38	0xbfa0bd9d00000000	-0.03269663453102112
39	0x3f98cd4a00000000	0.02422061562538147
40	0xbfc9ee5400000000	-0.20258569717407227
41	0xbfb5146300000000	-0.08234232664108276
42	0x3fcd95a100000000	0.23112881183624268
43	0x3fc4ba5cc0000000	0.16193732619285583
44	0x3fc1807b00000000	0.13673341274261475
45	0x3fcaecf080000000	0.21035581827163696
46	0xbfbedeb180000000	-0.12058553099632263
47	0xbfcc5e2c80000000	-0.221623957157135
48	0x3fb86fb800000000	0.09545469284057617
49	0xbfc0be6140000000	-0.1308099329471588
50	0x3f6512e000000000	0.002572476863861084
51	0xbf958ba800000000	-0.02104055881500244
52	0x3fc3c96d40000000	0.15458455681800842
53	0xbf87622800000000	-0.011417686939239502
54	0x3fcf3536c0000000	0.2438114583492279
55	0x3fc5a84d40000000	0.1691986620426178
56	0xbfc745d900000000	-0.18181908130645752
57	0xbfc4527b40000000	-0.15876713395118713
58	0xbfb9665680000000	-0.09921780228614807
59	0xbfa2b48200000000	-0.0365334153175354
60	0x3fc833eac0000000	0.18908438086509705
61	0x3fb5186b00000000	0.08240383863449097
62	0x3fc01b1780000000	0.12582677602767944
63	0x3fc98c1840000000	0.1995878517627716
64	0x3fc2584cc0000000	0.14331969618797302
65	0x3fa355f400000000	0.03776514530181885
66	0xbfc83b0140000000	-0.18930068612098694
67	0x3fba1ef180000000	0.10203465819358826
68	0x3fc938ed00000000	0.19704973697662354
69	0x3fca754440000000	0.20670369267463684
70	0xbfbb339a80000000	-0.1062561571598053
71	0xbfc249dc00000000	-0.14287900924682617
72	0x3fcdb3f300000000	0.23205411434173584
73	0xbfcf52c0c0000000	-0.2447129189968109
74	0xbf857a6000000000	-0.01048731803894043
75	0x3fae599d00000000	0.05927744507789612
76	0xbfcfd2d940000000	-0.2486220896244049
77	0xbf9249e000000000	-0.017859935760498047
78	0x3fb7c8a100000000	0.09290510416030884
79	0xbf93ad0c00000000	-0.01921480894088745
80	0xbf86ec2000000000	-0.011192560195922852
81	0x3fcd011f00000000	0.22659671306610107
82	0x3fc9f1ec00000000	0.20269536972045898
83	0xbfc197e9c0000000	-0.1374485194683075
84	0xbfc3fb2840000000	-0.15610221028327942
85	0xbfc8eede80000000	-0.19478970766067505
86	0xbfaa32ba00000000	-0.05116826295852661
87	0xbfc9b29740000000	-0.20076265931129456
88	0xbfc6755740000000	-0.1754559576511383
89	0xbfc950e580000000	-0.1977812647819519
90	0x3f92fee600000000	0.018550485372543335
91	0x3fc922f180000000	0.1963788866996765
92	0xbfc412b900000000	-0.1568213701248169
93	0x3fbd370d80000000	0.11412128806114197
94	0xbfbc308400000000	-0.11011528968811035
95	0xbfbb6f1080000000	-0.1071634590625763
96	0x3fc2495e40000000	0.14286401867866516
97	0x3fcc60ea00000000	0.22170758247375488
98	0x3fc5cc9500000000	0.17030584812164307
99	0xbfca1422c0000000	-0.2037394940853119
100	0xbfc1f28b40000000	-0.14021435379981995
101	0x3fc90e11c0000000	0.19574186205863953
102	0x3fb58da980000000	0.08419284224510193
103	0x3fcc3a03c0000000	0.22052046656608582
104	0x3fb81ab100000000	0.09415727853775024
105	0xbfc3919b80000000	-0.15288108587265015
106	0x3fbe82ca00000000	0.11918318271636963
107	0x3f9fd4f400000000	0.0310857892036438
108	0x3fc69b1b40000000	0.17660847306251526
109	0xbfc1e85040000000	-0.13990214467048645
110	0x3fc30a57c0000000	0.14875313639640808
111	0x3fca099c80000000	0.2034183144569397
112	0x3fbd951f00000000	0.11555665731430054
113	0x3fc9f5b680000000	0.20281106233596802
114	0xbfce658f40000000	-0.23747435212135315
115	0x3fbb1fe180000000	0.10595521330833435
116	0xbfa4b72200000000	-0.04045969247817993
117	0xbfcefe6a80000000	-0.24213916063308716
118	0xbfc4b31740000000	-0.16171541810035706
119	0x3fb793a000000000	0.09209632873535156
120	0xbfc832cc40000000	-0.18905022740364075
121	0x3fc001e940000000	0.12505832314491272
122	0x3f98cc4e00000000	0.02421686053276062
123	0x3fc661be40000000	0.17485788464546204
124	0xbfa6b6e400000000	-0.044364094734191895
125	0xbfba48e200000000	-0.10267460346221924
126	0xbfa201e900000000	-0.03517082333564758
127	0xbfb335c600000000	-0.07503926753997803

lstm.weight_hh_l0_reverse f8 [64, 16]
0	0xbfc37a6780000000	-0.1521729826927185
1	0x3f9fd7da00000000	0.031096845865249634
2	0x3fbab10c80000000	0.10426405072212219
3	0xbfb3d47780000000	-0.07746073603630066
4	0x3fa8121c00000000	0.047013163566589355
5	0xbfcba0f0c0000000	-0.21584901213645935
6	0x3fa90e1f00000000	0.04893586039543152
7	0x3fcdc14ac0000000	0.23246130347251892
8	0xbfc56280c0000000	-0.16706857085227966
9	0xbfc653af00000000	-0.1744288206100464
10	0x3fa2b9a500000000	0.03657260537147522
11	0x3fc85274c0000000	0.19001635909080505
12	0x3f6e9e0000000000	0.0037374496459960938
13	0x3fc61a4c00000000	0.17267751693725586
14	0x3fcb5c9680000000	0.2137630581855774
15	0x3fc4d78b80000000	0.16282790899276733
16	0x3fc020abc0000000	0.12599703669548035
17	0x3fc47f3d00000000	0.1601330041885376
18	0xbfcd14d3c0000000	-0.22719809412956238
19	0xbfcd922e80000000	-0.2310236096382141
20	0x3f64378000000000	0.0024678707122802734
21	0x3fc8c5e840000000	0.19353964924812317
22	0x3fa3db7b00000000	0.038783878087997437
23	0x3fcb569e40000000	0.2135808765888214
24	0xbfc6828c80000000	-0.17585903406143188
25	0x3fb161ff80000000	0.06790158152580261
26	0x3fc9b7ae00000000	0.20091795921325684
27	0x3fc7235f80000000	0.1807669997215271
28	0x3fcc8d6f40000000	0.22306624054908752
29	0x3fc54daa00000000	0.16643261909484863
30	0x3fc34618c0000000	0.15057668089866638
31	0x3fcf334cc0000000	0.24375304579734802
32	0xbfcafc9200000000	-0.21083283424377441
33	0x3fb8fd1c80000000	0.0976121723651886
34	0x3fbfb54100000000	0.1238594651222229
35	0xbfbdbc8580000000	-0.11615785956382751
36	0x3fbc2b0200000000	0.11003124713897705
37	0x3fc1a6bdc0000000	0.13790103793144226
38	0xbfbfa74080000000	-0.12364581227302551
39	0xbfbdc57a00000000	-0.1162945032119751
40	0x3fc3239400000000	0.14952325820922852
41	0x3fc7d5b680000000	0.18620949983596802
42	0xbfce32a940000000	-0.23592105507850647
43	0x3fc2ae6780000000	0.1459473967552185
44	0xbfb7c24b00000000	-0.09280842542648315
45	0xbfc1c150c0000000	-0.13871201872825623
46	0x3fa1c59100000000	0.034710437059402466
47	0x3fc86a6d00000000	0.19074785709381104
48	0xbfc191a540000000	-0.13725724816322327
49	0xbf13020000000000	-7.25090503692627e-05
50	0xbfbbf9d100000000	-0.10928064584732056
51	0xbfa2efb500000000	-0.03698506951332092
52	0xbfbb6e3800000000	-0.10715055465698242
53	0x3fb0c99780000000	0.06557604670524597
54	0xbf9a05b400000000	-0.025412380695343018
55	0x3fcea14dc0000000	0.23929759860038757
56	0x3fccc7cbc0000000	0.22484728693962097
57	0x3fbad63e00000000	0.10483157634735107
58	0xbfc8eb90c0000000	-0.19468888640403748
59	0xbfcd4a2e40000000	-0.22882631421089172
60	0x3fb39b4700000000	0.07658809423446655
61	0x3fa1239600000000	0.033474624156951904
62	0xbfb1d6fa00000000	-0.06968653202056885
63	0x3fc2cf7c00000000	0.1469569206237793
64	0x3fc181e440000000	0.13677647709846497
65	0x3faf72c100000000	0.061422377824783325
66	0xbfcd6504c0000000	-0.22964534163475037
67	0x3fc9e25a00000000	0.20222020149230957
68	0x3fc1e7cd00000000	0.1398864984512329
69	0x3fc791d040000000	0.18413737416267395
70	0xbfab63b900000000	-0.053495198488235474
71	0xbfabbb8100000000	-0.05416491627693176
72	0x3fcd5212c0000000	0.22906717658042908
73	0xbfb4194800000000	-0.07851076126098633
74	0x3fc6596e80000000	0.17460423707962036
75	0xbfc43d7740000000	-0.15812578797340393
76	0x3fabc46600000000	0.054232776165008545
77	0x3fb76fa700000000	0.09154742956161499
78	0xbfcfb4d0c0000000	-0.24770554900169373
79	0x3fc23bfbc0000000	0.1424555480480194
80	0xbfc111bb80000000	-0.13335365056991577
81	0xbfcfd9a800000000	-0.24882984161376953
82	0xbfbb7f6500000000	-0.10741263628005981
83	0x3fc90d5980000000	0.1957198977470398
84	0xbfba2a8280000000	-0.10221114754676819
85	0xbfb3621980000000	-0.07571563124656677
86	0x3fb9ced500000000	0.10081225633621216
87	0xbf93db3000000000	-0.01939082145690918
88	0xbfb74e7800000000	-0.09104108810424805
89	0xbfc7c66740000000	-0.18574228882789612
90	0x3fcc736f80000000	0.2222728133201599
91	0xbf9bccf800000000	-0.027149081230163574
92	0xbfc8a6d8c0000000	-0.19259175658226013
93	0x3f9b89d600000000	0.02689298987388611
94	0xbfb5d8cf00000000	-0.0853394865989685
95	0xbfcaa44740000000	-0.2081383764743805
96	0x3fb14cfa00000000	0.06758081912994385
97	0x3fccf3ca40000000	0.22618988156318665
98	0x3fc0f7cb00000000	0.1325620412826538
99	0x3fb1fea100000000	0.07029157876968384
100	0x3fc061abc0000000	0.12798067927360535
101	0xbfc3403200000000	-0.15039658546447754
102	0xbfba054e80000000	-0.10164347290992737
103	0xbfbd3ddd80000000	-0.11422523856163025
104	0x3fce5a00c0000000	0.23712167143821716
105	0x3fb78df880000000	0.09201005101203918
106	0x3fa8de0900000000	0.04856899380683899
107	0x3f73c6f800000000	0.004828423261642456
108	0x3fc09a8840000000	0.1297159492969513
109	0xbfb63df900000000	-0.08688312768936157
110	0xbfcab07140000000	-0.20850959420204163
111	0x3fcd136700000000	0.22715461254119873
112	0xbf8f11dc00000000	-0.015170782804489136
113	0x3fc47ea2c0000000	0.1601146161556244
114	0xbf9371c200000000	-0.01898863911628723
115	0x3fcc526ac0000000	0.22126516699790955
116	0xbfac3d1b00000000	-0.05515369772911072
117	0x3fb8631d80000000	0.09526237845420837
118	0x3fc3ec7080000000	0.15565305948257446
119	0xbf9891fa00000000	-0.023994356393814087
120	0x3fba795e00000000	0.10341441631317139
121	0x3fc3156600000000	0.14909052848815918
122	0x3fc6331b80000000	0.17343467473983765
123	0xbfafdfdb00000000	-0.062254756689071655
124	0x3fa7491b00000000	0.04547962546348572
125	0xbfbe9aa280000000	-0.119547039270401
126	0xbfce7c0340000000	-0.23815956711769104
127	0xbfbd300100000000	-0.11401373147964478
128	0xbfa7140500000000	-0.04507461190223694
129	0xbfb408b900000000	-0.07825809717178345
130	0x3fca578900000000	0.20579636096954346
131	0xbfc423f780000000	-0.15734761953353882
132	0x3fc151c500000000	0.1353079080581665
133	0xbfb5c7b580000000	-0.08507856726646423
134	0xbfb5827b00000000	-0.08402222394943237
135	0xbfc7dd7580000000	-0.18644589185714722
136	0x3f9c46cc00000000	0.027613818645477295
137	0xbfc129a8c0000000	-0.1340838372707367
138	0xbfc47e3540000000	-0.16010156273841858
139	0xbfc315c880000000	-0.14910227060317993
140	0xbfcd3ac200000000	-0.22835564613342285
141	0xbfc99a3e40000000	-0.20001962780952454
142	0xbfb5ed0980000000	-0.08564814925193787
143	0x3fb1e4be80000000	0.06989660859107971
144	0xbfb7316980000000	-0.0905977189540863
145	0x3fc3a29200000000	0.15339875221252441
146	0x3fc6da7940000000	0.17854228615760803
147	0xbfcab22300000000	-0.20856130123138428
148	0xbf9cc19600000000	-0.028082221746444702
149	0x3fbc47b400000000	0.11046910285949707
150	0xbfc62ca740000000	-0.17323771119117737
151	0x3fc7fb2540000000	0.18735185265541077
152	0xbfc6fd64c0000000	-0.17960795760154724
153	0x3fc0ad6940000000	0.13029208779335022
154	0x3f9ed4aa00000000	0.030108124017715454
155	0x3fca241240000000	0.2042258083820343
156	0x3f91d30400000000	0.01740652322769165
157	0x3fb9058b00000000	0.09774082899093628
158	0x3f9b0c3400000000	0.02641373872756958
159	0x3fcd2f2e80000000	0.2280023694038391
160	0x3fc521c000000000	0.16509246826171875
161	0x3fcb9959c0000000	0.21561738848686218
162	0xbfb863aa80000000	-0.0952707827091217
163	0xbfc54bdec0000000	-0.16637787222862244
164	0x3fc0068b80000000	0.12519973516464233
165	0xbfb223df80000000	-0.0708598792552948
166	0x3fa9ad1600000000	0.05014866590499878
167	0xbfc197d4c0000000	-0.13744601607322693
168	0x3fb339d500000000	0.07510119676589966
169	0x3fbe92fd00000000	0.11943036317825317
170	0xbfcfb2c5c0000000	-0.24764320254325867
171	0xbfcfe0e500000000	-0.24905073642730713
172	0x3fb0e54100000000	0.0659981369972229
173	0xbfcd86f0c0000000	-0.23068055510520935
174	0xbfb7b60100000000	-0.09262090921401978
175	0xbfcd441a00000000	-0.22864079475402832
176	0x3fc9b5c140000000	0.2008592188358307
177	0xbfba5f0080000000	-0.10301211476325989
178	0x3fba41be00000000	0.10256564617156982
179	0xbfca2b4540000000	-0.2044455111026764
180	0x3fb9b92a80000000	0.10048165917396545
181	0x3fad122000000000	0.056778907775878906
182	0x3fac861700000000	0.05571052432060242
183	0xbfb255b000000000	-0.07161998748779297
184	0xbfc45757c0000000	-0.15891548991203308
185	0x3fb1391f80000000	0.06727787852287292
186	0x3fb632b500000000	0.08671122789382935
187	0x3fb6bbcd80000000	0.08880314230918884
188	0x3fcff60500000000	0.24969542026519775
189	0xbfbd8fd700000000	-0.11547607183456421
190	0x3fb9672500000000	0.09923011064529419
191	0xbfc85dc580000000	-0.19036167860031128
192	0xbfc41f5c80000000	-0.15720707178115845
193	0xbfaaf19500000000	-0.05262437462806702
194	0xbfb3d9f900000000	-0.07754474878311157
195	0xbfb59d0c00000000	-0.0844275951385498
196	0xbfcfe99ac0000000	-0.24931654334068298
197	0x3fcce8c400000000	0.22585344314575195
198	0xbf8dfd5400000000	-0.014643341302871704
199	0x3fcff599c0000000	0.24968263506889343
200	0x3f9d789200000000	0.028780251741409302
201	0xbf76bcf000000000	-0.005551278591156006
202	0x3fc4cec040000000	0.16255953907966614
203	0x3fcbc36280000000	0.21690016984939575
204	0xbfc58b88c0000000	-0.16832074522972107
205	0xbf943b7200000000	-0.019758015871047974
206	0xbfbd226b80000000	-0.11380645632743835
207	0xbfb1b10e00000000	-0.06910789012908936
208	0xbfb32e8e80000000	-0.0749291479587555
209	0xbfba1cf400000000	-0.1020042896270752
210	0x3fba2e7700000000	0.10227149724960327
211	0x3fc0168bc0000000	0.12568804621696472
212	0xbf86fddc00000000	-0.011226385831832886
213	0xbfc5cf81c0000000	-0.1703951060771942
214	0xbfc0d32e00000000	-0.13144469261169434
215	0xbfb4587400000000	-0.07947468757629395
216	0x3fcd8e0900000000	0.23089706897735596
217	0x3fb02ed100000000	0.06321436166763306
218	0xbfcec05740000000	-0.2402447760105133
219	0xbfc389ccc0000000	-0.15264281630516052
220	0xbfcaa040c0000000	-0.2080155313014984
221	0xbfb4d2de00000000	-0.08134257793426514
222	0x3fa7ce6500000000	0.04649654030799866
223	0xbfcc90fac0000000	-0.22317442297935486
224	0xbf89effc00000000	-0.012664765119552612
225	0x3fcf391880000000	0.243929922580719
226	0x3fb5262d80000000	0.08261379599571228
227	0x3fb22e5880000000	0.07101967930793762
228	0x3fa6763e00000000	0.04387086629867554
229	0xbfcf48adc0000000	-0.24440547823905945
230	0xbfbdf17e80000000	-0.11696615815162659
231	0x3fbce22200000000	0.11282551288604736
232	0xbfc730d640000000	-0.18117788434028625
233	0xbfa7443e00000000	-0.04544252157211304
234	0x3fcb74d600000000	0.21450304985046387
235	0x3fb2e8f000000000	0.0738668441772461
236	0x3fc3ce1e00000000	0.15472769737243652
237	0xbf7ece3000000000	-0.007520854473114014
238	0xbfcb3ca5c0000000	-0.21278831362724304
239	0xbfc07c7b40000000	-0.12879887223243713
240	0x3fc783a040000000	0.1837044060230255
241	0x3faba1e500000000	0.05396953225135803
242	0x3fcb08b700000000	0.2112034559249878
243	0x3fb7146380000000	0.09015485644340515
244	0x3f6142f000000000	0.0021071135997772217
245	0xbfc659a880000000	-0.1746111512184143
246	0x3fc2b350c0000000	0.14609727263450623
247	0x3fa4606b00000000	0.03979811072349548
248	0xbfcfb05b80000000	-0.2475695013999939
249	0xbfadb55500000000	-0.058024078607559204
250	0xbfc326aa00000000	-0.14961743354797363
251	0xbfcdf2f380000000	-0.23397678136825562
252	0xbfc27c5ec0000000	-0.14442047476768494
253	0x3fa6c7bd00000000	0.044492632150650024
254	0xbfc9b0a540000000	-0.20070329308509827
255	0x3fabc81b00000000	0.05426105856895447

lstm.bias_ih_l0_reverse f8 [64]
0	0xbfb96e8680000000	-0.09934273362159729
1	0xbfadc96d00000000	-0.05817738175392151
2	0xbfb9fe2700000000	-0.10153430700302124
3	0xbfca335f00000000	-0.20469272136688232
4	0xbfc15fe900000000	-0.13573944568634033
5	0xbf94b0fa00000000	-0.020206362009048462
6	0x3fbca77e80000000	0.11193075776100159
7	0x3f94549400000000	0.01985388994216919
8	0x3fb3d34080000000	0.07744219899177551
9	0xbfc351c940000000	-0.1509334146976471
10	0x3fc8fe7d40000000	0.19526639580726624
11	0x3f5fada000000000	0.0019334852695465088
12	0x3f8d48a400000000	0.014298707246780396
13	0x3fb91c8a80000000	0.09809175133705139
14	0xbfc3c95e40000000	-0.15458276867866516
15	0xbfc0c0d040000000	-0.13088420033454895
16	0x3fb1fb3480000000	0.07023933529853821
17	0xbfce10e280000000	-0.23489028215408325
18	0xbfc0f12900000000	-0.13235962390899658
19	0xbfbe87b000000000	-0.11925792694091797
20	0x3f9029da00000000	0.015784651041030884
21	0xbfc0d20fc0000000	-0.13141056895256042
22	0xbfcb3b9140000000	-0.21275535225868225
23	0xbf83669000000000	-0.009472966194152832
24	0x3fa7ff8500000000	0.046871334314346313
25	0xbfcda572c0000000	-0.23161157965660095
26	0x3fbc882400000000	0.11145234107971191
27	0xbfc6f05080000000	-0.17920881509780884
28	0x3f9c281400000000	0.027496635913848877
29	0x3fc6e70a80000000	0.17892581224441528
30	0xbfc4dbab00000000	-0.16295373439788818
31	0x3fbeb30580000000	0.11991915106773376
32	0x3f85cd4c00000000	0.010645478963851929
33	0xbfb2e3d780000000	-0.0737890899181366
34	0xbfcb7fb440000000	-0.21483471989631653
35	0x3fc7828500000000	0.18367063999176025
36	0xbfcea41600000000	-0.23938250541687012
37	0x3fc62fbb00000000	0.173331618309021
38	0xbfb549dc80000000	-0.08315828442573547
39	0x3fb9b1e800000000	0.10037088394165039
40	0xbfcc6cd4c0000000	-0.22207126021385193
41	0xbfbfd11e00000000	-0.12428462505340576
42	0xbfa229a300000000	-0.035473912954330444
43	0xbfbd7a9a00000000	-0.11515200138092041
44	0x3fc5d4e980000000	0.1705600619316101
45	0x3fca1fe0c0000000	0.20409783720970154
46	0x3fc90acb80000000	0.19564193487167358
47	0x3fb97d5300000000	0.09956854581832886
48	0xbfc9452d80000000	-0.19742363691329956
49	0xbfbbb5ad00000000	-0.10824090242385864
50	0x3fc08dd0c0000000	0.12932786345481873
51	0xbf8aaee400000000	-0.013028889894485474
52	0xbf959a6800000000	-0.02109682559967041
53	0x3fcf6eb6c0000000	0.2455662190914154
54	0xbfc7733040000000	-0.18320277333259583
55	0xbfc74a7b00000000	-0.18196046352386475
56	0xbfbfd21100000000	-0.12429910898208618
57	0xbfc10d3240000000	-0.13321521878242493
58	0xbfc4afd100000000	-0.1616154909133911
59	0x3fce2271c0000000	0.2354261577129364
60	0x3fb5ce9580000000	0.08518347144126892
61	0x3fb3e78a00000000	0.0777517557144165
62	0x3fcfff3180000000	0.24997538328170776
63	0xbfbc59cc00000000	-0.11074519157409668

lstm.bias_hh_l0_reverse f8 [64]
0	0x3fb024c380000000	0.06306096911430359
1	0x3fce9d3d80000000	0.23917359113693237
2	0x3fc7f4f980000000	0.18716353178024292
3	0x3fc0db20c0000000	0.1316872537136078
4	0xbfcf3440c0000000	-0.2437821328639984
5	0xbfc7c59480000000	-0.1857171654701233
6	0x3f9f661c00000000	0.030662953853607178
7	0x3f9632c400000000	0.021678030490875244
8	0xbfcb365340000000	-0.2125953733921051
9	0x3fb3839000000000	0.07622623443603516
10	0x3fc6f8af40000000	0.17946425080299377
11	0xbfc26beac0000000	-0.14391836524009705
12	0xbfc79ea580000000	-0.18452900648117065
13	0x3fbff53f00000000	0.12483590841293335
14	0xbfc186a4c0000000	-0.1369214951992035
15	0x3fb1a35d00000000	0.06889897584915161
16	0x3fcc936640000000	0.22324827313423157
17	0xbfab387200000000	-0.0531650185585022
18	0x3f595dc000000000	0.0015482306480407715
19	0x3f62b16000000000	0.0022818446159362793
20	0x3fc650b8c0000000	0.1743384301662445
21	0x3fc2060bc0000000	0.14080950617790222
22	0x3f9ef98200000000	0.030248671770095825
23	0xbfbbdc1d80000000	-0.10882744193077087
24	0xbfb9d92080000000	-0.1009693443775177
25	0xbfcc9bf440000000	-0.22350934147834778
26	0x3fb221e600000000	0.07082974910736084
27	0xbfc23dcb40000000	-0.1425108015537262
28	0x3fb44b7100000000	0.07927614450454712
29	0x3fc3eab840000000	0.15560057759284973
30	0xbfc50b20c0000000	-0.1644020974636078
31	0x3fb52f0980000000	0.08274897933006287
32	0xbfc7758000000000	-0.1832733154296875
33	0x3fcd047d80000000	0.22669953107833862
34	0x3fc0c085c0000000	0.13087531924247742
35	0x3fbf3fc500000000	0.12206679582595825
36	0xbfb4d98880000000	-0.08144429326057434
37	0xbf88b0a400000000	-0.012055665254592896
38	0x3fab9ba400000000	0.05392181873321533
39	0x3fc7482700000000	0.18188941478729248
40	0x3fc259cc00000000	0.14336538314819336
41	0x3fccaa4880000000	0.22394663095474243
42	0x3fadcfb100000000	0.05822518467903137
43	0x3fb18af580000000	0.06852659583091736
44	0x3faaf94e00000000	0.05268329381942749
45	0x3f84de4800000000	0.010189592838287354
46	0xbfc01a6100000000	-0.12580502033233643
47	0xbf8b617400000000	-0.013369470834732056
48	0x3fad701b00000000	0.05749592185020447
49	0xbfbbc43b00000000	-0.10846298933029175
50	0xbfce6a8680000000	-0.23762589693069458
51	0xbfb341d400000000	-0.07522320747375488
52	0x3f9320e600000000	0.018680185079574585
53	0x3fb43ee980000000	0.07908496260643005
54	0xbfa3487300000000	-0.037662118673324585
55	0x3fc3667d40000000	0.15156522393226624
56	0xbfcad277c0000000	-0.2095479667186737
57	0x3fba4e5580000000	0.1027577817440033
58	0xbfb03f1e00000000	-0.06346309185028076
59	0xbfb5a01f00000000	-0.08447450399398804
60	0xbfba60a280000000	-0.103037029504776
61	0xbfb7725000000000	-0.09158802032470703
62	0xbfc5547d40000000	-0.16664090752601624
63	0xbfc00d5780000000	-0.1254071593284607

fc.weight f8 [2, 16]
0	0xc0299c7f3404c909	-12.805657983383314
1	0x4026ddec64a9140c	11.43344416202492
2	0xbfe7e638939ad191	-0.74685314969115
3	0x402054cc1f0d07b1	8.165619821873266
4	0x403524cd3b1bb94d	21.14375657488681
5	0xbfe698230040fda1	-0.706071377273407
6	0xc000d0aade3fb537	-2.1018884051506137
7	0xc019054a8fd4864c	-6.255167243334267
8	0x400855b913527b1d	3.041856909708612
9	0xc00e0c094b167ce9	-3.755877100585725
10	0x3fffd845c3a3ba9b	1.9903009073420097
11	0xc01613af3b471894	-5.519223142828327
12	0xc00038d53dbb4894	-2.027750475194873
13	0xbff3957dd5d2010f	-1.2239969589573467
14	0x3ff747e3b229d05a	1.4550511321549693
15	0x3f920e70fdc93223	0.01763321446405731
16	0x3ff8803c515f078b	1.5313075235903593
17	0x4004825c232b8177	2.563652300610723
18	0x3fe85c42a6c392be	0.7612622506245186
19	0xbff45a91132bdc96	-1.2721110104446658
20	0xbff5ebe4a9849865	-1.3700911161227165
21	0x3fe5c44d86be4614	0.6802127486900553
22	0x4012f14a3bb0cbcd	4.735634739557054
23	0xbff796580bb2796d	-1.4742050606651802
24	0x3ff82e72cf1d74a1	1.5113399591857972
25	0xbfe901176bc62a00	-0.781383238312003
26	0x3fde7e7939a6de05	0.4764693320280176
27	0x3fe6e488b4024970	0.7153972163962816
28	0x400bb383b3b20e41	3.4626535452569276
29	0xbfb7d44ffad79de5	-0.09308338045195048
30	0xc023c877bfcc50eb	-9.891538613978318
31	0xbfaf5e64b93d6400	-0.06126703988292803

fc.bias f8 [2]
0	0x3f7ba8260f9d80cc	0.006752155948419335
1	0xbf9611bfa70f11e4	-0.021552080699409518

prelu.weight f8 [1]
0	0x3fffc7137aa12a7a	1.986102561017701

batchnorm_1.weight f8 [16]
0	0x401542ae4d66a084	5.315118035687309
1	0x401b5c32752c278b	6.840036230869269
2	0xbfb0089e2cc05359	-0.06263149826584193
3	0x4007b06246fe6bd3	2.9611249491112885
4	0x401bdf80c2d547a2	6.968264621989791
5	0xbfd61f72d2712498	-0.3456694655511199
6	0x4010588069f6a102	4.086427360227619
7	0x400a717b52978059	3.3054110004887147
8	0x3ff3ef5fc93691e1	1.2459409580125043
9	0x3ffe171516c95fb1	1.8806353464224055
10	0x3fed1402ffa30a3e	0.9086928360851017
11	0x4006d8f68adb578a	2.855938992327485
12	0x400aef1fb7e9a25c	3.366759716813517
13	0x3fda7885f39effdf	0.41360615531084294
14	0xc01d87b1184de5bc	-7.38251150107811
15	0xbf9ef0198c9b2198	-0.03021278305712513

batchnorm_1.bias f8 [16]
0	0x3e8042145e0638de	1.2113245785285952e-07
1	0x3eb6e4a37712cd1e	1.3645362424819124e-06
2	0xbe7cf4e781ea57ae	-1.078719553494257e-07
3	0x3e91f29fc87eacbd	2.6744232472604004e-07
4	0xbeaf9283f9452ddd	-9.409286457011331e-07
5	0x3e96f1ef0311b1f1	3.4190793757915243e-07
6	0xbe901425c3eda243	-2.3959131916507307e-07
7	0xbe962bd880f3ece3	-3.30377702930947e-07
8	0x3e77ff3e58b901db	8.939595924022038e-08
9	0xbe8ea716dc1e5910	-2.2838035645669063e-07
10	0xbe838151c81bbeac	-1.4532472297029838e-07
11	0xbe831d8ad9ab44e7	-1.4242082787286675e-07
12	0xbe7b24e8db2a5564	-1.0111994334435558e-07
13	0x3e7c77fad239df5d	1.0605406380338789e-07
14	0xbe91544fc62cf099	-2.582273223477449e-07
15	0xbe829e37d3fbae45	-1.387152028722873e-07

batchnorm_1.running_mean f8 [16]
0	0xbfb91da6cfc5c936	-0.09810869762967375
1	0x3fac07c1d2fb9dda	0.054746682171579145
2	0x3f91adba77d32423	0.01726428371765477
3	0x3fba5b64c4ef4c02	0.10295705612161046
4	0xbfcebe95fa7e7eda	-0.2401912186733089
5	0x3fbe5a8a5e63c61a	0.11856903843342828
6	0xbfc1e99f8e9988a8	-0.13994211638334275
7	0x3fc23f428fc3b00f	0.14255554218050334
8	0xbfa1dd18d8e23161	-0.034889961695713685
9	0x3fab8a51a7ddc157	0.053789664975627254
10	0xbfbfa0458af250ba	-0.12353930132150284
11	0xbfa9545ee76f7b20	-0.049471822501564455
12	0x3fa9953fb3a8628b	0.049966803246381884
13	0x3fc1ecc88bcfe8d3	0.14003855540051421
14	0xbf80601bced67ae1	-0.007995812654198743
15	0xbf724735d5962af0	-0.004462442674944653

batchnorm_1.running_var f8 [16]
0	0x3f711d200a8f6075	0.004178166543134511
1	0x3f2ea4dcdbc03521	0.00023379512811098297
2	0x3f6ab8891dc00cae	0.0032618215609559664
3	0x3f57dc8d70c051d0	0.0014563924078220165
4	0x3f65443b134791c4	0.0025960115255989364
5	0x3f24057fbff371b2	0.00015275177427199815
6	0x3f5abd371a5b5b0b	0.0016320264925774898
7	0x3f18bb73866e535b	9.43459759653159e-05
8	0x3f5b62753401f629	0.0016714233934459566
9	0x3f22e7d2819341cc	0.00014423794417563055
10	0x3f768c14b165c318	0.0055046852415763445
11	0x3f70fdf3b2633615	0.004148437443473725
12	0x3f6aa26e7694c0fb	0.0032512814983861583
13	0x3f3a575de158d9d5	0.0004019359779222885
14	0x3f2baa0c52741203	0.00021106148162898527
15	0x3f5a557859941a51	0.0016072917263173679

batchnorm_2.weight f8 [2]
0	0x4008e2088d711f36	3.110367875113208
1	0x4027ac09705d3532	11.836009513261704

batchnorm_2.bias f8 [2]
0	0xbff08e62b2a99dec	-1.0347620944029314
1	0xbff9445c44293496	-1.5791895544564674

batchnorm_2.running_mean f8 [2]
0	0x3f7ba8361518f915	0.006752215632842136
1	0xbf96100cb5948c81	-0.021545599539547048

batchnorm_2.running_var f8 [2]
0	0x4092de0efa3c0c6e	1207.5146264441096
1	0x40c47c29c0c7e209	10488.326195702904

exp_avg f8 [2, 16]
0	0x3f7e333b7eb51998	0.0073730777760999885
1	0xbf59cd19cf7e33ae	-0.0015747787528852353
2	0xbf1bcb4261f3e24c	-0.00010602562587170536
3	0xbf4e04e847667ce5	-0.0009161123442033263
4	0x3f667c5ed182bde2	0.00274485129565226
5	0xbf4045073e6019f1	-0.0004965100640681991
6	0xbf78e05eb8155d81	-0.006073350902929931
7	0xbf5f3a0ecedf681b	-0.0019059319124523691
8	0x3f46a81a4ed758d6	0.0006914261299993073
9	0xbf35c546dd2bd99e	-0.00033219318463242355
10	0xbf533088ff91d928	-0.001171239650174247
11	0xbf6213bad80e5950	-0.0022066735550182806
12	0xbf6507638dc0b3c0	-0.002566999855864144
13	0x3f446496ef4e00c5	0.0006223427759408864
14	0x3f82008eae21a0c7	0.008790125550334328
15	0x3ef31225374f4482	1.8187408801943496e-05
16	0x3f59c4be4b8e055b	0.0015727861739097324
17	0xbf3e0fa4e2a50ca5	-0.00045869613190436593
18	0xbef5fa04530da83a	-2.09585461478439e-05
19	0xbf49a841abb09b36	-0.0007829971940552574
20	0x3f4cec9e22bbede8	0.0008826992174983369
21	0xbf0ed617f3ddff03	-5.881558034470486e-05
22	0xbf51b53da1842a6c	-0.00108080881733721
23	0xbf4faafbb58bbd60	-0.0009664277123117397
24	0x3f40dba4b55959ff	0.0005144647827347025
25	0xbf3e5950db396c77	-0.0004630873110948517
26	0xbf3726342be756ba	-0.00035322927206258745
27	0xbf506d5ff700d10d	-0.0010026394993590288
28	0xbf508a75cac2b311	-0.0010095739662958107
29	0x3f29deffc76a3241	0.00019738075544174959
30	0xbf4323cd8969d3d2	-0.0005841020200266728
31	0x3ee1aedbbd3ed76e	8.43193075881671e-06
