isoform_quantification/models/RSEM_RSEM.pt (torch, 350984 bytes, 36 tensors)

lstm.weight_ih_l0 f8 [256, 2]
0	0x3ff55f638bea379e	1.3357882943559853
1	0x3fea9983d8167091	0.8312396259748472
2	0x3ff988e6a3d394fa	1.5959230803940145
3	0xbff17cada7d55223	-1.092939048384445
4	0x3fca65e7b6ab0be3	0.20623489779799717
5	0xbff9e883b671de95	-1.6192662359953023
6	0xbff4e57712f43732	-1.3060217609776825
7	0x3ff82437d0fc87fe	1.5088422931225973
8	0xbff78fd7f0ca4a0c	-1.472618046366395
9	0x3fb2b468b9d544da	0.0730653241819427
10	0xbff42f332c1eef45	-1.2615234111280682
11	0xbfefbc268f6a7121	-0.9917176056947349
12	0xbfe4a56994add89e	-0.6451919464004907
13	0xbfe0a9a9b26b268b	-0.5207108006226958
14	0xbfec551fd37e8b66	-0.8853911524532634
15	0xbfb65fcae6e6f42a	-0.0873991788602814
16	0x3fd94ca1d6c338e0	0.39530225727948043
17	0x3fedfa3ba08d2aae	0.9367960105676809
18	0x3ff915ca264a6357	1.567819737980434
19	0x3ff88425c8e7d4e9	1.5322625968813617
20	0xbfedde5e8a4bb8c8	-0.9333946896638503
21	0xbff01d536253d489	-1.0071595993916012
22	0xbfe946eee7a44c11	-0.7899088405851008
23	0xbfd31554162b61cf	-0.2981767860888142
24	0xbff7850206530add	-1.469972634033801
25	0xbfe707ae4f7edb8b	-0.7196876099250046
26	0x3ff907175d6e30ee	1.564231266939767
27	0x3ff8f0592a626f5b	1.5586787849087702
28	0xbfef4d7eed466d09	-0.97820993750375
29	0x3fe6371ec3b0cff7	0.6942285368045295
30	0xbff5516d6aff7e5a	-1.3323797397241806
31	0x3fdd931864f84388	0.4621029840500843
32	0xbff71d9a75b59a54	-1.4447273824713607
33	0xbff5f5f2585ba66f	-1.3725455714688015
34	0xbff257dc52c29a59	-1.146450351030259
35	0x3fb3779631d6c49d	0.07604349819918572
36	0xbfe29b70f6ba2469	-0.5814747637642884
37	0x3ff9b2e553c5cf15	1.6061757347460504
38	0xbfe4d3d24591b4e7	-0.6508571013233934
39	0x3feffbe56f889030	0.9994990518939684
40	0x3ff4f72911f91ca6	1.310341901976963
41	0x3ff3b1bc0353d435	1.2308921937922268
42	0xbfb4d6cdf113c5c3	-0.08140265594172207
43	0xbfe4715622c60991	-0.638835018078952
44	0x3ff764b085d64408	1.4620824077612742
45	0xbff7498a596d0e6a	-1.4554542058184787
46	0xbff050dd5d0e57de	-1.019742358684645
47	0xbfe2f86dc817be38	-0.5928257854520274
48	0x3ff536dc7fbd35e5	1.3258938779648528
49	0x3ff82cde78123f56	1.5109543504986127
50	0xbfd3c39c8f25b781	-0.308814182083431
51	0x3fdebb38e3941931	0.480177137608183
52	0x3fdd4bd6a0dc5b7a	0.45775380810794497
53	0x3fcc8af5d28ec02d	0.22299073010572226
54	0xbffa1dd0d10fc98f	-1.6322792211982209
55	0x3ff821194153439e	1.5080807258384321
56	0xbff1f93decdf79e3	-1.1233500721788168
57	0x3ff2a209f3d60a64	1.1645602726790907
58	0xbff46a05d72a1498	-1.2758844761713473
59	0xbfec7f3d0662b585	-0.8905320286482242
60	0x3ff2d84834580122	1.1778032345465097
61	0xbfd1f46551126221	-0.2805417339054959
62	0xbff741fa707b315d	-1.4536079782293065
63	0x3fe68246f619e88e	0.7034029776252895
64	0xbfe161768242995d	-0.5431473297256094
65	0x3ff12e915c08e36a	1.0738690943819287
66	0xbff5f626b35e4fc5	-1.3725955015734013
67	0xbfb5db9fa81fb66e	-0.08538244108759738
68	0xbff233af5f0a1c57	-1.1376184189300795
69	0xbfe1e80a87af648e	-0.5595753336048277
70	0xbfeb876462dfb784	-0.8602773600702993
71	0xbfe4594f1c3cc205	-0.635901980544134
72	0x3feb7bf9bb8de837	0.8588837302370455
73	0xbfecdb34d0fd8a51	-0.9017585832446661
74	0xbff794d01fd66989	-1.4738312953619206
75	0x3fe7251e7914a5d4	0.7232811322075414
76	0x3ff2af3ac18e65fc	1.1677806435385483
77	0xbff6547b291c5dcb	-1.3956252675906053
78	0x3fdd36a2a94c9ea7	0.45645967991957054
79	0xbfdf01eae64ec1d8	-0.48449203959446896
80	0xbff46adf7dd77924	-1.2760920444193937
81	0x3fe74275f13e4291	0.726862879922992
82	0xbffa4d4fc47b06d6	-1.6438749003431687
83	0x3ff233d34b4067f3	1.1376526774897655
84	0x3fe31cd5226ec99b	0.5972695992007176
85	0xbfe8b954023deee4	-0.7726230663097025
86	0xbff5d8e9758be800	-1.3654570190105915
87	0x3fe4c16ef0b19b64	0.6486124707269991
88	0x3fd5395f4ab5f5c1	0.3316267232511017
89	0x3fea255913838100	0.8170590764166548
90	0x3fd48d1e32057bf1	0.321113156174703
91	0x3fe75ae34fcc81ae	0.72984471879686
92	0x3ffbb09893fc2bf2	1.7306142597833483
93	0x3f970e352cc2e487	0.02251513562871257
94	0x3fdb40909e73d6fe	0.4258157298457802
95	0x3fddb9c6d019ed19	0.46446390459432646
96	0xbfd8d83a661da919	-0.3881975171303949
97	0xbfdc9e24638c848d	-0.44715223046848324
98	0x3fdada065f8c5efd	0.4195571835602861
99	0xbfa048a56d3e2277	-0.031804246506969606
100	0x3fed1e45e568d20d	0.9099454384473248
101	0xbff86a1395b06ae9	-1.5258975836974804
102	0xbfc02871b605fb8c	-0.12623425853595582
103	0x3fa60b2904141833	0.043053895709860866
104	0x3fe1eeb80df4a577	0.5603904984065328
105	0xbfb659ae256cb818	-0.0873059121483667
106	0x3fcebcaa6c8f60f9	0.24013262081894718
107	0x3ff7e55c26d55a7e	1.4934960858278425
108	0xbfe4a2a93d8b71cc	-0.6448560907406828
109	0xbffad4184326a3b3	-1.6767809508403217
110	0x3ff4ad79c047b704	1.2923524390166117
111	0xbf9e054a35c434a3	-0.02931705430187449
112	0xbff7651890565810	-1.4621816290068672
113	0x3f87cbaca5383b3f	0.011618946830848407
114	0x3fb74dd1380ffda7	0.09103114718163018
115	0x3fe8b28161c79351	0.7717902097470902
116	0x3fe2e307512ed4b3	0.5902134500126038
117	0x3ff417b32ca009ca	1.2557861083192727
118	0xbff46b8df9989d98	-1.2762584447717469
119	0xbfed4d14d9ebf1e1	-0.9156593567163861
120	0xbff248ebe57415e4	-1.1428030932451003
121	0xbfdeb8110b659404	-0.47998453247993234
122	0xbffa683198accaeb	-1.6504379238000932
123	0xbfe6424002720c37	-0.6955871627582216
124	0xbff25bbe51dc58cd	-1.1473982999501005
125	0xbfc3097e0907e2e0	-0.14872718277890495
126	0x3fe238e5ea4c7a7e	0.5694455696246477
127	0x3fc5eb5122240ed9	0.1712438027099015
128	0xbfe887cd94766aed	-0.7665775203380157
129	0x3ff643cfeba2a912	1.391555710268737
130	0x3fe8ca584c4e3eb9	0.7747003069252606
131	0x3fef419e25309250	0.976759979854771
132	0xbfd6a8326a298db4	-0.35401592605031884
133	0x3fea6afe26da5d4b	0.8255606421325096
134	0xbfe9cf0ccd760b94	-0.8065246594345461
135	0x3fd5be53ef81e7eb	0.3397416914882558
136	0xbff8bf367fc4fcfb	-1.5466828337665095
137	0xbfeec50bc1c91715	-0.9615534577248775
138	0x3ff4cfabf0ee7aee	1.3007010852231207
139	0xbfc6ca0290f92d05	-0.17803985670830272
140	0xbff6ad07a3b7bc67	-1.4172436137412434
141	0x3fc8c63fcde1f493	0.19355008652556602
142	0x3fdf18d3bb878ad4	0.4858903247206119
143	0xbff348b5afd043ac	-1.2052513950077168
144	0xbff8dfe727001449	-1.5546638034295646
145	0x3ff3df8e6a73f74d	1.242079177696229
146	0xbff4c9ef1301102f	-1.2993002645826086
147	0xbff88d42c6b5bef3	-1.5344875108821128
148	0x3ff5da5838452d4a	1.365806789212757
149	0xbff04b849f4b325a	-1.0184370253001789
150	0xbfeef9ead6f809fd	-0.9680074881183028
151	0xbfbc3cedea6fa0c5	-0.11030470822845746
152	0xbff095b94705c95d	-1.036553647453352
153	0x3fe5e210de0b5632	0.6838459336092397
154	0x3fc322b7b791285a	0.14949699843629355
155	0xbff6a2da966514ce	-1.4147592425154474
156	0xbfb398ca5c6d182b	-0.07655014759538463
157	0xbfea32db19b0d9c2	-0.8187079908155328
158	0x3ff17a4041bae52c	1.0923464362698025
159	0xbff4c1ea5778ca9d	-1.297342626273042
160	0xbfdbf87efd60b70b	-0.43704199546742534
161	0xbfe40d367d498d4c	-0.6266128966348474
162	0xbff6b25896b57ff4	-1.4185415160245585
163	0xbff22490f3142121	-1.1339272971400265
164	0x3fd6ff9593206f01	0.3593496262344474
165	0xbff48e19aa234ece	-1.2846924444210575
166	0xbfd430a270f7b3aa	-0.31546841651907676
167	0xbfe18026570ed684	-0.5468932819701
168	0x3fcc089ad3070572	0.21901259712289406
169	0x3fb8ccb45796962d	0.0968735421980333
170	0x3fea41d49cb33e7b	0.8205359516668546
171	0x3ff1a2fd13691d30	1.1022921331621767
172	0x3fef9e1b9f123911	0.9880502802714394
173	0x3fb979e337cf22e9	0.09951610672500134
174	0x3ff79c21bc785c91	1.4756181108585091
175	0x3ff229dd4da6dfeb	1.135220816924625
176	0xbfb061367645b73c	-0.06398334872730244
177	0x3ff1f0f0fd85edd6	1.1213235762833071
178	0x3ff286c16dbcce33	1.15789931169719
179	0xbfcfb5f717a67522	-0.24774063734813817
180	0xbfdf98a60be1d9e2	-0.4936919323003207
181	0x3ff040e39436aae9	1.015842036208307
182	0x3f85c2bb7eac5384	0.010625328830011112
183	0x3fd8a21433509e4c	0.3848925114748212
184	0xbfed37e4e5fbe737	-0.9130730144381464
185	0x3ff486162e852ca7	1.2827359978862576
186	0xbfed3c897b0ba892	-0.9136397746308538
187	0x3fd9e721f188ffcf	0.4047322138540012
188	0x3ff1f3ed7bfbd6ef	1.1220526545634433
189	0x3feae701187d8360	0.8406987646413704
190	0x3ff5449154060cee	1.3292401582883104
191	0xbfd489947d223c08	-0.32089721889582323
192	0x3ff6c7f8a275410b	1.4238211008087684
193	0xbfdf7bfac30de18b	-0.4919421105219263
194	0x3fc97d283ce3a6a9	0.19913199399097906
195	0xbff5d9476699f15e	-1.3655466087212385
196	0x3fe7dacfbef5173a	0.7454603891025962
197	0xbff8adcd6ab2be06	-1.5424322288416774
198	0xbfdbac206abe5059	-0.43238077568208194
199	0xbff6b52c877901f0	-1.419231919470004
200	0xbff3451604961096	-1.2043667010448522
201	0xbfe975b64181a7a1	-0.7956191329405905
202	0x3ff629787375f1aa	1.3851246366676642
203	0xbfe3da1da78b509b	-0.6203754684779769
204	0xbfc2ba10ddf91f1a	-0.14630328024417666
205	0xbfe86d2584e51894	-0.7633235545734061
206	0x3fd7bd0bb47fce4f	0.3709134352386387
207	0x3fdd6777b3361a0c	0.45944015980822495
208	0xbfedb0418cc59b4c	-0.9277656316233815
209	0xbff0e2262532e463	-1.0552121594503425
210	0xbfe6bab2b40bd7e1	-0.7102902905014582
211	0xbff0bd98e9b7319a	-1.0462884072795533
212	0xbfe687eb8828e44e	-0.7040918025369451
213	0xbfece65d5a84e5e0	-0.9031206863357362
214	0xbfe3b45625f60ae6	-0.6157637349536713
215	0x3fcfb4b1b504af60	0.24770184839996556
216	0x3fe91e2a161428ec	0.78493217766052
217	0xbfe662a632877a85	-0.6995421397112557
218	0x3ff9a5369b21ef47	1.6028352794518967
219	0x3fb906ca1da5e943	0.09775984977560363
220	0x3fd6907cf768f1b9	0.3525688568222694
221	0x3ff6ff98e0ec0810	1.437401655770831
222	0xbff153d312089ba2	-1.0829649643362491
223	0xbff9f3f00f6cab1e	-1.6220551111716257
224	0x3fe737de74534589	0.7255699417093392
225	0x3fc84bc0d499b0c2	0.18981180554272298
226	0xbfe8590cc3187659	-0.7608703432521892
227	0x3fdacfc5224700e0	0.4189312777271095
228	0x3ff5039f89661bd0	1.3133845679419558
229	0xbff4a22394fe557e	-1.2895847148950845
230	0x3fed0e3be809d7af	0.9079875499726223
231	0xbff1ae748794c4eb	-1.1050916000497704
232	0x3f87a4d892821019	0.01154488751513587
233	0x3ff7206f9a51725f	1.4454189327290334
234	0x3ff40e7fb8b8140d	1.2535397735202907
235	0xbfe0bb4cbd7189c1	-0.522863740927555
236	0x3ff26e5e0a912a9e	1.1519451535010954
237	0x3fdddf94c5058ded	0.466771309284211
238	0x3feb150bda96933e	0.8463191289234613
239	0xbfd6739db81178bf	-0.3508066461125842
240	0x3fdeb0a46929779c	0.4795313860866999
241	0x3fa5e2281974a1cf	0.042741063220379176
242	0x3fcae8e6af8c66b0	0.2102325780077101
243	0xbfc4c7832096e51f	-0.16233862963944376
244	0xbff5520b1dbf1757	-1.3325301324816416
245	0xbfbcd72f5e9f2f94	-0.11265846309760114
246	0xbfa0c73de0609812	-0.032770093574342365
247	0x3fdf158069cd7417	0.4856873543956807
248	0xbfefb5274d800030	-0.9908634675666743
249	0xbff2d57e7cdedcff	-1.1771225812679516
250	0x3ffb3c1ec78df83f	1.7021777911281928
251	0xbfec0c41d837e64d	-0.8764962409033586
252	0xbff240b6320cf879	-1.1407987551788479
253	0x3ff143a391527284	1.079013412155434
254	0xbffaa3189e601a05	-1.6648184000529238
255	0xbfe23b8ef9b1c8c2	-0.5697703244061574

lstm.weight_hh_l0 f8 [256, 64]
0	0x3fd33d71e1773eac	0.30062529581207786
1	0x3fc5c88927df8bba	0.17018236586508612
2	0xbfc7ce976494402b	-0.18599216853226727
3	0xbfc538d3c96a50b3	-0.16579673132640024
4	0x3fc9dc2d10268933	0.20203173912620684
5	0xbfd174fa9860ebe7	-0.27276482468340507
6	0xbf6f130889981a77	-0.0037932554957962844
7	0xbfa99d6b18d40f6c	-0.05002913168030329
8	0x3f9899f1d1275b35	0.024024752035838055
9	0x3fce6e8014ec6d26	0.2377472021260953
10	0x3fc9cbd19cae6e4d	0.20153255606133982
11	0xbfbb4b13d4ee502f	-0.1066143412447793
12	0x3fcf6bd7a7d6f478	0.24547858901306419
13	0x3fce1d445e858f20	0.23526816001241802
14	0xbfd26f3fc2e544ba	-0.2880401042248867
15	0xbfc99e6b428cc1ca	-0.20014706372741237
16	0xbfc70d8827b20806	-0.18010045946363124
17	0x3fc1592cf1fb2984	0.1355339223430968
18	0xbfd0872f8f0bbeb7	-0.25825108498882393
19	0x3fc7fedff8625e6b	0.18746566417825092
20	0x3f9f3c38dbd52728	0.030503166596907466
21	0x3fcfec3572445ec4	0.24939601973959757
22	0xbfc6d357cf5371e4	-0.17832467673623775
23	0xbfc43a2de42d2b74	-0.15802549020221657
24	0xbfa69c4e35ed368a	-0.0441612664059053
25	0xbfb3fa4f0d4c9421	-0.07803815912900848
26	0xbfac899c2e0f4cdf	-0.055737381575136295
27	0x3fc26b913b39e1ba	0.1439076937856621
28	0xbfb2ac4b5209d192	-0.07294150116815093
29	0x3fcce42887f86419	0.22571283950017643
30	0xbfc28fdc0f15a1d7	-0.1450152467398442
31	0xbfce39cf14a2a70c	-0.23613918788515098
32	0x3fb503b544870490	0.08208783076317361
33	0xbfb64d28be7adaf4	-0.08711485529316204
34	0x3faa5106dac35333	0.05139943523832926
35	0x3fc0621047937fbe	0.12799266333513332
36	0x3fb8d2d59188431f	0.09696707537683523
37	0x3fd02ab1b0352300	0.25260584075708437
38	0x3fc4a56dda4e7c7b	0.16129849586011233
39	0xbf94f28ae8cea4f4	-0.020456476649688818
40	0xbfd2fa75649bddae	-0.2965367777355493
41	0x3fa1049b8e11099d	0.033238278476818574
42	0x3fc9a358f56266b9	0.2002974699178617
43	0xbfc5e73c2611c08c	-0.1711192308316679
44	0x3fcdbc879819e126	0.23231596876917954
45	0xbfd16662949e02e0	-0.2718740893688345
46	0xbfca632a8c6b43dd	-0.20615131241223042
47	0x3fc5844050812135	0.16809848719481982
48	0x3fb26e0439b25378	0.07199121864898739
49	0x3fbe08a346d04255	0.117319302357154
50	0x3fb06bc56bb2bbfd	0.06414445762014505
51	0xbfc850a495e5ec50	-0.1899610263752458
52	0x3f9f1f99ef0afcf2	0.03039398690702639
53	0x3f9ca9f5416e901f	0.027992088431020187
54	0xbf7c1c7c616df15e	-0.006863103734641688
55	0x3fd06a2bca195037	0.25648016678065083
56	0xbfcf0c43dadb6f6a	-0.24256179987321086
57	0xbfc82f5c31bd1f48	-0.188945316587928
58	0xbfcb5dcc98c9bedb	-0.213800024608182
59	0x3fbe7f97e4475eee	0.11913441966259672
60	0x3fca6372e4c7d0e2	0.2061599366276204
61	0xbfbefa86a959646f	-0.12101022371770552
62	0xbfabae0c78800aea	-0.05406226130437182
63	0x3fcb60edd2a02f26	0.21389553818186718
64	0x3fbb463caedcf565	0.10654048222655417
65	0xbfaa227a7d19d254	-0.05104429986105133
66	0xbfb3fe479c4e4855	-0.07809875074443202
67	0x3f95454923251335	0.020772116441793293
68	0xbfbc116487dac6bb	-0.10964039150965281
69	0xbf9ee2bbcce9e458	-0.030161795026718202
70	0xbfb10d126d6ff853	-0.06660571262179475
71	0xbfc835bdf35c3fed	-0.18914007551984416
72	0x3fd0d1ad2b89c48c	0.2627976346185015
73	0x3fc85958d124e37b	0.19022665226091448
74	0xbfcb6467b0d7ff44	-0.2140016187186068
75	0x3f9439391c9b29f0	0.019749538775423348
76	0xbfd1736361e0eac2	-0.27266773756461415
77	0x3fb793be1cf75e6c	0.09209812361893349
78	0x3fb9c6b72574910f	0.10068840660511945
79	0x3fc393df66b268e9	0.15295021547792167
80	0x3fa403396d143313	0.0390870996144256
81	0xbfc7521713c4e9ab	-0.18219269242565636
82	0xbfd1ef62d594c80c	-0.28023596627747405
83	0x3fb43894e0509911	0.07898836590229431
84	0xbfcd515a9245fa6b	-0.2290452207780221
85	0x3fd1a5a6620b7f62	0.27573546957682116
86	0xbfcbb131f76e21df	-0.21634506780198046
87	0x3fb745532f64e95b	0.09090156466564762
88	0x3fccf4f3c7226997	0.22622534964905291
89	0xbfd37c528daa225a	-0.3044630416339139
90	0xbfc1de0b91c02c95	-0.13958878151638446
91	0x3fcdae4b2270b6f4	0.23188151532797685
92	0x3fd0c1ea55c242da	0.2618356549728965
93	0x3fd1534d6d50e9fe	0.270709378007865
94	0xbfa812780087b57e	-0.04701590544196231
95	0xbfc683bc11e4fdba	-0.17589522241358485
96	0x3fcfa1552be73e23	0.24711098331180023
97	0xbfb76179a9f5a315	-0.09133110427286469
98	0xbfa3afa4654f1b25	-0.038449418417761096
99	0xbfc496e48c7e8cad	-0.16085488185954003
100	0x3fd26ae42d793178	0.28777412834894944
101	0x3fd37dadf7e79490	0.3045458718245948
102	0xbf9459436fa4a85a	-0.019871762932929783
103	0x3fb0f840eea8b4e9	0.06628804995189665
104	0x3fc750471492cd3e	0.18213737968981464
105	0x3f942a57707aa50e	0.019692770233324323
106	0x3f8bdd08910636e3	0.01360518162325825
107	0xbfc374f0ad83e46f	-0.15200623009130562
108	0x3f987a9a50e39f2c	0.023905192553598173
109	0x3f7090b1cc0ba405	0.004044241447197732
110	0xbfb7aded8f499cac	-0.09249768017035603
111	0xbfc0da29f86128e6	-0.1316578352728534
112	0x3f971250b2899223	0.02253080453592039
113	0xbfcefd03fcc5135e	-0.24209642259861658
114	0x3fb34e0c381d6f78	0.07540966386789971
115	0x3fd24718dc6958d1	0.2855894234138648
116	0xbfc3d406ee9855a3	-0.15490805292271856
117	0xbfd086ddf696de0b	-0.25823163109768704
118	0x3fc98ffe1f3fe67c	0.19970680738315483
119	0xbfc58ea93609b554	-0.16841616762705292
120	0x3fd387508a5e1988	0.30513394844492625
121	0x3fd0fb8c8ca97506	0.2653533338214661
122	0x3fc2bc7eb64365e7	0.14637740993093404
123	0x3fd0d2e8cfaa6d00	0.2628728893266299
124	0xbfcf8d25f39d899b	-0.24649500270159028
125	0xbfc583c7ee9cb6b4	-0.16808413649544252
126	0x3fad14de02f4cf0b	0.05679982935035185
127	0xbfcd546ffb069308	-0.2291393256865819
128	0xbfb5633005d31b45	-0.0835447324962902
129	0xbfccfd5f1c3a0893	-0.22648228529221068
130	0xbfd04f65c61208e3	-0.25484604208771894
131	0xbfd2086aaa8acb62	-0.28176371244915377
132	0x3fcd0f642fe6056a	0.2270322069053166
133	0x3f620cdb845c0dad	0.0022033965532288397
134	0x3fc8f54cd8ba12e9	0.1949859674679353
135	0x3fcd50866fbcb4ca	0.2290199323264573
136	0x3fa23f500764f0c6	0.03563928690206945
137	0xbfb3a8ebbb907f4d	-0.07679627732477208
138	0x3fa3a47edc2fb46c	0.03836437642881027
139	0xbfcddf22f83a7310	-0.23337208862803793
140	0x3fb8428ed35f971f	0.0947655931518878
141	0xbfcefe11d20b5646	-0.2421285892111646
142	0x3fa954b1bf864540	0.04947429144807325
143	0x3fcb274b9466ee93	0.21213669534869392
144	0xbf94dfa40cc724cb	-0.020384372024442137
145	0x3fa1dce4f6dc875b	0.03488841546483342
146	0x3fca5d5922b10fe8	0.20597376054695293
147	0x3fc6b15b25596341	0.17728747676553705
148	0x3fbcdc4922db3a35	0.11273629284844662
149	0xbfc685c6ad6e4f16	-0.17595752209000953
150	0xbfb634f7559b4760	-0.08674569931033949
151	0x3fcd05ed0d6985eb	0.2267433467377907
152	0x3fc4269e3e6ac8ba	0.15742853210173796
153	0x3fbf79fa274d955f	0.12295497378871321
154	0x3fd22cb3c6626f7a	0.28397840856063505
155	0x3fb01c62f0cebb03	0.06293314341631277
156	0x3f90445a3f1665db	0.01588574419074527
157	0x3fb1d7c6f4b132a8	0.06969874833994061
158	0x3fc1c1e4705bb80d	0.13872962461704255
159	0xbfc4362641a4d8d5	-0.15790250973959155
160	0xbfcf039a7cf3029f	-0.2422974691489985
161	0x3fd22a8d5a86f3c7	0.2838471778921385
162	0x3fc340da1442669c	0.1504166220591302
163	0xbfb8caf6671c587e	-0.09684696214057628
164	0x3fc4a7ac0b97d113	0.16136694494310486
165	0xbfbc70f8895e726a	-0.11109879831060146
166	0x3fb562407cce0132	0.0835304550837506
167	0xbfa2d4083caa5452	-0.036773927121580244
168	0x3fce92fb004cb60b	0.23886048807746393
169	0xbfbd59ccb7b5d76e	-0.11465148434748837
170	0x3fcf6ede50972f02	0.24557093558393467
171	0xbfb213a54a730a59	-0.07061226909267172
172	0x3fab878243076ec8	0.05376822536683573
173	0x3fd2fec0f1416350	0.2967989307413079
174	0x3fcabc22ed66bba2	0.20886646835193995
175	0xbfcb59af6f40b728	-0.213674477884916
176	0x3fd085e0133feade	0.258171099470628
177	0x3fb36546161193de	0.07576406515870768
178	0xbfcd03fc29e68920	-0.22668411298679647
179	0x3fc0dfe042f10b96	0.1318321539748381
180	0x3f94a2858f2ce212	0.020151221145370775
181	0x3fcc45138b0980bb	0.220858042611331
182	0x3fc7c4c5a946cae3	0.18569250836806991
183	0xbf6c71f8a7e14a88	-0.0034723145063620432
184	0x3fae5c39a7c0fc39	0.05929737255836937
185	0x3fc027d50457b61c	0.1262155791477405
186	0xbfc01b25b43247a7	-0.12582846926357869
187	0x3fa59cb1560f9df3	0.042211095576757084
188	0x3f819bfa93e657b6	0.00859828723768517
189	0xbfbd575b20337e68	-0.11461419616852597
190	0x3fd2c079e82c466e	0.29299781487598053
191	0xbfba5aa25799052f	-0.10294546736351572
192	0x3f9b2bb0386dc6e4	0.026533845371381384
193	0x3fb819fce263bff8	0.09414654280749335
194	0xbfc889b53b673490	-0.19170251274627903
195	0x3fcbaad576680233	0.21615093499714674
196	0xbfb4b5dab20345cc	-0.08089987607970456
197	0x3fd31783720cd4c5	0.2983101476450652
198	0x3f92edd07bb59a66	0.018485314894315506
199	0xbfd1fd948c666682	-0.28110231123864804
200	0xbfc6e9c78ec388c9	-0.17900938483132325
201	0x3fb2301befa63445	0.07104658699809459
202	0x3fb0be46137793b9	0.06540334677954619
203	0x3fc731a54858e9e4	0.18120256455024653
204	0x3fd28137fdeaa25c	0.28913688465630627
205	0xbfacd24a9902b893	-0.05629189603620079
206	0x3fb85c45379c8edb	0.0951579342623136
207	0xbfa3c8710730ead3	-0.03863862240583207
208	0x3fa44e31549b940a	0.03965906293687034
209	0xbfc4708cb3c028e2	-0.159684741753444
210	0x3fcea8625e5722ee	0.23951367956603725
211	0x3fd1113c3ef53f72	0.26667696140520214
212	0xbfd1804c771d0e9e	-0.2734557307451072
213	0x3fc483c4f0c22fc5	0.16027127986705927
214	0x3fce8d5f3ee98cc9	0.238689332693957
215	0x3fd310052b363341	0.29785279483694543
216	0xbfc329c811a9723c	-0.14971257078549793
217	0xbfb33503e191c2d6	-0.07502769715371058
218	0x3fd1216588395fec	0.26766336730133733
219	0xbfc5cabba3d348fd	-0.1702494192055112
220	0xbfd1f11969bb5744	-0.28034053159114003
221	0xbfd334720788664d	-0.3000760148584945
222	0x3fc65077153d1911	0.17433060204548004
223	0xbfc958caeec4cec9	-0.19802223833686686
224	0xbfd303653e6f72a7	-0.29708224389268384
225	0xbf98051fea16c708	-0.023457049048096784
226	0xbfa5bdd4de1a14a4	-0.04246392451481398
227	0xbfcd3269b31078dd	-0.22810097926498588
228	0xbfd22a7489999c0c	-0.2838412612676968
229	0xbf9ba665599a448d	-0.02700193747893258
230	0x3fca8fe53ca03c08	0.20751634083032422
231	0x3fbe6c25c6c137a5	0.1188377008668043
232	0xbfcd63379b3bc67e	-0.22959036903153057
233	0xbfca3b29400db61e	-0.20493045451750985
234	0x3fb592e7719ece31	0.08427282833036355
235	0xbf69a834f1adc2bc	-0.0031319650710702456
236	0x3fb623b7862e27a0	0.08648249650846518
237	0x3fd0c7525fa037f4	0.26216563547575267
238	0x3fd1e57286256e2d	0.2796293554326635
239	0xbfc50c4cafd61c9c	-0.16443785272369815
240	0x3fc97c35e8dd42c9	0.19910310621573604
241	0x3fb29d59f3ab6c23	0.07271349142995169
242	0xbfd22c9942f6aad8	-0.2839720872822631
243	0xbfcb8ce7117e0fd4	-0.21523750642893325
244	0xbfa2e1f0afa16942	-0.036880036772986916
245	0xbfc559b14417c965	-0.16679969620561078
246	0x3fc81be91ee1607b	0.1883517647536371
247	0x3fcdf8aa96ddbaad	0.2341511952067398
248	0xbfaf3da0a09c3636	-0.06101705513547666
249	0x3fd0b0ec450d9144	0.2607985185952837
250	0x3fc97fd9c3f4db57	0.19921419208705046
251	0xbfc0bf59486b1cff	-0.1308395007710956
252	0xbfc596a81f25c841	-0.16866017838361994
253	0x3fbf69e73062019b	0.1227097027895127
254	0x3fa577ae7c53c2d4	0.04192872302690423
255	0x3fb18ba4b7c097c0	0.06853703962460056

lstm.bias_ih_l0 f8 [256]
0	0x0000000000000000	0.0
1	0x0000000000000000	0.0
2	0x0000000000000000	0.0
3	0x0000000000000000	0.0
4	0x0000000000000000	0.0
5	0x0000000000000000	0.0
6	0x0000000000000000	0.0
7	0x0000000000000000	0.0
8	0x0000000000000000	0.0
9	0x0000000000000000	0.0
10	0x0000000000000000	0.0
11	0x0000000000000000	0.0
12	0x0000000000000000	0.0
13	0x0000000000000000	0.0
14	0x0000000000000000	0.0
15	0x0000000000000000	0.0
16	0x0000000000000000	0.0
17	0x0000000000000000	0.0
18	0x0000000000000000	0.0
19	0x0000000000000000	0.0
20	0x0000000000000000	0.0
21	0x0000000000000000	0.0
22	0x0000000000000000	0.0
23	0x0000000000000000	0.0
24	0x0000000000000000	0.0
25	0x0000000000000000	0.0
26	0x0000000000000000	0.0
27	0x0000000000000000	0.0
28	0x0000000000000000	0.0
29	0x0000000000000000	0.0
30	0x0000000000000000	0.0
31	0x0000000000000000	0.0
32	0x0000000000000000	0.0
33	0x0000000000000000	0.0
34	0x0000000000000000	0.0
35	0x0000000000000000	0.0
36	0x0000000000000000	0.0
37	0x0000000000000000	0.0
38	0x0000000000000000	0.0
39	0x0000000000000000	0.0
40	0x0000000000000000	0.0
41	0x0000000000000000	0.0
42	0x0000000000000000	0.0
43	0x0000000000000000	0.0
44	0x0000000000000000	0.0
45	0x0000000000000000	0.0
46	0x0000000000000000	0.0
47	0x0000000000000000	0.0
48	0x0000000000000000	0.0
49	0x0000000000000000	0.0
50	0x0000000000000000	0.0
51	0x0000000000000000	0.0
52	0x0000000000000000	0.0
53	0x0000000000000000	0.0
54	0x0000000000000000	0.0
55	0x0000000000000000	0.0
56	0x0000000000000000	0.0
57	0x0000000000000000	0.0
58	0x0000000000000000	0.0
59	0x0000000000000000	0.0
60	0x0000000000000000	0.0
61	0x0000000000000000	0.0
62	0x0000000000000000	0.0
63	0x0000000000000000	0.0
64	0x0000000000000000	0.0
65	0x0000000000000000	0.0
66	0x0000000000000000	0.0
67	0x0000000000000000	0.0
68	0x0000000000000000	0.0
69	0x0000000000000000	0.0
70	0x0000000000000000	0.0
71	0x0000000000000000	0.0
72	0x0000000000000000	0.0
73	0x0000000000000000	0.0
74	0x0000000000000000	0.0
75	0x0000000000000000	0.0
76	0x0000000000000000	0.0
77	0x0000000000000000	0.0
78	0x0000000000000000	0.0
79	0x0000000000000000	0.0
80	0x0000000000000000	0.0
81	0x0000000000000000	0.0
82	0x0000000000000000	0.0
83	0x0000000000000000	0.0
84	0x0000000000000000	0.0
85	0x0000000000000000	0.0
86	0x0000000000000000	0.0
87	0x0000000000000000	0.0
88	0x0000000000000000	0.0
89	0x0000000000000000	0.0
90	0x0000000000000000	0.0
91	0x0000000000000000	0.0
92	0x0000000000000000	0.0
93	0x0000000000000000	0.0
94	0x0000000000000000	0.0
95	0x0000000000000000	0.0
96	0x0000000000000000	0.0
97	0x0000000000000000	0.0
98	0x0000000000000000	0.0
99	0x0000000000000000	0.0
100	0x0000000000000000	0.0
101	0x0000000000000000	0.0
102	0x0000000000000000	0.0
103	0x0000000000000000	0.0
104	0x0000000000000000	0.0
105	0x0000000000000000	0.0
106	0x0000000000000000	0.0
107	0x0000000000000000	0.0
108	0x0000000000000000	0.0
109	0x0000000000000000	0.0
110	0x0000000000000000	0.0
111	0x0000000000000000	0.0
112	0x0000000000000000	0.0
113	0x0000000000000000	0.0
114	0x0000000000000000	0.0
115	0x0000000000000000	0.0
116	0x0000000000000000	0.0
117	0x0000000000000000	0.0
118	0x0000000000000000	0.0
119	0x0000000000000000	0.0
120	0x0000000000000000	0.0
121	0x0000000000000000	0.0
122	0x0000000000000000	0.0
123	0x0000000000000000	0.0
124	0x0000000000000000	0.0
125	0x0000000000000000	0.0
126	0x0000000000000000	0.0
127	0x0000000000000000	0.0
128	0x0000000000000000	0.0
129	0x0000000000000000	0.0
130	0x0000000000000000	0.0
131	0x0000000000000000	0.0
132	0x0000000000000000	0.0
133	0x0000000000000000	0.0
134	0x0000000000000000	0.0
135	0x0000000000000000	0.0
136	0x0000000000000000	0.0
137	0x0000000000000000	0.0
138	0x0000000000000000	0.0
139	0x0000000000000000	0.0
140	0x0000000000000000	0.0
141	0x0000000000000000	0.0
142	0x0000000000000000	0.0
143	0x0000000000000000	0.0
144	0x0000000000000000	0.0
145	0x0000000000000000	0.0
146	0x0000000000000000	0.0
147	0x0000000000000000	0.0
148	0x0000000000000000	0.0
149	0x0000000000000000	0.0
150	0x0000000000000000	0.0
151	0x0000000000000000	0.0
152	0x0000000000000000	0.0
153	0x0000000000000000	0.0
154	0x0000000000000000	0.0
155	0x0000000000000000	0.0
156	0x0000000000000000	0.0
157	0x0000000000000000	0.0
158	0x0000000000000000	0.0
159	0x0000000000000000	0.0
160	0x0000000000000000	0.0
161	0x0000000000000000	0.0
162	0x0000000000000000	0.0
163	0x0000000000000000	0.0
164	0x0000000000000000	0.0
165	0x0000000000000000	0.0
166	0x0000000000000000	0.0
167	0x0000000000000000	0.0
168	0x0000000000000000	0.0
169	0x0000000000000000	0.0
170	0x0000000000000000	0.0
171	0x0000000000000000	0.0
172	0x0000000000000000	0.0
173	0x0000000000000000	0.0
174	0x0000000000000000	0.0
175	0x0000000000000000	0.0
176	0x0000000000000000	0.0
177	0x0000000000000000	0.0
178	0x0000000000000000	0.0
179	0x0000000000000000	0.0
180	0x0000000000000000	0.0
181	0x0000000000000000	0.0
182	0x0000000000000000	0.0
183	0x0000000000000000	0.0
184	0x0000000000000000	0.0
185	0x0000000000000000	0.0
186	0x0000000000000000	0.0
187	0x0000000000000000	0.0
188	0x0000000000000000	0.0
189	0x0000000000000000	0.0
190	0x0000000000000000	0.0
191	0x0000000000000000	0.0
192	0x0000000000000000	0.0
193	0x0000000000000000	0.0
194	0x0000000000000000	0.0
195	0x0000000000000000	0.0
196	0x0000000000000000	0.0
197	0x0000000000000000	0.0
198	0x0000000000000000	0.0
199	0x0000000000000000	0.0
200	0x0000000000000000	0.0
201	0x0000000000000000	0.0
202	0x0000000000000000	0.0
203	0x0000000000000000	0.0
204	0x0000000000000000	0.0
205	0x0000000000000000	0.0
206	0x0000000000000000	0.0
207	0x0000000000000000	0.0
208	0x0000000000000000	0.0
209	0x0000000000000000	0.0
210	0x0000000000000000	0.0
211	0x0000000000000000	0.0
212	0x0000000000000000	0.0
213	0x0000000000000000	0.0
214	0x0000000000000000	0.0
215	0x0000000000000000	0.0
216	0x0000000000000000	0.0
217	0x0000000000000000	0.0
218	0x0000000000000000	0.0
219	0x0000000000000000	0.0
220	0x0000000000000000	0.0
221	0x0000000000000000	0.0
222	0x0000000000000000	0.0
223	0x0000000000000000	0.0
224	0x0000000000000000	0.0
225	0x0000000000000000	0.0
226	0x0000000000000000	0.0
227	0x0000000000000000	0.0
228	0x0000000000000000	0.0
229	0x0000000000000000	0.0
230	0x0000000000000000	0.0
231	0x0000000000000000	0.0
232	0x0000000000000000	0.0
233	0x0000000000000000	0.0
234	0x0000000000000000	0.0
235	0x0000000000000000	0.0
236	0x0000000000000000	0.0
237	0x0000000000000000	0.0
238	0x0000000000000000	0.0
239	0x0000000000000000	0.0
240	0x0000000000000000	0.0
241	0x0000000000000000	0.0
242	0x0000000000000000	0.0
243	0x0000000000000000	0.0
244	0x0000000000000000	0.0
245	0x0000000000000000	0.0
246	0x0000000000000000	0.0
247	0x0000000000000000	0.0
248	0x0000000000000000	0.0
249	0x0000000000000000	0.0
250	0x0000000000000000	0.0
251	0x0000000000000000	0.0
252	0x0000000000000000	0.0
253	0x0000000000000000	0.0
254	0x0000000000000000	0.0
255	0x0000000000000000	0.0

lstm.bias_hh_l0 f8 [256]
0	0x0000000000000000	0.0
1	0x0000000000000000	0.0
2	0x0000000000000000	0.0
3	0x0000000000000000	0.0
4	0x0000000000000000	0.0
5	0x0000000000000000	0.0
6	0x0000000000000000	0.0
7	0x0000000000000000	0.0
8	0x0000000000000000	0.0
9	0x0000000000000000	0.0
10	0x0000000000000000	0.0
11	0x0000000000000000	0.0
12	0x0000000000000000	0.0
13	0x0000000000000000	0.0
14	0x0000000000000000	0.0
15	0x0000000000000000	0.0
16	0x0000000000000000	0.0
17	0x0000000000000000	0.0
18	0x0000000000000000	0.0
19	0x0000000000000000	0.0
20	0x0000000000000000	0.0
21	0x0000000000000000	0.0
22	0x0000000000000000	0.0
23	0x0000000000000000	0.0
24	0x0000000000000000	0.0
25	0x0000000000000000	0.0
26	0x0000000000000000	0.0
27	0x0000000000000000	0.0
28	0x0000000000000000	0.0
29	0x0000000000000000	0.0
30	0x0000000000000000	0.0
31	0x0000000000000000	0.0
32	0x0000000000000000	0.0
33	0x0000000000000000	0.0
34	0x0000000000000000	0.0
35	0x0000000000000000	0.0
36	0x0000000000000000	0.0
37	0x0000000000000000	0.0
38	0x0000000000000000	0.0
39	0x0000000000000000	0.0
40	0x0000000000000000	0.0
41	0x0000000000000000	0.0
42	0x0000000000000000	0.0
43	0x0000000000000000	0.0
44	0x0000000000000000	0.0
45	0x0000000000000000	0.0
46	0x0000000000000000	0.0
47	0x0000000000000000	0.0
48	0x0000000000000000	0.0
49	0x0000000000000000	0.0
50	0x0000000000000000	0.0
51	0x0000000000000000	0.0
52	0x0000000000000000	0.0
53	0x0000000000000000	0.0
54	0x0000000000000000	0.0
55	0x0000000000000000	0.0
56	0x0000000000000000	0.0
57	0x0000000000000000	0.0
58	0x0000000000000000	0.0
59	0x0000000000000000	0.0
60	0x0000000000000000	0.0
61	0x0000000000000000	0.0
62	0x0000000000000000	0.0
63	0x0000000000000000	0.0
64	0x0000000000000000	0.0
65	0x0000000000000000	0.0
66	0x0000000000000000	0.0
67	0x0000000000000000	0.0
68	0x0000000000000000	0.0
69	0x0000000000000000	0.0
70	0x0000000000000000	0.0
71	0x0000000000000000	0.0
72	0x0000000000000000	0.0
73	0x0000000000000000	0.0
74	0x0000000000000000	0.0
75	0x0000000000000000	0.0
76	0x0000000000000000	0.0
77	0x0000000000000000	0.0
78	0x0000000000000000	0.0
79	0x0000000000000000	0.0
80	0x0000000000000000	0.0
81	0x0000000000000000	0.0
82	0x0000000000000000	0.0
83	0x0000000000000000	0.0
84	0x0000000000000000	0.0
85	0x0000000000000000	0.0
86	0x0000000000000000	0.0
87	0x0000000000000000	0.0
88	0x0000000000000000	0.0
89	0x0000000000000000	0.0
90	0x0000000000000000	0.0
91	0x0000000000000000	0.0
92	0x0000000000000000	0.0
93	0x0000000000000000	0.0
94	0x0000000000000000	0.0
95	0x0000000000000000	0.0
96	0x0000000000000000	0.0
97	0x0000000000000000	0.0
98	0x0000000000000000	0.0
99	0x0000000000000000	0.0
100	0x0000000000000000	0.0
101	0x0000000000000000	0.0
102	0x0000000000000000	0.0
103	0x0000000000000000	0.0
104	0x0000000000000000	0.0
105	0x0000000000000000	0.0
106	0x0000000000000000	0.0
107	0x0000000000000000	0.0
108	0x0000000000000000	0.0
109	0x0000000000000000	0.0
110	0x0000000000000000	0.0
111	0x0000000000000000	0.0
112	0x0000000000000000	0.0
113	0x0000000000000000	0.0
114	0x0000000000000000	0.0
115	0x0000000000000000	0.0
116	0x0000000000000000	0.0
117	0x0000000000000000	0.0
118	0x0000000000000000	0.0
119	0x0000000000000000	0.0
120	0x0000000000000000	0.0
121	0x0000000000000000	0.0
122	0x0000000000000000	0.0
123	0x0000000000000000	0.0
124	0x0000000000000000	0.0
125	0x0000000000000000	0.0
126	0x0000000000000000	0.0
127	0x0000000000000000	0.0
128	0x0000000000000000	0.0
129	0x0000000000000000	0.0
130	0x0000000000000000	0.0
131	0x0000000000000000	0.0
132	0x0000000000000000	0.0
133	0x0000000000000000	0.0
134	0x0000000000000000	0.0
135	0x0000000000000000	0.0
136	0x0000000000000000	0.0
137	0x0000000000000000	0.0
138	0x0000000000000000	0.0
139	0x0000000000000000	0.0
140	0x0000000000000000	0.0
141	0x0000000000000000	0.0
142	0x0000000000000000	0.0
143	0x0000000000000000	0.0
144	0x0000000000000000	0.0
145	0x0000000000000000	0.0
146	0x0000000000000000	0.0
147	0x0000000000000000	0.0
148	0x0000000000000000	0.0
149	0x0000000000000000	0.0
150	0x0000000000000000	0.0
151	0x0000000000000000	0.0
152	0x0000000000000000	0.0
153	0x0000000000000000	0.0
154	0x0000000000000000	0.0
155	0x0000000000000000	0.0
156	0x0000000000000000	0.0
157	0x0000000000000000	0.0
158	0x0000000000000000	0.0
159	0x0000000000000000	0.0
160	0x0000000000000000	0.0
161	0x0000000000000000	0.0
162	0x0000000000000000	0.0
163	0x0000000000000000	0.0
164	0x0000000000000000	0.0
165	0x0000000000000000	0.0
166	0x0000000000000000	0.0
167	0x0000000000000000	0.0
168	0x0000000000000000	0.0
169	0x0000000000000000	0.0
170	0x0000000000000000	0.0
171	0x0000000000000000	0.0
172	0x0000000000000000	0.0
173	0x0000000000000000	0.0
174	0x0000000000000000	0.0
175	0x0000000000000000	0.0
176	0x0000000000000000	0.0
177	0x0000000000000000	0.0
178	0x0000000000000000	0.0
179	0x0000000000000000	0.0
180	0x0000000000000000	0.0
181	0x0000000000000000	0.0
182	0x0000000000000000	0.0
183	0x0000000000000000	0.0
184	0x0000000000000000	0.0
185	0x0000000000000000	0.0
186	0x0000000000000000	0.0
187	0x0000000000000000	0.0
188	0x0000000000000000	0.0
189	0x0000000000000000	0.0
190	0x0000000000000000	0.0
191	0x0000000000000000	0.0
192	0x0000000000000000	0.0
193	0x0000000000000000	0.0
194	0x0000000000000000	0.0
195	0x0000000000000000	0.0
196	0x0000000000000000	0.0
197	0x0000000000000000	0.0
198	0x0000000000000000	0.0
199	0x0000000000000000	0.0
200	0x0000000000000000	0.0
201	0x0000000000000000	0.0
202	0x0000000000000000	0.0
203	0x0000000000000000	0.0
204	0x0000000000000000	0.0
205	0x0000000000000000	0.0
206	0x0000000000000000	0.0
207	0x0000000000000000	0.0
208	0x0000000000000000	0.0
209	0x0000000000000000	0.0
210	0x0000000000000000	0.0
211	0x0000000000000000	0.0
212	0x0000000000000000	0.0
213	0x0000000000000000	0.0
214	0x0000000000000000	0.0
215	0x0000000000000000	0.0
216	0x0000000000000000	0.0
217	0x0000000000000000	0.0
218	0x0000000000000000	0.0
219	0x0000000000000000	0.0
220	0x0000000000000000	0.0
221	0x0000000000000000	0.0
222	0x0000000000000000	0.0
223	0x0000000000000000	0.0
224	0x0000000000000000	0.0
225	0x0000000000000000	0.0
226	0x0000000000000000	0.0
227	0x0000000000000000	0.0
228	0x0000000000000000	0.0
229	0x0000000000000000	0.0
230	0x0000000000000000	0.0
231	0x0000000000000000	0.0
232	0x0000000000000000	0.0
233	0x0000000000000000	0.0
234	0x0000000000000000	0.0
235	0x0000000000000000	0.0
236	0x0000000000000000	0.0
237	0x0000000000000000	0.0
238	0x0000000000000000	0.0
239	0x0000000000000000	0.0
240	0x0000000000000000	0.0
241	0x0000000000000000	0.0
242	0x0000000000000000	0.0
243	0x0000000000000000	0.0
244	0x0000000000000000	0.0
245	0x0000000000000000	0.0
246	0x0000000000000000	0.0
247	0x0000000000000000	0.0
248	0x0000000000000000	0.0
249	0x0000000000000000	0.0
250	0x0000000000000000	0.0
251	0x0000000000000000	0.0
252	0x0000000000000000	0.0
253	0x0000000000000000	0.0
254	0x0000000000000000	0.0
255	0x0000000000000000	0.0

lstm.weight_ih_l0_reverse f8 [256, 2]
0	0xbff521ec4eb99179	-1.3207820010366886
1	0xbfe861a4644af962	-0.761919208416469
2	0x3ff2b3e0ecf4c1c6	1.1689156776520675
3	0xbff52285da346795	-1.3209284328099546
4	0xbff0341cd6d2c235	-1.0127228156599248
5	0x3fe4c8e7463565ca	0.6495243426572241
6	0xbfefa722608f78ab	-0.9891521345087048
7	0xbfd43d1fd4ed81f4	-0.3162307338116357
8	0xbfd9c13a6412aaa0	-0.4024187066340037
9	0x3feada037279ea9a	0.8391129718650803
10	0xbff88d7fe2226274	-1.5345457871791526
11	0xbfcedd32a31ace4f	-0.241125421181652
12	0x3ff78357c82429ff	1.4695661371248432
13	0x3fef77e0186dbcec	0.9833832242128699
14	0xbff6d2f0e19a7c49	-1.4264992535243144
15	0x3ff404c226bcee41	1.2511617196277174
16	0x3fc2543b93f59fd5	0.1431955788095808
17	0x3ff600f72a30659e	1.375235714722613
18	0xbfee489bf39e4588	-0.9463634260338702
19	0xbfb622599401231d	-0.08646163810147951
20	0xbfdfd64d00e65b86	-0.49745488250612657
21	0x3fee1f90ff60f9a6	0.9413533199183817
22	0x3fe968a891a13500	0.7940256923990603
23	0xbf992366567b07f5	-0.024549101856571515
24	0x3fd35565eff07c05	0.30208729201871193
25	0x3fdeb12bac499f54	0.47956363511047084
26	0x3fec740228056c40	0.8891611844695788
27	0x3ff18b9ab4d15b63	1.0965830863185253
28	0x3fd84cd88aba54e5	0.3796902994884717
29	0x3ff1fb204970e8ee	1.1238100880423718
30	0x3febdfdddb42d31d	0.871077469104964
31	0xbfe7c5842415fbbc	-0.742860861282558
32	0xbffb922760976ba7	-1.723182084379667
33	0x3fe5eea18f319c44	0.6853797718766903
34	0xbffb2a5fa2be6542	-1.6978451115777067
35	0x3fa61df4ee72c0c1	0.04319730196709904
36	0x3fd803a294a73999	0.37522186772266647
37	0xbff8778922b8d510	-1.5291835171058814
38	0xbffa04827f2be491	-1.6261010139117256
39	0x3fd6112de3bc96eb	0.3447985385886187
40	0xbfe1286f5707ae62	-0.5361859035305765
41	0xbff0f57f55bb71ae	-1.059935889140529
42	0xbfabcc1748aa2d12	-0.0542914653970802
43	0xbfe96b2dc8362046	-0.794333354032468
44	0x3fba1fb2e9c76aeb	0.10204618651861679
45	0xbfe555675748848c	-0.6666752533675591
46	0xbfd5d2e68e75a8ae	-0.34099735176153956
47	0x3fefd03f0429017f	0.9941706734899042
48	0xbff7ee48d6b95885	-1.4956749332100412
49	0xbffafd5aae707589	-1.686854058650484
50	0xbfc76a7a5bc4adb5	-0.18293694954750853
51	0x3fe2df959df990cc	0.5897930226751895
52	0xbfc1065d416abd81	-0.13300672239482128
53	0xbfc722526f5a6a08	-0.1807349246708585
54	0xbfe76389cc2d1b29	-0.7309006679359743
55	0xbff1f3d1696f425a	-1.1220258825816445
56	0xbfe11e3d85e9667a	-0.5349414458716659
57	0x3ff2d805b1966cf4	1.1777398049369454
58	0x3fe74efd18c2fee3	0.7283921702982891
59	0xbff1e49e4cf2a952	-1.118315029695243
60	0xbff1b1679ce20d17	-1.1058117035143533
61	0x3ff99782a255822a	1.599489816777473
62	0x3fef0e0e7a93af5a	0.9704658884124726
63	0xbfecc07aaa09d251	-0.8984959908544373
64	0xbfe87dc7b510130a	-0.7653540169127109
65	0xbfe34bd473d948b2	-0.6030065787001802
66	0x3fc386244d0b74ca	0.15253118287993167
67	0x3fa45a35d7652c16	0.039750750106201035
68	0x3ff71e4c83692c76	1.4448971875415544
69	0xbfebd27d7fb6a8bb	-0.8694446081547292
70	0xbfd3073a2d801d59	-0.2973161167469321
71	0x3fea07076c38448b	0.8133580316226853
72	0xbff3d46535d42ffb	-1.2393543341340763
73	0xbff7f423ffdbc26d	-1.4971046442480216
74	0x3fba3f7e41de5e10	0.10253132923241304
75	0xbfe92e1b077b39c0	-0.7868781229133717
76	0x3ff1f41e91c788cf	1.1220994658001933
77	0x3ff91362827b9a35	1.5672326180443978
78	0xbfe4e2cfb8f6783d	-0.6526869404367585
79	0x3ff1553d1b3473c6	1.0833102286044194
80	0xbfdab53cb0dbdc98	-0.4173118331086214
81	0xbffa32935419c72a	-1.6373475346740158
82	0x3ff62077b274534c	1.3829266520380825
83	0xbf5a7516d8c0a387	-0.0016148303138925084
84	0xbff0bf4bb835296f	-1.0467030711757521
85	0x3fe59c64234ed6c9	0.6753407182320298
86	0x3feb3d0e67c1324d	0.8512031580408547
87	0xbfe9a806b127155b	-0.8017610034955099
88	0xbff673b4ccc4f20a	-1.4032485960771077
89	0xbfe8ada42ff0814e	-0.7711964546506722
90	0x3fc76352937af94c	0.18271858407201547
91	0xbff81b64b7922d94	-1.5066878481619357
92	0x3ff269f5cc6df5f9	1.150869177391881
93	0xbfef0a8b221441e7	-0.9700370469673175
94	0xbff6e00394afe8c7	-1.4296909149257304
95	0x3fafc23201d1deab	0.06202846786703494
96	0xbff079eccec09ec1	-1.0297668529764652
97	0x3f96b742bf5d8799	0.02218345921517759
98	0xbff62240dc52d3a8	-1.383362637175404
99	0xbff930c0ede28599	-1.5744027416588777
100	0xbfe7650d9c7ae224	-0.731085591912294
101	0x3ff337c59f309307	1.201116201243339
102	0xbff6ae5979c49b1f	-1.4175657993852793
103	0xbff9e6e6c681479f	-1.6188724283315208
104	0xbfdc5471dbc8b360	-0.44265409911422715
105	0x3ff1c71c12d079b1	1.1111107573448005
106	0x3ff25830c8e4d5ca	1.1465308997552364
107	0xbfe36d38c6f2fa18	-0.6070827375149888
108	0x3ffa03d13a07d27b	1.625931955987794
109	0x3fee31b25c42e98e	0.9435664941768651
110	0xbfd587ce1adb9dbd	-0.3364138853343908
111	0xbfb56e90d31fb1ea	-0.08371834902181488
112	0x3fe269933ffd2286	0.5753875970631988
113	0xbfac393710413174	-0.05512401650830415
114	0xbfc32f1ee7ec8ddf	-0.14987551044860845
115	0xbfdcfd5295e24f48	-0.4529615844451098
116	0xbfd693243c05a6a9	-0.3527308069375104
117	0xbffb674de252ab7c	-1.7127207604159755
118	0xbfee57be68ef937b	-0.9482109117057996
119	0xbffa03168e890bdf	-1.6257539336954705
120	0x3ff78f78ee185620	1.4725274372662014
121	0xbfe7e5c6497777dd	-0.7467986521621658
122	0x3fe6b138bb2bf5b9	0.7091334968278523
123	0xbfecb235af772bce	-0.8967541148243698
124	0xbff1a125102b8762	-1.1018419868127798
125	0xbff45682c14a9e19	-1.271120791477989
126	0xbff8f9ee25959b54	-1.5610181301251105
127	0x3fbe94475310ed83	0.1194500520513682
128	0xbff84b24040b8a8b	-1.5183448942194981
129	0xbfe1f2392180617b	-0.5608182577444006
130	0x3fe040a0da0366a1	0.5078892000266998
131	0x3fc8b6ce7a6ac336	0.19307881333727445
132	0x3feae272dfd3b74a	0.8401426669713399
133	0xbfe5db5cb4760532	-0.6830276035908922
134	0x3ffaaa62ed8984f3	1.6665982512279782
135	0xbfada15eaad2e3d5	-0.05787177882434206
136	0xbfedcbc0101f54a5	-0.9311218562021578
137	0x3ff368f242cc0ecf	1.2131216630231625
138	0xbff25929394b03ad	-1.1467678297051223
139	0x3f9ee8f9aa2c1b9d	0.03018560506009359
140	0xbfd19ef42ef6a649	-0.27532677255894505
141	0x3fee198761f6f2d0	0.9406163133022236
142	0xbfef9caed7f5bcd6	-0.9878763406722111
143	0xbfb518660a6af770	-0.08240354303685904
144	0xbfd3b809fc3fc014	-0.308107849442423
145	0x3ff6b8df186bac49	1.420134635346374
146	0x3ff83b90138120f3	1.5145416986361482
147	0x3ff4121f0fcd0137	1.2544241540163747
148	0xbfc88b263383d22f	-0.19174649730088464
149	0xbff517c2813fd8da	-1.3183007286839286
150	0x3ff9bdde14b549a7	1.6088543709671315
151	0xbff8bfc298bc1ae9	-1.546816441173798
152	0x3febf63d80f7485c	0.8738086241594476
153	0xbfe61376693202a3	-0.6898757986637815
154	0xbff65860f852c51f	-1.396576852810831
155	0xbfde529679dc5885	-0.47379075909101004
156	0x3ff9137d53cfb402	1.5672581933861243
157	0xbfef0cc8b5c47b7b	-0.9703105497500099
158	0xbfe9a7e30b5c4f03	-0.8017440053831425
159	0x3ffa4ea3c2517225	1.6441991415550856
160	0x3ff3c7c325707fef	1.236270090339527
161	0xbff24ae4c46db58e	-1.143284575747518
162	0xbff232a4c9f5b869	-1.1373641861969424
163	0x3ffb3fdbfa34a1a8	1.7030906461387563
164	0xbff0f67aa126fdf6	-1.0601755423557484
165	0x3ff596b00399ca96	1.349288953843517
166	0xbfeb7601b6025825	-0.8581551127306325
167	0x3fe1793eb290466c	0.5460504043168846
168	0x3ff989c5cd0b982a	1.5961359033185638
169	0xbfde2259beb01f2b	-0.4708465921580564
170	0x3fe4133879ec15c7	0.6273462659161674
171	0xbff902a7f09e74af	-1.5631484412363468
172	0x3fe8536f7b9df43b	0.7601849951166807
173	0x3fc044f97fee6a00	0.12710493799825429
174	0x3ffa2de144f96b27	1.6362011617954495
175	0xbff2f8a4eb103519	-1.1857041532669597
176	0xbf96d2b3db91ec82	-0.022288141514291933
177	0x3ff614154bafdc29	1.3799031216165167
178	0xbfe64d15a442d6a4	-0.6969097336029404
179	0x3ff6dfa082524da8	1.429596432751035
180	0xbfea5aa351a01068	-0.8235642046206637
181	0xbfe5a1d860f69f93	-0.6760064977470271
182	0xbff7a120eb2eba46	-1.4768380343263217
183	0xbfe41f9bce0570e0	-0.6288584731915101
184	0x3fd730ebac218700	0.36236087617554347
185	0xbfd17069ed568c26	-0.27248619248911365
186	0xbfe0c8825fea7dd1	-0.5244762299880056
187	0x3fdc18dbfc92f5ba	0.43901729264674894
188	0xbfb54c3b5381a99a	-0.08319445408566253
189	0xbfe18c7e3c364239	-0.5484000373854264
190	0xbff3be444ecf2b2e	-1.2339518621908598
191	0xbff1d5dc9c9e3286	-1.1147123449219705
192	0x3faa3bb244095a7c	0.0512366970112241
193	0xbfb59a0f60f4bc08	-0.08438202015962315
194	0xbff596103f067c10	-1.349136587326715
195	0x3ff5d32f9fea3724	1.364059090297311
196	0xbff5152ededeb22a	-1.3176716523986536
197	0xbfc54654c95a263d	-0.16620883781097176
198	0xbff18ab6d86352c2	-1.0963657810836342
199	0x3fda61ae6890d5b6	0.4122119923734674
200	0x3ff8b0bb8e5374d2	1.5431476173028398
201	0x3ff34ca3f160ad48	1.20621103561537
202	0xbfb2b0afca407c5c	-0.07300852477827519
203	0x3ff1c04d7879a813	1.1094488817275348
204	0xbfd7c058c9e087af	-0.37111491884763387
205	0x3faf8d97017562de	0.06162711994938318
206	0x3ff9af1ce99d0e9b	1.6052521825339798
207	0x3fb27c1a113de8a4	0.07220614357894078
208	0xbff354a71f058df6	-1.2081671916756682
209	0xbfe8e094e1b58572	-0.7774147423153137
210	0x3fecaaa6fda35681	0.8958315805309242
211	0xbff75a0c221231d0	-1.459484227266433
212	0xbff817efaacdf4b3	-1.505843798833024
213	0xbff0b221c75fe2a4	-1.0434892452305258
214	0xbfeb1ffc24d6503c	-0.8476544112659279
215	0x3fe553d3dcdb2241	0.666482859954222
216	0x3fde5dc5d9b81f48	0.47447344075816433
217	0xbff07e01e6738a58	-1.0307635309224192
218	0x3fe31be70d201429	0.5971560722688355
219	0xbfc074865a549606	-0.12855605517067675
220	0xbff899c7c2cd46d2	-1.537544022507451
221	0x3fe1231bbafdd80d	0.535535683839727
222	0xbff44c2b13c033ab	-1.2685957690730258
223	0xbfdabb5fac92add2	-0.4176863847048625
224	0x3fe10dead41667b8	0.5329488890013101
225	0xbfaabc467b9b36bf	-0.05221767672410981
226	0xbfecc9f917e676aa	-0.8996549097825739
227	0x3fee08a42cb1484a	0.938554847040231
228	0x3fa516b6952b8fee	0.04118891306805482
229	0xbff7a3014eb40dc6	-1.4772961687420874
230	0x3fdf57c5e438eb45	0.4897322396024502
231	0xbff1d23aafefd784	-1.1138254997763122
232	0xbff4458a54f0c986	-1.266977626608964
233	0xbfe997dbfe54fd37	-0.7997875182553916
234	0xbff3b8d4189c87f7	-1.2326241456398728
235	0xbfc7823c3884593d	-0.1836619640313958
236	0xbfe81884e88a57c9	-0.7529930631451346
237	0xbff02610a4f90c93	-1.009293217110813
238	0xbff0883e384fd34f	-1.0332624625854867
239	0x3ff8659a116eba12	1.5248051339109492
240	0xbfeae6e829abf09f	-0.8406868757151819
241	0x3fe759e85b31c516	0.7297250538960351
242	0xbff446b4482984bf	-1.2672617739520289
243	0xbfd783ac364ae3a3	-0.36741166402821984
244	0x3ff3cc2c7baa1146	1.237347109855436
245	0x3ff80f1c0d2e28fc	1.503688861356351
246	0x3ff047fc194ad9ca	1.0175744045242134
247	0xbffac1fc97426e13	-1.6723600300382528
248	0x3ff1409755e6e1c8	1.0782693248312274
249	0xbff0ee54b15b1739	-1.0581862380945053
250	0xbff96486fc47ae3b	-1.5870427946746435
251	0x3ff471e8e215f0ab	1.2778099853012843
252	0x3ff4459861b57903	1.266991025615028
253	0xbfd89647683859dd	-0.3841722982191678
254	0x3fe60dc715579e87	0.6891818444100445
255	0xbfe0870e6a379035	-0.5164863657523769
