isoform_quantification/models/Salmon_RSEM.pt (torch, 352712 bytes, 36 tensors)

lstm.weight_ih_l0 f8 [256, 2]
00000000: 5762 6ec8 8042 f83f 4260 85b8 eb86 c73f
00000010: 0600 c68d fb41 f43f 933f 046f 0161 f6bf
00000020: 05b1 17ef 0fc9 d4bf 81f7 18c8 a3eb eb3f
00000030: a449 f936 d4c6 e33f 166e 0120 952e f2bf
00000040: f9c1 9fd4 24ee ecbf 308d 3570 942c f53f
00000050: a64a f121 c5d4 debf ab9c c374 b3fd b4bf
00000060: 9510 39c2 b353 f23f 47d2 31c9 30e0 e9bf
00000070: de1b 4165 d10f d4bf bccc 1c85 2c95 d0bf
00000080: a0a7 6244 fb6e c43f ff21 1297 4435 f7bf
00000090: 9688 a16a b710 f43f 85f8 e3bc b7b4 d33f
000000a0: ba06 9c89 0507 f7bf 4bbe 6360 5364 b9bf
000000b0: a962 fbcc 79fd cc3f d887 2a10 a172 d9bf
000000c0: 5d1e cee4 1b46 f03f dc6a 42fe 823c e13f
000000d0: 2fe8 e597 c183 f53f 9772 b165 0041 f73f
000000e0: 72a9 39f3 dd61 ce3f e211 32c7 6b57 f63f
000000f0: d7e0 4a4f 119e dc3f 2ed5 444c 76dc ecbf
00000100: 6961 4dfc be21 9a3f d975 c0af 62bd f93f
00000110: 82d2 f910 142b f2bf 959c 1f12 b526 c63f
00000120: 3f6e 1011 8219 f8bf 5fa9 7f51 6550 e5bf
00000130: 965c ea5c ddea be3f e50c 92c0 660f 903f
00000140: 5bb6 7559 3645 f53f 2734 3bc8 74a0 e03f
00000150: e26d f414 ad80 f03f 8504 b2b4 589a f83f
00000160: d7fa c234 4ef9 d33f 0784 2968 e934 f53f
00000170: 336f 7fc2 57f2 eb3f 3576 9317 df9c eb3f
00000180: 6d9e b566 b1ac bbbf d92e 7f18 c8c9 f3bf
00000190: ec65 2d8e a017 e93f 22da 05b2 4c7a d1bf
000001a0: fa3b a552 26de dc3f 2215 2a85 450d e23f
000001b0: 89cd 8651 dabe ebbf fd96 dff8 7cb4 b7bf
000001c0: 525e d70a 705f ebbf 30b5 6e9a 4d56 ecbf
000001d0: 2c9e 759c 3329 db3f bb1c 0bf3 4d2e e7bf
000001e0: f1c0 92bf 0902 edbf 0d6c dd58 f56a cd3f
000001f0: 7e49 b3d8 c59f f73f ac50 ba1c 903e 9a3f
00000200: adc9 820f a36b e6bf bbdf 5245 81d7 c3bf
00000210: b84a 6548 6515 f83f 2242 24d4 aedb f93f
00000220: 306e 4566 3a0a e03f de35 27e1 4141 d73f
00000230: 37bd 9474 0882 e8bf b16d c20f 3002 e83f
00000240: 7d89 c2c0 c0e7 e7bf 17e9 c286 8d4d f33f
00000250: 017e 7883 80c4 f2bf 23ad 27a5 2c2a c93f
00000260: aedc e4e5 f29c f23f 5802 62a0 5116 e83f
00000270: dcc8 7644 f613 f9bf 6334 e6c9 b2c8 db3f
00000280: 8e43 6a79 877b d1bf a5ac ee0b 6d2a f2bf
00000290: 2bd6 09d6 00be ad3f 86c8 8dd2 0771 d73f
000002a0: 06ee 7167 a34c f4bf 8000 25f5 dd30 f5bf
000002b0: 753b ca25 4acf bfbf c8cf d35d 4e32 f13f
000002c0: 0cb4 5a00 98ac f73f a66f 7d49 d64a f3bf
000002d0: 691c 6981 a7b7 d3bf e19b 587d 6720 e43f
000002e0: b26c b7bb 077d d9bf 188f 061b 2e58 d9bf
000002f0: ed6c 8387 6a52 f43f 1dd2 ba5e 7e3d ee3f
00000300: 4e3e 1a3e 3730 eabf f48a 1594 a1c1 dabf
00000310: fbf4 4cf3 800a e2bf 10fe 591d a0b0 e6bf
00000320: 664b cdf1 77af c3bf 3b4a 10e2 8aca e83f
00000330: 8c3c c545 65c1 f23f 42a6 7775 9550 ea3f
00000340: 4ce1 3680 664f e6bf 5369 c8e7 a355 e4bf
00000350: a634 0c2b a9f4 efbf dba1 41b2 e91b e5bf
00000360: 6c0c ce4e 26bb e63f c9b7 1e27 df13 f3bf
00000370: c4d6 a6ac 13d8 f33f e517 f619 a3f7 f13f
00000380: 1a56 854a f656 cbbf 9e15 d91c 310f f53f
00000390: eaed 5ec6 59e3 f03f 1b95 4abd 4e54 edbf
000003a0: 58cb 0a3c 624c f43f 1d62 3817 f9de ea3f
000003b0: a023 23a4 a58f f33f e872 4ba6 1f4c b5bf
000003c0: a5f4 d9e0 8372 f63f c01e 3a64 f854 b5bf
000003d0: cec8 8577 dd5e f1bf 6f52 7ee0 c5de eb3f
000003e0: 0da0 a0e2 9a79 f5bf 6e5c 56d4 d8bc ee3f
000003f0: fcba 44a4 3bcf f33f 431a 4828 c3cd e33f
00000400: 3a01 4e27 d2ae fb3f 495c a35a 242a f13f
00000410: 32d6 524a cac8 c9bf 28d3 7568 7a53 efbf
00000420: d3f0 2b96 f0f0 f93f 3d74 ad9e 6fc2 ed3f
00000430: 81f5 0648 9373 ddbf 5d4b c897 d59d f7bf
00000440: e775 84eb 14ad e53f 5df4 c91e a884 f7bf
00000450: 484b cd17 6081 93bf 7d92 3142 9844 fbbf
00000460: cd6f 4163 112a dc3f b667 b629 3dcc d93f
00000470: 1df2 507c f918 d13f 75ee 8a9d ada9 f83f
00000480: 4a33 dff5 5d56 f2bf dab8 5340 d5d5 f83f
00000490: 5a33 d25d 97fd d6bf 12d1 e9b2 0e2a eebf
000004a0: cbb9 3122 4127 c93f 00d1 a8ac 42b4 e8bf
000004b0: cc54 727f b1d5 dabf 17b4 2ae7 f83f e6bf
000004c0: 8566 86b4 c717 f4bf 4c3c dea4 9fda f23f
000004d0: 7541 4f2d 9d83 dfbf 0846 2ede e2d7 eabf
000004e0: 2a58 61f3 a2f2 ebbf ef09 2f4b f38c c73f
000004f0: 1364 4768 e585 e13f d8c1 c309 2de5 ed3f
00000500: f9b1 5b3d 1b0a d1bf 185c 2a6d 6e60 be3f
00000510: dbde d2ee 1adf f4bf 0091 b49d 5b26 c6bf
00000520: dfc8 c6b8 ecc3 ccbf 5480 f72d 4e5f f8bf
00000530: 0ae8 ba4f 66c6 f93f 3102 48af eeb1 cbbf
00000540: 9852 83ce eb93 d03f 2ed5 6765 3595 fabf
00000550: 88c2 84a9 1e45 f6bf 36b2 2350 c244 d0bf
00000560: 9f77 e74b 739b da3f 3644 dcd5 cffe efbf
00000570: ec5e a235 15c0 d13f d85f 8699 b82f d33f
00000580: b068 812a db7d dcbf 28e1 d92c e7ea d5bf
00000590: daf6 a4da 3560 eebf 009b 5696 9d93 e2bf
000005a0: 9d0d 70c5 328b fbbf 46d0 c69e 099e e7bf
000005b0: 7000 a9fe 2e18 fb3f 0521 dafc de7a d1bf
000005c0: 2139 c654 de11 da3f d996 c9a8 e561 f9bf
000005d0: da13 aa9e ae28 b4bf d293 80e2 bc99 f9bf
000005e0: 125c e6c2 9913 e3bf 3331 dfb4 857a dc3f
000005f0: f6ff e692 e91c f6bf 11fa d4b5 f0ae aebf
00000600: 1936 e4fb 3b38 e0bf 3421 40ec f6c2 fabf
00000610: a5c0 d49d 6947 dcbf 7ff6 da4a 5d46 d9bf
00000620: ccea 9489 c2da f9bf b72a c553 ebb6 f73f
00000630: 3452 df77 a5a8 f23f 1643 8f02 6cd5 f7bf
00000640: 32a2 76e3 8173 f9bf fd3d 30e4 11cf eabf
00000650: f1d8 e058 dbb3 a73f f51e a889 1822 f03f
00000660: 2d09 3854 af9c ee3f 823f 72d9 eca8 f0bf
00000670: 06b3 9e35 dd8a fabf 36ad d907 61cb f93f
00000680: e801 72f3 2b07 f33f 4833 41be bf57 d0bf
00000690: 666a 2827 9c6c a33f fdaa 3375 4362 e8bf
000006a0: f313 7cd0 4a59 df3f bf5b e6de 8013 afbf
000006b0: 021d 8321 349d fa3f 1295 00eb 0aa1 dd3f
000006c0: 98a6 fa44 53d3 cabf f747 728b 2993 f2bf
000006d0: eed5 7aff cdad e6bf 629e eb5b 6a5e f33f
000006e0: 31f6 b4ec b757 d3bf 7466 69d7 4079 fa3f
000006f0: 6652 aa1e aa86 e13f 772b 6184 cf56 f3bf
00000700: 84e4 b5c0 5d04 cbbf 7309 85c9 9130 e9bf
00000710: b8e8 0acf 659a fbbf 8600 65c3 955b f7bf
00000720: 0ebb 198e d0d3 fa3f 56c7 54db 9bf9 d7bf
00000730: 2ad7 e361 9c04 f9bf 31ef d3ee 45a3 e63f
00000740: 8d40 e8f3 9938 df3f 707f 653a e9c9 df3f
00000750: c2dd 1759 51d8 e23f ad24 b003 ebc6 c83f
00000760: c518 90b1 54bc d7bf 335f f21d 5760 eb3f
00000770: 6fc6 5bf8 a66a f5bf d804 929d aa43 f73f
00000780: cf95 21e0 068f d13f 1cb1 a874 d445 ce3f
00000790: 497e 3f75 12af e53f 9b22 085a b9f1 ec3f
000007a0: f1d7 2d00 0bc4 f63f 4607 648f 73de f53f
000007b0: 14b9 a80b 15ee ecbf a090 57c8 0c7f b8bf
000007c0: 9780 9d23 b7e6 fa3f 16e1 2623 b949 dcbf
000007d0: 6d66 eff5 a86d ecbf 15fe a06e 4066 f4bf
000007e0: dd5b e7df 763b f7bf 4552 f0c3 bc38 ebbf
000007f0: 9626 3900 ab02 dabf 75e2 3311 d120 dc3f
1.5162360982268603 0.18380495557608084 1.2661090410256306 -1.398683007868361 -0.32477186535722097 0.8725146206049744 0.6180211137491836 -1.1363726854532437
-0.9040702965558572 1.3233837493106186 -0.4817364531965417 -0.08199617005049002 1.1454351031143564 -0.8086170129377671 -0.3134654511272269 -0.25910485266940575
0.1596368869698468 -1.4505048657612176 1.2540811696312963 0.3079051346429725 -1.439214265381834 -0.09918709853422418 0.22648546704183062 -0.3976214082596221
1.0171164453221515 0.5386366811756846 1.3446670468824882 1.4533695194615228 0.23736166359169492 1.3963430195882371 0.4471476816502337 -0.9019118775965234
0.025519355916317297 1.6087366929344766 -1.1355171836013658 0.17305625328956312 -1.5062275568551653 -0.666063937356096 0.12077125090069027 0.015683751586505052
1.3293975348018623 0.5195869360701452 1.0314150637194577 1.5376822527325953 0.31209139969352634 1.325417906650047 0.8733328627381297 0.8628993473500431
-0.10810383565478228 -1.2367630917460046 0.7841341759587386 -0.27308957467121975 0.4510589415630758 0.5641200638644117 -0.8670474617305653 -0.09259778095255551
-0.8554001056426819 -0.8855350509890396 0.4243897464679971 -0.724402403539805 -0.9064987889924209 0.22982661093814763 1.4765070404870069 0.025629283669858324
-0.7006392767855708 -0.1550141895766027 1.5052235439258492 1.6161335264952261 0.5012485501751538 0.36335799205411756 -0.7658731724713225 0.7502670581629244
-0.7470401539651871 1.2064337982288345 -1.1729741225789214 0.19659956039627344 1.1633175831064295 0.7527244694211488 -1.5673735308051198 0.43412465779039716
-0.273164623803546 -1.135357901201851 0.058090234878289536 0.366273837679849 -1.2687105217763714 -1.3244304252584982 -0.12425673887831386 1.0747817673809426
1.4796371473160006 -1.2057707663252386 -0.3080843700194636 0.6289555977026532 -0.39825623828591994 -0.39600708617420954 1.270121125554222 0.9450065469923775
-0.8183857167186461 -0.4180683084615986 -0.5637821914639568 -0.709060723616803 -0.15379237467513035 0.7747244277291608 1.1722157216461566 0.822336892536619
-0.6971924308955209 -0.6354541327485016 -0.9986158219122856 -0.6596573335237353 0.7103454150350337 -1.1923514869808847 1.240253137989769 1.122958280001961
-0.21359137190545213 1.3162089468836267 1.0555055378780431 -0.9165414521309317 1.2686483712575036 0.8397183850784732 1.222570077096158 -0.08319280443124522
1.402957800222148 -0.0833277935690786 -1.0856604260302904 0.870943964446793 -1.3421887257227383 0.9605526110853029 1.238093988107436 0.6188674723387709
1.730180886777886 1.0727885761787255 -0.2014401305111036 -0.9789402046431848 1.621323191268904 0.9299848651095385 -0.46017915758042 -1.4760337761878966
0.6773781394910515 -1.4698868944826906 -0.019048215344194902 -1.7042467675866242 0.440067622117337 0.4030907542561367 0.2671493257546745 1.5414253381740342
-1.1460857014055414 1.5522053253912902 -0.3592279831143991 -0.9426339620972917 0.1965104500736302 -0.7720044491057081 -0.4192928070636526 -0.6953091158844725
-1.2558056880720028 1.1783749046478702 -0.49240807938351533 -0.8388532962291615 -0.8733687165756738 0.18398896380502047 0.5475947415062613 0.9342255774227466
-0.266241846008398 0.11865892567799141 -1.3044690445948877 -0.1730455894513696 -0.22472914716997303 -1.5232679172113608 1.6109374155480531 -0.21636756476074617
0.2590283886650382 -1.6614278756290548 -1.3918749448604633 -0.25419671846501346 0.4157379380466128 -0.9998549630128142 0.2773488067409591 0.2997876643435098
-0.44518164778640834 -0.3424623430251068 -0.9492444296263003 -0.580519479398248 -1.7214839661035974 -0.7380416966539165 1.693404192701589 -0.27312445347389797
0.40734060553303847 -1.5864006608257368 -0.07874575971261724 -1.6000336501831396 -0.5961426550519511 0.4449781671835524 -1.3820586908695964 -0.05992843837383444
-0.5068645400767223 -1.6725987652335563 -0.44185867703618903 -0.39491970357980927 -1.6159081815991838 1.4821580192826056 1.1661734278215024 -1.4896049594864897
-1.59070004322906 -0.8377770859532913 0.04629407367649375 1.008324182244846 0.9566265721225925 -1.041241502189195 -1.6589023680236905 1.612153082528335
1.1892508992751747 -0.25535577373084495 0.03793800333024393 -0.7619950570200157 0.4898249660475919 -0.060695674142315685 1.6633797940319828 0.46295426320496447
-0.20957413547630632 -1.1609282920003332 -0.7087163915481918 1.2105506506576593 -0.30222890964418797 1.654602853252439 0.5476885413105037 -1.208693997485822
-0.21107074651425617 -0.7871788917475854 -1.7251947486497965 -1.459859622249526 1.6767125654984656 -0.37460991305407754 -1.5636257003620337 0.7074308075529868
0.4878296739489166 0.49669867232113685 0.5889059772588825 0.19357049636918103 -0.3708698019039612 0.8555102906129605 -1.3385381413940214 1.4540201335042209
0.27435466659366353 0.23650603958356775 0.6776211061478047 0.9045073278840222 1.4228620535845915 1.3668094254685044 -0.90406276967204 -0.09568862811244339
1.681326998827023 -0.44199970658111576 -0.8883862307950047 -1.2749637910309322 -1.4520176645507867 -0.8506759478501144 -0.4064128400974395 0.43950297050427106

lstm.weight_hh_l0 f8 [256, 64]
00000000: b671 a6a7 036b bf3f 08bf e95a 9a95 d1bf
00000010: b39e b5cf c62f bf3f 8c5e 0f75 01e4 babf
00000020: b78d b7ea 86ff c33f d13e cbe9 f3ea cfbf
00000030: 5a0d e5c7 215a cd3f 6d42 b24e 87e6 c3bf
00000040: dc6e 27bc fb0a cc3f 32d1 cbc8 264e d2bf
00000050: f115 a16e 3fbb d0bf 2c35 15a9 7faa c03f
00000060: 050a b1fe c905 cbbf 0cb8 a16d 9635 cbbf
00000070: db1b c616 b12a c9bf 1d48 84ae dff7 bc3f
00000080: 7c40 b076 59af b43f 5b81 40c5 f09b c0bf
00000090: 6d36 ae74 b262 ccbf 5c09 0257 b1e1 c13f
000000a0: a1d3 4974 048b d03f 728d 0a14 cd0b b2bf
000000b0: 941e cfde 8fb3 85bf 8c02 9ecd 9aaa c13f
000000c0: f8ea d643 e316 cd3f d6d9 cee6 d5eb c13f
000000d0: 28da 7b9f 3bcc d0bf f5b6 f3d3 4cf1 a63f
000000e0: 0441 3b6d 6ec0 97bf 1d0a 60cd 45d1 d2bf
000000f0: 6c0a 18ab 043c a73f c7a5 cf36 f9eb b23f
00000100: 7e29 9ceb 5237 acbf c788 2712 4027 aabf
00000110: f648 da56 2ec9 b5bf 280a 3501 ef39 74bf
00000120: 0168 846c db60 c8bf 9780 bd0b c622 c63f
00000130: 683c cdfc c2d3 d1bf f7b1 a676 e3f9 c7bf
00000140: de9a 7674 cd7c c3bf df48 6128 8bc0 cb3f
00000150: 2f26 8e60 57db b63f 1e0c 1573 162b b53f
00000160: 7e03 49bb a81f b73f 44c2 f754 d037 66bf
00000170: 9dd7 59d3 20af b33f 97b4 6356 9111 d13f
00000180: e70c 4c07 c4ec 9b3f ce95 c0f2 12af b43f
00000190: 8396 fa87 70c9 72bf 5671 583b 753d bbbf
000001a0: 98ca 7f5c 823c d13f 415a 9f8d 34f4 d13f
000001b0: 0d95 3f2d a2c6 bf3f 7eeb 5c8d 5b09 9fbf
000001c0: 6583 db2a 8d2e d33f 2f90 bdbe 5aed b2bf
000001d0: 55fc a3b1 4332 ca3f 384c b54b e887 c2bf
000001e0: 108c 70eb 8bdc c6bf f614 3913 4c3a cc3f
000001f0: 77f0 b721 9253 c73f 537e 3cc3 2d59 be3f
00000200: d2bf ba24 59c9 b43f 05e7 847f 27d2 a1bf
00000210: c6e9 37c3 37e9 d03f c7d7 7c56 028a 90bf
00000220: 46a4 83ce 0e36 d13f 3a34 71c7 43c9 a83f
00000230: fdb8 3f77 5cee cf3f 54ab b39c e538 c83f
00000240: 3429 1877 5717 d1bf eca3 a59f d603 bc3f
00000250: 9b9c 5ac7 d5ac c6bf 7af7 12ac 51ec d0bf
00000260: 773b 25af 2b71 d23f d3e2 a932 5d0c d03f
00000270: dc36 d77e ee64 c63f 36f0 8273 c1b0 c5bf
00000280: a943 d6d9 baca a3bf 8fcb 252c 9659 b23f
00000290: eaac 839e 7d7a c93f b85a a4b2 aa55 c7bf
000002a0: af16 0696 227e a03f 7e41 1faf 86d9 bebf
000002b0: b625 e68d f0cf a33f 1774 0cfc ebe4 d0bf
000002c0: 5e9f 9fa7 e6a5 b03f 8464 091c cf92 a6bf
000002d0: 3f68 2fcf d203 cbbf 9f47 e8d5 398b ccbf
000002e0: ea32 640a 7fba c7bf a980 1c47 1fb8 cebf
000002f0: 96a7 4466 e06e bbbf 6a87 7d32 1163 c7bf
00000300: bfe9 dfb9 94ee b73f d203 2aca 3901 e03e
00000310: 5f95 b142 8c69 d13f 1fe2 7c22 1591 bbbf
00000320: 7749 d41d c745 a33f 4a60 27fb a872 c83f
00000330: 188f 3526 a8a0 94bf 2c31 b403 297f b1bf
00000340: bd53 bf59 28d4 c23f 3981 aa3d 72ec babf
00000350: 1130 be2d 37b6 c63f 0d0d 77ac e478 d2bf
00000360: 3e81 44b7 5b7c cb3f 57d2 50ed 0d6c d03f
00000370: 3349 acc0 622e d23f d318 462d a8b7 cfbf
00000380: 4236 1d4b 422a c5bf bf19 12bc b17b b4bf
00000390: 48a7 de08 b596 b93f 37db 8a1f 7111 a0bf
000003a0: d9cf 3564 e5d0 cfbf bd43 543f 333e b3bf
000003b0: ebd7 58fc 6e0c b03f c4e3 5d46 1adb cd3f
000003c0: e5f2 b48f 7977 c8bf 7525 a3bd e1ad c2bf
000003d0: 62d3 009b 0041 c4bf 8571 0fc7 ad9b 983f
000003e0: 2719 2a26 425e ca3f 04ff 0994 902f cfbf
000003f0: 7003 3b91 01d4 af3f 5ee3 b869 b1c2 cfbf
00000400: d9c4 f2db 2e5e c4bf f3c4 2840 ab23 c7bf
00000410: 7744 3b61 2fdb 89bf 4fa9 48ad 4029 ca3f
00000420: fbf3 ea72 48da cc3f b241 cc4d 9945 ac3f
00000430: a10b feae 7801 be3f 71a6 793c 12e2 c33f
00000440: 7b17 a493 9e97 ba3f 68ae 5df4 3eed c6bf
00000450: 701f 12f3 aca4 cd3f 3dbc ea6f df7c d1bf
00000460: b7dd 9818 aa22 a13f 52d3 22e7 c0f2 9fbf
00000470: 268d 2ace 0059 b73f 7248 fda6 c30a b9bf
00000480: 9390 55c0 1ec7 c43f 0b1a 0369 88c3 bbbf
00000490: 1c35 fd3c 89f9 cbbf c7c1 239e afe7 c83f
000004a0: eaea 1a16 147c c4bf d140 9929 ab21 a9bf
000004b0: 32b3 0d79 30b0 d2bf 9979 6f78 5948 a5bf
000004c0: b454 8b0b d2a2 aa3f 6038 0533 ca94 d1bf
000004d0: 6641 ce84 2efd d0bf f930 e28e a995 c23f
000004e0: f971 bb8d eb65 bb3f 5ceb 036d ebb5 be3f
000004f0: ad68 d815 8904 c03f 51e3 4182 fba9 cbbf
00000500: 8542 820c 132c c93f 0928 b369 4652 a7bf
00000510: c93a 684c 9f22 c9bf 01c3 a943 3c03 8abf
00000520: 950a 8093 1ff1 c43f 08b0 0693 3ca9 c8bf
00000530: 57bf 1df8 0021 c0bf 3fc9 0368 d5aa d03f
00000540: 9dd2 c9b0 11ae c1bf eb8e 4e49 2efd 963f
00000550: 04f4 0aaf 1c3f be3f bf2b 38f0 1be1 cabf
00000560: 0069 1224 08a6 cd3f 4f1e d181 8b09 94bf
00000570: 5649 c9e5 9d28 a1bf 83c0 f682 b673 d13f
00000580: 4605 1ed9 ce34 a8bf 1e95 c5f6 1502 b13f
00000590: 5ee8 c51c 1df1 ce3f cbbb b38f cf5b ca3f
000005a0: 8b79 f398 c85a ad3f a365 fe72 07a5 c43f
000005b0: 29ed 97bf 5839 9e3f f645 c25f 09f1 d03f
000005c0: 78c1 7d08 6772 bcbf 4f81 dac8 0952 c53f
000005d0: 0087 20f3 182c 7dbf 89d6 6d05 ab9a b53f
000005e0: 29d6 3131 984c d03f 6796 c006 3a85 a03f
000005f0: d8ae 0a09 424a 9bbf 3127 b7e9 1d68 d23f
00000600: 0982 e415 cdb9 c03f 8be9 5d74 17a1 b73f
00000610: 28a5 b3e5 b3c9 a03f 3c78 d57d ecb4 c6bf
00000620: f408 e372 f608 d2bf f4ec aa94 7e3f a73f
00000630: b510 4fef f53a b83f ab9f dc9f 4e3f ca3f
00000640: 278d 54e8 d7a6 af3f 76f2 efa9 12df d13f
00000650: d25a 5f31 b8fd c23f a3a9 41dd 4afa 9e3f
00000660: 4c39 2a47 74b8 c53f b9cb f822 f2ab a83f
00000670: da54 80c4 ce46 d23f 1a75 054f 423b 94bf
00000680: 7e7e bfc9 d843 ccbf fc13 c502 2405 cabf
00000690: 62bf be03 2c9e 963f f5bf 6d2b 2c98 b83f
000006a0: a3c6 a2e2 0cb6 763f 8b7c 80c5 3ed9 cdbf
000006b0: 505d 4f57 a6b5 7ebf 08e0 3c6b 252e a33f
000006c0: 17ee 9c6c 6083 c63f 37d8 da1e e388 b6bf
000006d0: 98a2 c60e fbbc ac3f eb9a ee48 7aeb c63f
000006e0: 012c 3269 8c86 c73f 4e7b 92bb a43c cc3f
000006f0: 5a7b 9b12 16ad d13f 45fb 21b3 7c74 cabf
00000700: 3d68 5bbd 3c7a d1bf d27f 8176 c632 cc3f
00000710: 1dc0 a787 3df5 cebf 50da 9472 2c38 a6bf
00000720: ef82 ffdd cd93 d3bf ffa7 404b cd2b c83f
00000730: d506 f223 740c d1bf 0d0a e749 370e cb3f
00000740: c9af ce86 a0b2 c8bf e5d2 575a fb56 bfbf
00000750: 83bf e0ec 8603 d3bf d399 dea3 3e27 a33f
00000760: 458e cfe8 b843 c63f d5a2 a669 56eb b4bf
00000770: 2519 ab0e 089e c2bf 5842 be30 fcdd b3bf
00000780: b463 d074 399b c63f a8e8 ccf6 cdc1 c3bf
00000790: a0a5 de5d 429f cb3f 364c c54f a862 b6bf
000007a0: db1a 4d01 fc84 cdbf da38 6fde 2e4c cf3f
000007b0: f25f abd6 f2a0 b3bf 374a 2705 55f8 c2bf
000007c0: bba3 5381 9658 d13f 835a aa23 5df2 74bf
000007d0: 47ec 9431 5333 cfbf 45e7 16ac a95b c9bf
000007e0: f961 4ba0 ca47 d33f 5f0b c30c 2e2a c1bf
000007f0: 0809 a440 2951 b7bf ae91 8e4f 6b4e b6bf
0.12272665827771942 -0.27475603941182714 0.12182276316672862 -0.1050415907660584 0.15623556576529804 -0.24935769000739197 0.2293131090210448 -0.15547267286867186
0.21908518492897755 -0.2860199890995033 -0.261428697620743 0.1302032065963571 -0.211114167557824 -0.21257286408530296 -0.19661534893040664 0.1131572533670639
0.08080062053363862 -0.12975892669147523 -0.22176199624339024 0.13970009563861197 0.25848494869506494 -0.07049257029807679 -0.010596393572895914 0.13801894225982314
0.22726097881771756 0.14000962991640503 -0.26246538710202794 0.044809723732994224 -0.023195004860839155 -0.2940229898087255 0.04537977779911703 0.07391316974794569
-0.05510958791826946 -0.05108070584880547 -0.08510102863718658 -0.00493806229798336 -0.19045584486667624 0.1729362065625579 -0.2785499066130286 -0.1873134927131017
-0.15224617182430839 0.2168134638946588 0.08928438288980865 0.08268871602653902 0.09032682964699565 -0.0027121609671143816 0.07689099464354716 0.2666972488066874
0.02727037710702698 0.08079641748971442 -0.004586638998863915 -0.10640652369369738 0.2693181899368624 0.2805301077873175 0.12412465672203528 -0.03030913400946699
0.29971627412128604 -0.07393424183607132 0.20465894864898596 -0.14477256485642598 -0.1786055469138721 0.22052908838865165 0.18223787924205556 0.11854825989257138
0.08119732996669818 -0.034806474987318516 0.2642344862394136 -0.01615146305922346 0.2689244286289675 0.04841052827450949 0.24946170637799261 0.1892363562722844
-0.26704966192541524 0.10943356893189077 -0.17714950784759229 -0.26442376903639053 0.2881573877720522 0.25075464198702696 0.1749551886882078 -0.16945665493210676
-0.03865608128683757 0.07167948320220162 0.19905061950644348 -0.18230184290651663 0.032212334454965734 -0.12050668502275205 0.03869582874456105 -0.26397227872968315
0.06503144829150417 -0.04408881394619704 -0.21105418316330035 -0.22299883789724803 -0.18537891394989653 -0.23999396297677336 -0.10716059204847136 -0.18271079030369758
0.09348420656161859 7.631677651833138e-06 0.2720671321206591 -0.10768253414142535 0.03764173735739267 0.1909991480195024 -0.02014410718164958 -0.06834656086374896
0.14709953672595857 -0.10517038350599685 0.17743577703038274 -0.28862873880662293 0.2147326130734743 0.2565951173340059 0.28408116164895886 -0.2477922650397831
-0.16535214107209312 -0.08001242486543612 0.09995585886522662 -0.031383071041480574 -0.24856250184131914 -0.0751678495037273 0.06268972073380012 0.23324898181797782
-0.1911460830396187 -0.14593145141251865 -0.1582337147571265 0.024031367563894363 0.20600153792856554 -0.24363906124562373 0.06216435335000525 -0.24812905943124525
-0.15912423839248538 -0.18077602989936956 -0.012625093607683475 0.2043839307892292 0.22541146861286152 0.055218497034846506 0.11720995209002051 0.1553366465844195
0.10387602905765718 -0.1791151707833365 0.23158799999896074 -0.2732466309489075 0.033467593672351574 -0.031199468715118535 0.09120183022837533 -0.09782049967660258
0.16232666388817005 -0.10845234454891554 -0.21855273702605238 0.19457049581207128 -0.16003657416680223 -0.04908499605937922 -0.29200374433166865 -0.04156760783347408
0.0520234717456928 -0.27470641119442085 -0.2654529854708215 0.14519233204590146 0.1070239277864359 0.11996337329393952 0.12513841215770097 -0.2161249528906191
0.19665754423887818 -0.04554958381920932 -0.196369087513139 -0.012701483549990568 0.16360850050121614 -0.192664691724872 -0.1260071956162345 0.2604268565911702
-0.1381246674751723 0.022450183128639372 0.11815051339631572 -0.20999478558982607 0.23162938844036063 -0.019567661093132845 -0.033513006496508055 0.2726875571197597
-0.04727789306981349 0.06643807673170385 0.24173320679603 0.20592684284880955 0.05733324877813847 0.1612862884037841 0.029515635198532984 0.2647117076058686
-0.11112064320855619 0.1665661078195719 -0.007122132739853404 0.08439129717393191 0.25467495731513395 0.03226643879342533 -0.02665045910059302 0.2876047880532609
0.13067020005202348 0.09230181303965972 0.0327888696572905 -0.17739635605079396 -0.2817970392171809 0.04540629925528519 0.09464966862202824 0.20505698018791682
0.06181978903830503 0.27924028964461145 0.14836790476575473 0.030251664881157613 0.16969159579134396 0.04818684269812174 0.28557175817088665 -0.019757305214956757
-0.22082052088716247 -0.2032818807148543 0.022087753037055242 0.09607196865340469 0.005544710477055101 -0.23319229739806632 -0.00749745346998705 0.03746144231848808
0.17588429740304498 -0.08802623275082132 0.05612930827493762 0.17906120835433312 0.1837935937549844 0.22060069235609564 0.2761893445694362 -0.20667990442958675
-0.2730857705297501 0.2202995375291708 -0.24185914157669766 -0.043397320734972156 -0.3058962505293001 0.18883672880593846 -0.26638511190695385 0.21137133701820723
-0.19295126516715147 -0.12242098765984684 -0.297090274168106 0.037408788207631403 0.1739417206546127 -0.08171596602791038 -0.14544773784855028 -0.07760597410220649
0.17661207393464695 -0.15435194540788655 0.21579770644647756 -0.08744289348150933 -0.2306208616593811 0.2445124231439369 -0.07667463055565785 -0.14820349456438617
0.27103197698175635 -0.005113948655568581 -0.24375381394370008 -0.19810982611471153 0.30125680593258114 -0.1340997278512885 -0.0910821707548487 -0.08713408176715262

lstm.bias_ih_l0 f8 [256]
00000000: 0000 0000 0000 0000 0000 0000 0000 0000
00000010: 0000 0000 0000 0000 0000 0000 0000 0000
00000020: 0000 0000 0000 0000 0000 0000 0000 0000
00000030: 0000 0000 0000 0000 0000 0000 0000 0000
00000040: 0000 0000 0000 0000 0000 0000 0000 0000
00000050: 0000 0000 0000 0000 0000 0000 0000 0000
00000060: 0000 0000 0000 0000 0000 0000 0000 0000
00000070: 0000 0000 0000 0000 0000 0000 0000 0000
00000080: 0000 0000 0000 0000 0000 0000 0000 0000
00000090: 0000 0000 0000 0000 0000 0000 0000 0000
000000a0: 0000 0000 0000 0000 0000 0000 0000 0000
000000b0: 0000 0000 0000 0000 0000 0000 0000 0000
000000c0: 0000 0000 0000 0000 0000 0000 0000 0000
000000d0: 0000 0000 0000 0000 0000 0000 0000 0000
000000e0: 0000 0000 0000 0000 0000 0000 0000 0000
000000f0: 0000 0000 0000 0000 0000 0000 0000 0000
00000100: 0000 0000 0000 0000 0000 0000 0000 0000
00000110: 0000 0000 0000 0000 0000 0000 0000 0000
00000120: 0000 0000 0000 0000 0000 0000 0000 0000
00000130: 0000 0000 0000 0000 0000 0000 0000 0000
00000140: 0000 0000 0000 0000 0000 0000 0000 0000
00000150: 0000 0000 0000 0000 0000 0000 0000 0000
00000160: 0000 0000 0000 0000 0000 0000 0000 0000
00000170: 0000 0000 0000 0000 0000 0000 0000 0000
00000180: 0000 0000 0000 0000 0000 0000 0000 0000
00000190: 0000 0000 0000 0000 0000 0000 0000 0000
000001a0: 0000 0000 0000 0000 0000 0000 0000 0000
000001b0: 0000 0000 0000 0000 0000 0000 0000 0000
000001c0: 0000 0000 0000 0000 0000 0000 0000 0000
000001d0: 0000 0000 0000 0000 0000 0000 0000 0000
000001e0: 0000 0000 0000 0000 0000 0000 0000 0000
000001f0: 0000 0000 0000 0000 0000 0000 0000 0000
00000200: 0000 0000 0000 0000 0000 0000 0000 0000
00000210: 0000 0000 0000 0000 0000 0000 0000 0000
00000220: 0000 0000 0000 0000 0000 0000 0000 0000
00000230: 0000 0000 0000 0000 0000 0000 0000 0000
00000240: 0000 0000 0000 0000 0000 0000 0000 0000
00000250: 0000 0000 0000 0000 0000 0000 0000 0000
00000260: 0000 0000 0000 0000 0000 0000 0000 0000
00000270: 0000 0000 0000 0000 0000 0000 0000 0000
00000280: 0000 0000 0000 0000 0000 0000 0000 0000
00000290: 0000 0000 0000 0000 0000 0000 0000 0000
000002a0: 0000 0000 0000 0000 0000 0000 0000 0000
000002b0: 0000 0000 0000 0000 0000 0000 0000 0000
000002c0: 0000 0000 0000 0000 0000 0000 0000 0000
000002d0: 0000 0000 0000 0000 0000 0000 0000 0000
000002e0: 0000 0000 0000 0000 0000 0000 0000 0000
000002f0: 0000 0000 0000 0000 0000 0000 0000 0000
00000300: 0000 0000 0000 0000 0000 0000 0000 0000
00000310: 0000 0000 0000 0000 0000 0000 0000 0000
00000320: 0000 0000 0000 0000 0000 0000 0000 0000
00000330: 0000 0000 0000 0000 0000 0000 0000 0000
00000340: 0000 0000 0000 0000 0000 0000 0000 0000
00000350: 0000 0000 0000 0000 0000 0000 0000 0000
00000360: 0000 0000 0000 0000 0000 0000 0000 0000
00000370: 0000 0000 0000 0000 0000 0000 0000 0000
00000380: 0000 0000 0000 0000 0000 0000 0000 0000
00000390: 0000 0000 0000 0000 0000 0000 0000 0000
000003a0: 0000 0000 0000 0000 0000 0000 0000 0000
000003b0: 0000 0000 0000 0000 0000 0000 0000 0000
000003c0: 0000 0000 0000 0000 0000 0000 0000 0000
000003d0: 0000 0000 0000 0000 0000 0000 0000 0000
000003e0: 0000 0000 0000 0000 0000 0000 0000 0000
000003f0: 0000 0000 0000 0000 0000 0000 0000 0000
00000400: 0000 0000 0000 0000 0000 0000 0000 0000
00000410: 0000 0000 0000 0000 0000 0000 0000 0000
00000420: 0000 0000 0000 0000 0000 0000 0000 0000
00000430: 0000 0000 0000 0000 0000 0000 0000 0000
00000440: 0000 0000 0000 0000 0000 0000 0000 0000
00000450: 0000 0000 0000 0000 0000 0000 0000 0000
00000460: 0000 0000 0000 0000 0000 0000 0000 0000
00000470: 0000 0000 0000 0000 0000 0000 0000 0000
00000480: 0000 0000 0000 0000 0000 0000 0000 0000
00000490: 0000 0000 0000 0000 0000 0000 0000 0000
000004a0: 0000 0000 0000 0000 0000 0000 0000 0000
000004b0: 0000 0000 0000 0000 0000 0000 0000 0000
000004c0: 0000 0000 0000 0000 0000 0000 0000 0000
000004d0: 0000 0000 0000 0000 0000 0000 0000 0000
000004e0: 0000 0000 0000 0000 0000 0000 0000 0000
000004f0: 0000 0000 0000 0000 0000 0000 0000 0000
00000500: 0000 0000 0000 0000 0000 0000 0000 0000
00000510: 0000 0000 0000 0000 0000 0000 0000 0000
00000520: 0000 0000 0000 0000 0000 0000 0000 0000
00000530: 0000 0000 0000 0000 0000 0000 0000 0000
00000540: 0000 0000 0000 0000 0000 0000 0000 0000
00000550: 0000 0000 0000 0000 0000 0000 0000 0000
00000560: 0000 0000 0000 0000 0000 0000 0000 0000
00000570: 0000 0000 0000 0000 0000 0000 0000 0000
00000580: 0000 0000 0000 0000 0000 0000 0000 0000
00000590: 0000 0000 0000 0000 0000 0000 0000 0000
000005a0: 0000 0000 0000 0000 0000 0000 0000 0000
000005b0: 0000 0000 0000 0000 0000 0000 0000 0000
000005c0: 0000 0000 0000 0000 0000 0000 0000 0000
000005d0: 0000 0000 0000 0000 0000 0000 0000 0000
000005e0: 0000 0000 0000 0000 0000 0000 0000 0000
000005f0: 0000 0000 0000 0000 0000 0000 0000 0000
00000600: 0000 0000 0000 0000 0000 0000 0000 0000
00000610: 0000 0000 0000 0000 0000 0000 0000 0000
00000620: 0000 0000 0000 0000 0000 0000 0000 0000
00000630: 0000 0000 0000 0000 0000 0000 0000 0000
00000640: 0000 0000 0000 0000 0000 0000 0000 0000
00000650: 0000 0000 0000 0000 0000 0000 0000 0000
00000660: 0000 0000 0000 0000 0000 0000 0000 0000
00000670: 0000 0000 0000 0000 0000 0000 0000 0000
00000680: 0000 0000 0000 0000 0000 0000 0000 0000
00000690: 0000 0000 0000 0000 0000 0000 0000 0000
000006a0: 0000 0000 0000 0000 0000 0000 0000 0000
000006b0: 0000 0000 0000 0000 0000 0000 0000 0000
000006c0: 0000 0000 0000 0000 0000 0000 0000 0000
000006d0: 0000 0000 0000 0000 0000 0000 0000 0000
000006e0: 0000 0000 0000 0000 0000 0000 0000 0000
000006f0: 0000 0000 0000 0000 0000 0000 0000 0000
00000700: 0000 0000 0000 0000 0000 0000 0000 0000
00000710: 0000 0000 0000 0000 0000 0000 0000 0000
00000720: 0000 0000 0000 0000 0000 0000 0000 0000
00000730: 0000 0000 0000 0000 0000 0000 0000 0000
00000740: 0000 0000 0000 0000 0000 0000 0000 0000
00000750: 0000 0000 0000 0000 0000 0000 0000 0000
00000760: 0000 0000 0000 0000 0000 0000 0000 0000
00000770: 0000 0000 0000 0000 0000 0000 0000 0000
00000780: 0000 0000 0000 0000 0000 0000 0000 0000
00000790: 0000 0000 0000 0000 0000 0000 0000 0000
000007a0: 0000 0000 0000 0000 0000 0000 0000 0000
000007b0: 0000 0000 0000 0000 0000 0000 0000 0000
000007c0: 0000 0000 0000 0000 0000 0000 0000 0000
000007d0: 0000 0000 0000 0000 0000 0000 0000 0000
000007e0: 0000 0000 0000 0000 0000 0000 0000 0000
000007f0: 0000 0000 0000 0000 0000 0000 0000 0000
0.0 0.0 0.0 0.0 0.0 0.0 0.0 0.0
0.0 0.0 0.0 0.0 0.0 0.0 0.0 0.0
0.0 0.0 0.0 0.0 0.0 0.0 0.0 0.0
0.0 0.0 0.0 0.0 0.0 0.0 0.0 0.0
0.0 0.0 0.0 0.0 0.0 0.0 0.0 0.0
0.0 0.0 0.0 0.0 0.0 0.0 0.0 0.0
0.0 0.0 0.0 0.0 0.0 0.0 0.0 0.0
0.0 0.0 0.0 0.0 0.0 0.0 0.0 0.0
0.0 0.0 0.0 0.0 0.0 0.0 0.0 0.0
0.0 0.0 0.0 0.0 0.0 0.0 0.0 0.0
0.0 0.0 0.0 0.0 0.0 0.0 0.0 0.0
0.0 0.0 0.0 0.0 0.0 0.0 0.0 0.0
0.0 0.0 0.0 0.0 0.0 0.0 0.0 0.0
0.0 0.0 0.0 0.0 0.0 0.0 0.0 0.0
0.0 0.0 0.0 0.0 0.0 0.0 0.0 0.0
0.0 0.0 0.0 0.0 0.0 0.0 0.0 0.0
0.0 0.0 0.0 0.0 0.0 0.0 0.0 0.0
0.0 0.0 0.0 0.0 0.0 0.0 0.0 0.0
0.0 0.0 0.0 0.0 0.0 0.0 0.0 0.0
0.0 0.0 0.0 0.0 0.0 0.0 0.0 0.0
0.0 0.0 0.0 0.0 0.0 0.0 0.0 0.0
0.0 0.0 0.0 0.0 0.0 0.0 0.0 0.0
0.0 0.0 0.0 0.0 0.0 0.0 0.0 0.0
0.0 0.0 0.0 0.0 0.0 0.0 0.0 0.0
0.0 0.0 0.0 0.0 0.0 0.0 0.0 0.0
0.0 0.0 0.0 0.0 0.0 0.0 0.0 0.0
0.0 0.0 0.0 0.0 0.0 0.0 0.0 0.0
0.0 0.0 0.0 0.0 0.0 0.0 0.0 0.0
0.0 0.0 0.0 0.0 0.0 0.0 0.0 0.0
0.0 0.0 0.0 0.0 0.0 0.0 0.0 0.0
0.0 0.0 0.0 0.0 0.0 0.0 0.0 0.0
0.0 0.0 0.0 0.0 0.0 0.0 0.0 0.0

lstm.bias_hh_l0 f8 [256]
00000000: 0000 0000 0000 0000 0000 0000 0000 0000
00000010: 0000 0000 0000 0000 0000 0000 0000 0000
00000020: 0000 0000 0000 0000 0000 0000 0000 0000
00000030: 0000 0000 0000 0000 0000 0000 0000 0000
00000040: 0000 0000 0000 0000 0000 0000 0000 0000
00000050: 0000 0000 0000 0000 0000 0000 0000 0000
00000060: 0000 0000 0000 0000 0000 0000 0000 0000
00000070: 0000 0000 0000 0000 0000 0000 0000 0000
00000080: 0000 0000 0000 0000 0000 0000 0000 0000
00000090: 0000 0000 0000 0000 0000 0000 0000 0000
000000a0: 0000 0000 0000 0000 0000 0000 0000 0000
000000b0: 0000 0000 0000 0000 0000 0000 0000 0000
000000c0: 0000 0000 0000 0000 0000 0000 0000 0000
000000d0: 0000 0000 0000 0000 0000 0000 0000 0000
000000e0: 0000 0000 0000 0000 0000 0000 0000 0000
000000f0: 0000 0000 0000 0000 0000 0000 0000 0000
00000100: 0000 0000 0000 0000 0000 0000 0000 0000
00000110: 0000 0000 0000 0000 0000 0000 0000 0000
00000120: 0000 0000 0000 0000 0000 0000 0000 0000
00000130: 0000 0000 0000 0000 0000 0000 0000 0000
00000140: 0000 0000 0000 0000 0000 0000 0000 0000
00000150: 0000 0000 0000 0000 0000 0000 0000 0000
00000160: 0000 0000 0000 0000 0000 0000 0000 0000
00000170: 0000 0000 0000 0000 0000 0000 0000 0000
00000180: 0000 0000 0000 0000 0000 0000 0000 0000
00000190: 0000 0000 0000 0000 0000 0000 0000 0000
000001a0: 0000 0000 0000 0000 0000 0000 0000 0000
000001b0: 0000 0000 0000 0000 0000 0000 0000 0000
000001c0: 0000 0000 0000 0000 0000 0000 0000 0000
000001d0: 0000 0000 0000 0000 0000 0000 0000 0000
000001e0: 0000 0000 0000 0000 0000 0000 0000 0000
000001f0: 0000 0000 0000 0000 0000 0000 0000 0000
00000200: 0000 0000 0000 0000 0000 0000 0000 0000
00000210: 0000 0000 0000 0000 0000 0000 0000 0000
00000220: 0000 0000 0000 0000 0000 0000 0000 0000
00000230: 0000 0000 0000 0000 0000 0000 0000 0000
00000240: 0000 0000 0000 0000 0000 0000 0000 0000
00000250: 0000 0000 0000 0000 0000 0000 0000 0000
00000260: 0000 0000 0000 0000 0000 0000 0000 0000
00000270: 0000 0000 0000 0000 0000 0000 0000 0000
00000280: 0000 0000 0000 0000 0000 0000 0000 0000
00000290: 0000 0000 0000 0000 0000 0000 0000 0000
000002a0: 0000 0000 0000 0000 0000 0000 0000 0000
000002b0: 0000 0000 0000 0000 0000 0000 0000 0000
000002c0: 0000 0000 0000 0000 0000 0000 0000 0000
000002d0: 0000 0000 0000 0000 0000 0000 0000 0000
000002e0: 0000 0000 0000 0000 0000 0000 0000 0000
000002f0: 0000 0000 0000 0000 0000 0000 0000 0000
00000300: 0000 0000 0000 0000 0000 0000 0000 0000
00000310: 0000 0000 0000 0000 0000 0000 0000 0000
00000320: 0000 0000 0000 0000 0000 0000 0000 0000
00000330: 0000 0000 0000 0000 0000 0000 0000 0000
00000340: 0000 0000 0000 0000 0000 0000 0000 0000
00000350: 0000 0000 0000 0000 0000 0000 0000 0000
00000360: 0000 0000 0000 0000 0000 0000 0000 0000
00000370: 0000 0000 0000 0000 0000 0000 0000 0000
00000380: 0000 0000 0000 0000 0000 0000 0000 0000
00000390: 0000 0000 0000 0000 0000 0000 0000 0000
000003a0: 0000 0000 0000 0000 0000 0000 0000 0000
000003b0: 0000 0000 0000 0000 0000 0000 0000 0000
000003c0: 0000 0000 0000 0000 0000 0000 0000 0000
000003d0: 0000 0000 0000 0000 0000 0000 0000 0000
000003e0: 0000 0000 0000 0000 0000 0000 0000 0000
000003f0: 0000 0000 0000 0000 0000 0000 0000 0000
00000400: 0000 0000 0000 0000 0000 0000 0000 0000
00000410: 0000 0000 0000 0000 0000 0000 0000 0000
00000420: 0000 0000 0000 0000 0000 0000 0000 0000
00000430: 0000 0000 0000 0000 0000 0000 0000 0000
00000440: 0000 0000 0000 0000 0000 0000 0000 0000
00000450: 0000 0000 0000 0000 0000 0000 0000 0000
00000460: 0000 0000 0000 0000 0000 0000 0000 0000
00000470: 0000 0000 0000 0000 0000 0000 0000 0000
00000480: 0000 0000 0000 0000 0000 0000 0000 0000
00000490: 0000 0000 0000 0000 0000 0000 0000 0000
000004a0: 0000 0000 0000 0000 0000 0000 0000 0000
000004b0: 0000 0000 0000 0000 0000 0000 0000 0000
000004c0: 0000 0000 0000 0000 0000 0000 0000 0000
000004d0: 0000 0000 0000 0000 0000 0000 0000 0000
000004e0: 0000 0000 0000 0000 0000 0000 0000 0000
000004f0: 0000 0000 0000 0000 0000 0000 0000 0000
00000500: 0000 0000 0000 0000 0000 0000 0000 0000
00000510: 0000 0000 0000 0000 0000 0000 0000 0000
00000520: 0000 0000 0000 0000 0000 0000 0000 0000
00000530: 0000 0000 0000 0000 0000 0000 0000 0000
00000540: 0000 0000 0000 0000 0000 0000 0000 0000
00000550: 0000 0000 0000 0000 0000 0000 0000 0000
00000560: 0000 0000 0000 0000 0000 0000 0000 0000
00000570: 0000 0000 0000 0000 0000 0000 0000 0000
00000580: 0000 0000 0000 0000 0000 0000 0000 0000
00000590: 0000 0000 0000 0000 0000 0000 0000 0000
000005a0: 0000 0000 0000 0000 0000 0000 0000 0000
000005b0: 0000 0000 0000 0000 0000 0000 0000 0000
000005c0: 0000 0000 0000 0000 0000 0000 0000 0000
000005d0: 0000 0000 0000 0000 0000 0000 0000 0000
000005e0: 0000 0000 0000 0000 0000 0000 0000 0000
000005f0: 0000 0000 0000 0000 0000 0000 0000 0000
00000600: 0000 0000 0000 0000 0000 0000 0000 0000
00000610: 0000 0000 0000 0000 0000 0000 0000 0000
00000620: 0000 0000 0000 0000 0000 0000 0000 0000
00000630: 0000 0000 0000 0000 0000 0000 0000 0000
00000640: 0000 0000 0000 0000 0000 0000 0000 0000
00000650: 0000 0000 0000 0000 0000 0000 0000 0000
00000660: 0000 0000 0000 0000 0000 0000 0000 0000
00000670: 0000 0000 0000 0000 0000 0000 0000 0000
00000680: 0000 0000 0000 0000 0000 0000 0000 0000
00000690: 0000 0000 0000 0000 0000 0000 0000 0000
000006a0: 0000 0000 0000 0000 0000 0000 0000 0000
000006b0: 0000 0000 0000 0000 0000 0000 0000 0000
000006c0: 0000 0000 0000 0000 0000 0000 0000 0000
000006d0: 0000 0000 0000 0000 0000 0000 0000 0000
000006e0: 0000 0000 0000 0000 0000 0000 0000 0000
000006f0: 0000 0000 0000 0000 0000 0000 0000 0000
00000700: 0000 0000 0000 0000 0000 0000 0000 0000
00000710: 0000 0000 0000 0000 0000 0000 0000 0000
00000720: 0000 0000 0000 0000 0000 0000 0000 0000
00000730: 0000 0000 0000 0000 0000 0000 0000 0000
00000740: 0000 0000 0000 0000 0000 0000 0000 0000
00000750: 0000 0000 0000 0000 0000 0000 0000 0000
00000760: 0000 0000 0000 0000 0000 0000 0000 0000
00000770: 0000 0000 0000 0000 0000 0000 0000 0000
00000780: 0000 0000 0000 0000 0000 0000 0000 0000
00000790: 0000 0000 0000 0000 0000 0000 0000 0000
000007a0: 0000 0000 0000 0000 0000 0000 0000 0000
000007b0: 0000 0000 0000 0000 0000 0000 0000 0000
000007c0: 0000 0000 0000 0000 0000 0000 0000 0000
000007d0: 0000 0000 0000 0000 0000 0000 0000 0000
000007e0: 0000 0000 0000 0000 0000 0000 0000 0000
000007f0: 0000 0000 0000 0000 0000 0000 0000 0000
0.0 0.0 0.0 0.0 0.0 0.0 0.0 0.0
0.0 0.0 0.0 0.0 0.0 0.0 0.0 0.0
0.0 0.0 0.0 0.0 0.0 0.0 0.0 0.0
0.0 0.0 0.0 0.0 0.0 0.0 0.0 0.0
0.0 0.0 0.0 0.0 0.0 0.0 0.0 0.0
0.0 0.0 0.0 0.0 0.0 0.0 0.0 0.0
0.0 0.0 0.0 0.0 0.0 0.0 0.0 0.0
0.0 0.0 0.0 0.0 0.0 0.0 0.0 0.0
0.0 0.0 0.0 0.0 0.0 0.0 0.0 0.0
0.0 0.0 0.0 0.0 0.0 0.0 0.0 0.0
0.0 0.0 0.0 0.0 0.0 0.0 0.0 0.0
0.0 0.0 0.0 0.0 0.0 0.0 0.0 0.0
0.0 0.0 0.0 0.0 0.0 0.0 0.0 0.0
0.0 0.0 0.0 0.0 0.0 0.0 0.0 0.0
0.0 0.0 0.0 0.0 0.0 0.0 0.0 0.0
0.0 0.0 0.0 0.0 0.0 0.0 0.0 0.0
0.0 0.0 0.0 0.0 0.0 0.0 0.0 0.0
0.0 0.0 0.0 0.0 0.0 0.0 0.0 0.0
0.0 0.0 0.0 0.0 0.0 0.0 0.0 0.0
0.0 0.0 0.0 0.0 0.0 0.0 0.0 0.0
0.0 0.0 0.0 0.0 0.0 0.0 0.0 0.0
0.0 0.0 0.0 0.0 0.0 0.0 0.0 0.0
0.0 0.0 0.0 0.0 0.0 0.0 0.0 0.0
0.0 0.0 0.0 0.0 0.0 0.0 0.0 0.0
0.0 0.0 0.0 0.0 0.0 0.0 0.0 0.0
0.0 0.0 0.0 0.0 0.0 0.0 0.0 0.0
0.0 0.0 0.0 0.0 0.0 0.0 0.0 0.0
0.0 0.0 0.0 0.0 0.0 0.0 0.0 0.0
0.0 0.0 0.0 0.0 0.0 0.0 0.0 0.0
0.0 0.0 0.0 0.0 0.0 0.0 0.0 0.0
0.0 0.0 0.0 0.0 0.0 0.0 0.0 0.0
0.0 0.0 0.0 0.0 0.0 0.0 0.0 0.0

lstm.weight_ih_l0_reverse f8 [256, 2]
00000000: fffa faa9 7071 edbf fc49 3cd3 8acd fa3f
00000010: 12df c86a a386 e83f e547 3c38 bc0d efbf
00000020: 6cd6 3f0a 463f ec3f 6c8f a582 47ba ef3f
00000030: b149 63a2 249d bdbf 1f82 c825 ba77 d6bf
00000040: 3028 0db9 cb86 fa3f 806e f3dc 0fd8 ee3f
00000050: 9b38 c8bf f36e e03f 584f af5b e63b f43f
00000060: 27e1 fbaa 8af0 ea3f 1194 e252 1cf7 fa3f
00000070: a296 72a4 5403 f03f 027e 2074 8103 fb3f
00000080: 0ba2 6c85 0250 f83f 52df c770 afd9 f6bf
00000090: e697 ecfe a7ad f93f eeca 6da5 1bc6 f7bf
000000a0: 7313 a67c 766f f6bf d147 cbca d754 e93f
000000b0: 2515 a5ef 77de e3bf 131c 14ce 2c28 c2bf
000000c0: 62a3 a03b 07b7 f7bf e819 5f5b 7878 d0bf
000000d0: 4eb7 8640 985a f53f 06a3 8817 0712 d4bf
000000e0: 77e5 7ebe 336f c4bf 3f20 314b 7f14 f93f
000000f0: 0f3f 36e0 2552 efbf 9e59 a7f2 f02b e33f
00000100: 0ffb 6cf4 63f8 cbbf e5ef 5cdd ba1c d3bf
00000110: 2024 d6ee f445 c13f 96ef 5bab fe2d c3bf
00000120: b708 4ad6 db44 f3bf e853 9f9d 24a2 e2bf
00000130: b413 bfc1 3de2 f43f edb7 2b51 1987 fb3f
00000140: 75e7 fd5b 65d2 d13f 48d2 683a a9ca b0bf
00000150: afaa 7c8b f637 d43f f9c0 bb98 d129 f13f
00000160: c866 1238 db39 de3f 92b8 7c85 b9ba f93f
00000170: 0518 5409 290f f93f 47eb 711b 4d34 dbbf
00000180: 9307 075d fb34 fbbf 5421 0090 2d18 f63f
00000190: 72f7 50c0 3100 ce3f fd98 84ed bed5 e8bf
000001a0: 13c0 79ff 2262 ee3f e589 82f5 494c f3bf
000001b0: 603b e479 1732 ecbf 6429 64b4 1741 ec3f
000001c0: 197d 79da 382b f13f b86c 4e41 64d5 f83f
000001d0: cbdf 2594 21d7 f63f 9298 8dc8 c437 ebbf
000001e0: 9165 15c4 d372 fbbf 996f 706e 872d f0bf
000001f0: a03a bdcd c741 efbf 666b 267d 0dad cc3f
00000200: a84a a5b2 02f5 f23f 904d c4e3 7371 e9bf
00000210: 6144 540a e8b6 f73f 0167 3805 c7e2 e03f
00000220: 5b38 60e2 587f d93f 540f 829c f154 f83f
00000230: 7c5d 5e4e e2bc f33f d7ea 56fa d1ae d83f
00000240: ff13 b185 129f f13f 4b76 3883 da9a d2bf
00000250: 48e4 b89c 7443 d1bf 7d70 b1cd 9d9c c93f
00000260: 8a44 90ec f9ce f8bf 9adb a12f a1f9 eebf
00000270: 8f37 4f36 4333 f2bf be8f e5b5 3b94 f63f
00000280: c268 0b27 1c93 e7bf 511a a883 b78a d03f
00000290: 7194 6c4d b180 f5bf c414 caee 6052 dd3f
000002a0: 2db3 8a44 0c20 dcbf c27f 5f70 e385 f2bf
000002b0: 7f4c 25f6 93e4 f13f 0d28 c84d 772f db3f
000002c0: df2a 4686 0d12 f7bf 320b 170f 863c e33f
000002d0: c8c1 28ff 4879 883f 84bc f222 a631 e63f
000002e0: e368 b25b a0d3 babf b48a 727b 26c5 dbbf
000002f0: dbf6 45dd 1c70 c23f 2b36 4277 3598 e73f
00000300: 3a66 fa34 b794 f63f 6590 debc 9f94 f03f
00000310: 1cba 9249 98ac e13f 781b 6c2a f80c cabf
00000320: c459 4856 8228 d13f 855d 2268 1112 fabf
00000330: 4248 dedd 034e d83f 51e2 8233 d64d db3f
00000340: 9709 6165 bc43 f0bf 4cbe a304 965b d4bf
00000350: ede9 1f9a f985 c9bf f7fa bd1f 6215 d5bf
00000360: 5a75 d4d8 bec2 ea3f 6a8c 5ad8 d985 f93f
00000370: 8ec1 02f8 902e d9bf 1504 b297 8e2c df3f
00000380: 470c eefe 8d7f f33f 0714 ff9d a62e f7bf
00000390: 0300 161a 233b ee3f b889 7079 7920 e1bf
000003a0: cd35 e2cb ec5e bf3f 1c45 c199 2f20 e0bf
000003b0: f1cb d4b4 5234 bcbf 72d6 75df c15b a33f
000003c0: a30f 04c6 6a11 e4bf 1179 cd54 ec25 f83f
000003d0: 850e d171 24a2 e53f 7290 d66c 7740 d3bf
000003e0: a1dd fbfe c231 f6bf d9ab 2948 0d71 e4bf
000003f0: 2f0d 3ec0 fe82 fabf 537a e2de 33fc c23f
00000400: 6d24 93d5 6c17 f2bf 53cb 7085 e90f bb3f
00000410: d287 6223 2864 f13f da42 d721 4051 eebf
00000420: 6c70 eb69 66ab f73f f794 c837 834e c5bf
00000430: 4141 6f7d 7767 edbf a36b e381 d7da c1bf
00000440: d66d bf6f d519 fabf a130 f0ea 7453 dd3f
00000450: 53e1 e5e0 e661 fa3f 78b2 bb71 93e9 cbbf
00000460: 5a23 3178 5b13 f9bf b709 7109 038e f3bf
00000470: 3d40 1cd4 05b8 f43f 01e4 efd9 9d08 ea3f
00000480: 9b36 d40e b84c d0bf ad21 d1dc 7f8d e8bf
00000490: 11c5 26ae b1a0 f83f 4e8b 3f77 6a40 f0bf
000004a0: 7d11 af4e 1f1e da3f d8be 6383 0ea2 f8bf
000004b0: 0208 c4d9 a1a5 e9bf 18b8 4051 b57b ef3f
000004c0: 1f4e c31d 3753 f73f a4a0 a9a1 dcef d53f
000004d0: 9678 6d6d 6117 f9bf 45b1 a4b9 9582 a7bf
000004e0: 9572 390f f60a dfbf be42 618b d01f ea3f
000004f0: d1a9 90fd 1d11 e23f 7083 bb4a f0d8 e73f
00000500: 3eac 616f 2ae3 f93f db8a bfe7 1caa f3bf
00000510: 1b48 0b48 b2fc eabf 5a15 8e1f f8d5 e33f
00000520: 0659 18c3 d7f6 edbf 809a 01d7 2519 f13f
00000530: 047e 704f 378d d0bf 5961 8d13 4623 c03f
00000540: 9b79 00e6 1518 e7bf cd93 d021 3613 c0bf
00000550: 7d01 523b e57d e9bf eeb2 e5ac aa8b d53f
00000560: acef bf14 f413 f73f d06a a888 8385 d73f
00000570: 2d20 bc7e 9a49 f33f 2a90 7319 61ec fabf
00000580: 8c1d 3641 2625 e13f 9843 3a81 12fd efbf
00000590: 9a13 9ef8 d9db c0bf d19b 76d0 340f 953f
000005a0: 63ae 8cfb 8d0d ecbf 6466 3336 e2de d83f
000005b0: fff3 5cdd b2e3 c53f 2eed 2446 53ba dabf
000005c0: ed58 bf5a 4337 a33f 0f66 48cd e866 ec3f
000005d0: 0c56 ae4e c329 f53f 9371 15b7 3040 c63f
000005e0: 00ea ac22 c2cd eebf b2f0 4a01 f886 e23f
000005f0: 4302 1908 7885 e8bf cab0 1ecd fe2a f8bf
00000600: 8c17 a644 82b2 f8bf 5fba c301 e549 e3bf
00000610: 6231 1a96 c816 f53f 6526 dbb7 f08a f1bf
00000620: 95ea 2347 b3e6 e33f 60d7 ac20 5940 d13f
00000630: 2cd9 8112 6361 e13f 4786 decf 3146 efbf
00000640: a13e e200 e95d ef3f 44e3 be75 be4a b63f
00000650: 9652 3615 3cc5 f53f c844 fce8 4d19 f63f
00000660: e4da 5e42 a4f6 d33f 7c55 72e4 5528 fabf
00000670: 3f9a 4ffd e6c4 f3bf 117b 4166 5bae f5bf
00000680: a9d9 a61c cb90 ddbf 2435 7510 9670 f3bf
00000690: 5e28 90e6 1a9e f63f c6fa c85c 745a e13f
000006a0: 9d38 2ae6 d3a1 ec3f c883 a0f6 a002 e13f
000006b0: 966b f784 4ee8 e03f 00dc 0c51 8c70 ea3f
000006c0: 0f2a 35c1 780b efbf 3983 f5c2 c071 f9bf
000006d0: 9ed0 47fa f900 f13f beed 9b1f 7d9c e13f
000006e0: e19b 98cf 6ad7 aabf d531 06f5 67a6 f1bf
000006f0: f5e8 7e19 c389 e03f 7b2d b939 41b9 f0bf
00000700: 2f19 9d94 586b fb3f 84dc abad d3c1 f93f
00000710: 8012 a9aa aec8 f13f 9576 16b8 5ff5 be3f
00000720: dfd6 24f2 90e2 e83f a782 fe91 8b97 f53f
00000730: a3ee 855a f7c1 dc3f 85a2 40cb d2fe cf3f
00000740: b7d8 a0b5 0ca3 f33f 2f73 fa54 ee66 dcbf
00000750: 858c 2dc8 daf8 e03f 6ff9 4f53 9ef9 dbbf
00000760: 088b 4e09 8c41 e33f 10e5 5903 0a1f f43f
00000770: 789b d7b2 ae28 f73f 500b 7750 6f42 f03f
00000780: 8639 e895 73cc c3bf 2075 bc32 e0af d9bf
00000790: bf50 cb38 1f99 ee3f fc8d fdae 3be4 eebf
000007a0: e5bc 4c67 4684 e7bf 7296 5cc7 ba25 9cbf
000007b0: fd9b d17d cb41 f7bf 1b52 7ec2 5a50 a5bf
000007c0: 709f 3be4 cf89 e13f 364e 85e5 ed0b d43f
000007d0: d1a7 fceb 7462 ec3f cf7f d5c3 a0a8 ba3f
000007e0: 3e74 86aa 8d41 e43f 72a4 558e 556b ecbf
000007f0: ed97 9a52 94a9 f7bf 629a d03d 1f04 f8bf
-0.9200976676873721 1.6751812220942375 0.7664353452337045 -0.9704266641949714 0.8827238273795053 0.9914891769117111 -0.11567906345889047 -0.35105756463784304
1.657909129006395 0.9638747516105042 0.5135439630264672 1.264623983520286 0.841862997010172 1.6853297460268133 1.000813143132668 1.688355878468315
1.5195336543930604 -1.42814582877141 1.604896541402462 -1.4858662092271362 -1.4022126072970564 0.7916068039723944 -0.6209067993701508 -0.1418510442965447
-1.4821846322249361 -0.2573529140758226 1.3346178551250492 -0.31360032366005475 -0.1596436195521098 1.5675042092498328 -0.9787778262270609 0.5991139163332269
-0.21851777491425436 -0.29862853639110504 0.13494741117418219 -0.14984114997048142 -1.204311215464754 -0.5822928503572458 1.3052346771448642 1.7204831286176117
0.2784665487630414 -0.06559236217510389 0.3159157144715818 1.0727096525334316 0.47228126979608165 1.608087083277074 1.5662012447733116 -0.42506721191573543
-1.7004350313077097 1.3809028267879357 0.2343809308094325 -0.7760920180342336 0.9494795789487419 -1.2061252203208082 -0.8811147099203076 0.8829458735720377
1.0730522665178965 1.5520975638417394 1.4275222575215476 -0.850557700829784 -1.7155339869990238 -1.0111154855758058 -0.9767798441260602 0.22403114901393478
1.1848170259806157 -0.7950992058344344 1.482154884670557 0.5276827909430893 0.3983976565076596 1.5207382310481607 1.233614259841345 0.38567017981737933
1.1013360235531306 -0.2907015115214093 -0.2697421579828796 0.20009205382928377 -1.5505313149226674 -0.9679723673169633 -1.1375152703726348 1.4111897569027714
-0.7367077601041034 0.2584666047772873 -1.3439190887814016 0.4581529933860333 -0.4394560498574716 -1.1576876058170318 1.1183051695886943 0.42477209659466625
-1.4419074292260843 0.6011381430365417 0.011950083052483587 0.6935606653768365 -0.10479166258520282 -0.4339081006566332 0.1440464096485162 0.7373301820059103
1.4113075322587876 1.0362851503096178 0.5523187100387221 -0.2035207945957287 0.26809748102223474 -1.629411131643651 0.37976166407418444 0.42662577658078243
-1.0165370903128854 -0.31808996632660036 -0.1994010927736122 -0.3294301328641462 0.8362726435622492 1.5951784564320186 -0.39346718044091566 0.4870945435905594
1.2186412771414028 -1.448889367268977 0.9447188863268824 -0.5352141734950271 0.1225421903383996 -0.5039289477373674 -0.11017338671517486 0.037809427764767714
-0.6271261088845573 1.5092585861780814 0.676042768762685 -0.3008097231743313 -1.3871488533312475 -0.6388002786092059 -1.6569812306850726 0.14832161315003364
-1.1307190268292076 0.10571155078723153 1.0869523412916249 -0.9474182759241458 1.4793457162368453 -0.1664585134869083 -0.9188802194494557 -0.13949102251248488
-1.631307064547277 0.4582187933272142 1.648901823527997 -0.21806567242983355 -1.5672259039876821 -1.2221708649454806 1.2949274335442305 0.8135518318732694
-0.25468255470409823 -0.7672728836851569 1.5392319491186905 -1.0157265337117738 0.4080885189435078 -1.5395646221549466 -0.8014687779652834 0.9838511073082854
1.4578162348378851 0.3427650049911881 -1.5682081484333472 -0.045918158446826264 -0.4850440167117907 0.8163836214317468 0.564589495891875 0.7452317676180495
1.6179603911248388 -1.2290314724602271 -0.8433467299566958 0.6198692909535268 -0.936382180256971 1.0686396025354554 -0.2586191440368284 0.12607646898937722
-0.7216901294921628 -0.1255862870322332 -0.7966180952644631 0.33664957890032 1.4423714457070487 0.3675240358876808 1.2054696035938932 -1.682709788722614
0.5357848428401879 -0.9996426128364986 -0.13170933379674638 0.02056581995352841 -0.8766546166493295 0.38860373776478796 0.17101131256814026 -0.4176223931314834
0.0375309990192124 0.8875621804647283 1.322696025226267 0.17383393230091979 -0.9626169850592419 0.5789756798981414 -0.7662925871046088 -1.5104969036574851
-1.5435812646478295 -0.6027703318084824 1.318062387787983 -1.096420973003114 0.6219116582354497 0.26955249968465544 0.5431380616635457 -0.9773186740823768
0.9802136437665078 0.08707800268792903 1.3606530026055785 1.381177816485705 0.3119288108968432 -1.6348475383468601 -1.2355718512495881 -1.3550676340452734
-0.4619624881555873 -1.2149868624577005 1.4135998731967656 0.5422918140610242 0.8947543616684644 0.5315708939489179 0.5283577534677188 0.8262387831699698
-0.9701503537738193 -1.5902717223727463 1.0627383972724043 0.5503526322713055 -0.05242475303776196 -1.103126484990857 0.51681666354787 -1.045228219491803
1.7137075238438901 1.6098210128818957 1.1114947000907307 0.12093160862283477 0.7776570062039488 1.349498338975687 0.4493387588515622 0.24996409344136708
1.2273070425849661 -0.443782408701554 0.53037776086093 -0.43711050163246673 0.601751344849931 1.257577908602176 1.447432230570227 1.016219438854666
-0.15467686481174442 -0.40135960535720194 0.956191645551847 -0.9653604905874427 -0.7348968522618661 -0.027487677019186703 -1.453563205222735 -0.04162868141353134
0.5480727632211551 0.3132281056798293 0.8870186432952726 0.10413555890181601 0.6330021219797641 -0.8881023197146887 -1.4789012171472635 -1.5010063566820908
